{"format": "graph-model", "generatedBy": "2.13.1", "convertedBy": "TensorFlow.js Converter v3.9.0", "signature": {"outputs": {"Identity:0": {"name": "Identity:0"}}}, "modelTopology": {"node": [{"name": "ConstantFolding/PartitionedCall/model_16/tf.math.divide/truediv_recip", "op": "Const", "attr": {"dtype": {"type": "DT_FLOAT"}, "value": {"tensor": {"dtype": "DT_FLOAT", "tensorShape": {"dim": [{"size": "1"}, {"size": "1"}, {"size": "1"}]}}}}}, {"name": "50201", "op": "Const", "attr": {"value": {"tensor": {"dtype": "DT_FLOAT", "tensorShape": {"dim": [{"size": "1"}, {"size": "2"}, {"size": "21504"}]}}}, "dtype": {"type": "DT_FLOAT"}}}, {"name": "50193", "op": "Const", "attr": {"dtype": {"type": "DT_INT64"}, "value": {"tensor": {"dtype": "DT_INT64", "tensorShape": {"dim": [{"size": "3"}]}}}}}, {"name": "50195", "op": "Const", "attr": {"value": {"tensor": {"dtype": "DT_INT64", "tensorShape": {"dim": [{"size": "3"}]}}}, "dtype": {"type": "DT_INT64"}}}, {"name": "PartitionedCall/model_16/tf.strided_slice_19/ones_like", "op": "Const", "attr": {"value": {"tensor": {"dtype": "DT_INT64", "tensorShape": {"dim": [{"size": "3"}]}}}, "dtype": {"type": "DT_INT64"}}}, {"name": "50203", "op": "Const", "attr": {"value": {"tensor": {"dtype": "DT_FLOAT", "tensorShape": {"dim": [{"size": "1"}, {"size": "2"}, {"size": "21504"}]}}}, "dtype": {"type": "DT_FLOAT"}}}, {"name": "50187", "op": "Const", "attr": {"dtype": {"type": "DT_INT64"}, "value": {"tensor": {"dtype": "DT_INT64", "tensorShape": {"dim": [{"size": "3"}]}}}}}, {"name": "50189", "op": "Const", "attr": {"dtype": {"type": "DT_INT64"}, "value": {"tensor": {"dtype": "DT_INT64", "tensorShape": {"dim": [{"size": "3"}]}}}}}, {"name": "PartitionedCall/model_16/tf.strided_slice_16/StridedSlice/strides", "op": "Const", "attr": {"value": {"tensor": {"dtype": "DT_INT64", "tensorShape": {"dim": [{"size": "3"}]}}}, "dtype": {"type": "DT_INT64"}}}, {"name": "PartitionedCall/model_16/tf.reshape_3/Reshape/shape", "op": "Const", "attr": {"value": {"tensor": {"dtype": "DT_INT32", "tensorShape": {"dim": [{"size": "4"}]}}}, "dtype": {"type": "DT_INT32"}}}, {"name": "PartitionedCall/model_16/tf.compat.v1.transpose_3479/transpose/perm", "op": "Const", "attr": {"value": {"tensor": {"dtype": "DT_INT32", "tensorShape": {"dim": [{"size": "4"}]}}}, "dtype": {"type": "DT_INT32"}}}, {"name": "PartitionedCall/model_16/tf.compat.v1.transpose_3480/transpose/perm", "op": "Const", "attr": {"value": {"tensor": {"dtype": "DT_INT32", "tensorShape": {"dim": [{"size": "4"}]}}}, "dtype": {"type": "DT_INT32"}}}, {"name": "50191", "op": "Const", "attr": {"dtype": {"type": "DT_FLOAT"}, "value": {"tensor": {"dtype": "DT_FLOAT", "tensorShape": {"dim": [{"size": "1"}, {"size": "1"}, {"size": "16"}, {"size": "1"}]}}}}}, {"name": "PartitionedCall/model_16/tf.compat.v1.transpose_3483/transpose/perm", "op": "Const", "attr": {"value": {"tensor": {"dtype": "DT_INT32", "tensorShape": {"dim": [{"size": "4"}]}}}, "dtype": {"type": "DT_INT32"}}}, {"name": "PartitionedCall/model_16/tf.reshape_4/Reshape/shape", "op": "Const", "attr": {"value": {"tensor": {"dtype": "DT_INT32", "tensorShape": {"dim": [{"size": "3"}]}}}, "dtype": {"type": "DT_INT32"}}}, {"name": "50197", "op": "Const", "attr": {"dtype": {"type": "DT_INT64"}, "value": {"tensor": {"dtype": "DT_INT64", "tensorShape": {"dim": [{"size": "3"}]}}}}}, {"name": "50199", "op": "Const", "attr": {"value": {"tensor": {"dtype": "DT_INT64", "tensorShape": {"dim": [{"size": "3"}]}}}, "dtype": {"type": "DT_INT64"}}}, {"name": "PartitionedCall/model_16/tf.strided_slice_18/ones_like", "op": "Const", "attr": {"value": {"tensor": {"dtype": "DT_INT64", "tensorShape": {"dim": [{"size": "3"}]}}}, "dtype": {"type": "DT_INT64"}}}, {"name": "PartitionedCall/model_16/tf.concat_1748/concat/axis", "op": "Const", "attr": {"value": {"tensor": {"dtype": "DT_INT32", "tensorShape": {}}}, "dtype": {"type": "DT_INT32"}}}, {"name": "PartitionedCall/model_16/tf.math.multiply_24/Mul/y", "op": "Const", "attr": {"value": {"tensor": {"dtype": "DT_FLOAT", "tensorShape": {"dim": [{"size": "1"}, {"size": "1"}, {"size": "21504"}]}}}, "dtype": {"type": "DT_FLOAT"}}}, {"name": "50129", "op": "Const", "attr": {"value": {"tensor": {"dtype": "DT_FLOAT", "tensorShape": {"dim": [{"size": "3"}, {"size": "3"}, {"size": "64"}, {"size": "64"}]}}}, "dtype": {"type": "DT_FLOAT"}}}, {"name": "50141", "op": "Const", "attr": {"value": {"tensor": {"dtype": "DT_FLOAT", "tensorShape": {"dim": [{"size": "64"}]}}}, "dtype": {"type": "DT_FLOAT"}}}, {"name": "50153", "op": "Const", "attr": {"value": {"tensor": {"dtype": "DT_FLOAT", "tensorShape": {"dim": [{"size": "3"}, {"size": "3"}, {"size": "64"}, {"size": "64"}]}}}, "dtype": {"type": "DT_FLOAT"}}}, {"name": "50161", "op": "Const", "attr": {"dtype": {"type": "DT_FLOAT"}, "value": {"tensor": {"dtype": "DT_FLOAT", "tensorShape": {"dim": [{"size": "64"}]}}}}}, {"name": "50177", "op": "Const", "attr": {"value": {"tensor": {"dtype": "DT_FLOAT", "tensorShape": {"dim": [{"size": "1"}, {"size": "1"}, {"size": "64"}, {"size": "64"}]}}}, "dtype": {"type": "DT_FLOAT"}}}, {"name": "50183", "op": "Const", "attr": {"dtype": {"type": "DT_FLOAT"}, "value": {"tensor": {"dtype": "DT_FLOAT", "tensorShape": {"dim": [{"size": "64"}]}}}}}, {"name": "50127", "op": "Const", "attr": {"value": {"tensor": {"dtype": "DT_FLOAT", "tensorShape": {"dim": [{"size": "3"}, {"size": "3"}, {"size": "64"}, {"size": "64"}]}}}, "dtype": {"type": "DT_FLOAT"}}}, {"name": "50139", "op": "Const", "attr": {"value": {"tensor": {"dtype": "DT_FLOAT", "tensorShape": {"dim": [{"size": "64"}]}}}, "dtype": {"type": "DT_FLOAT"}}}, {"name": "50151", "op": "Const", "attr": {"dtype": {"type": "DT_FLOAT"}, "value": {"tensor": {"dtype": "DT_FLOAT", "tensorShape": {"dim": [{"size": "3"}, {"size": "3"}, {"size": "64"}, {"size": "64"}]}}}}}, {"name": "50159", "op": "Const", "attr": {"dtype": {"type": "DT_FLOAT"}, "value": {"tensor": {"dtype": "DT_FLOAT", "tensorShape": {"dim": [{"size": "64"}]}}}}}, {"name": "50175", "op": "Const", "attr": {"value": {"tensor": {"dtype": "DT_FLOAT", "tensorShape": {"dim": [{"size": "1"}, {"size": "1"}, {"size": "64"}, {"size": "2"}]}}}, "dtype": {"type": "DT_FLOAT"}}}, {"name": "50185", "op": "Const", "attr": {"dtype": {"type": "DT_FLOAT"}, "value": {"tensor": {"dtype": "DT_FLOAT", "tensorShape": {"dim": [{"size": "2"}]}}}}}, {"name": "PartitionedCall/model_16/tf.concat_1164/concat/axis", "op": "Const", "attr": {"dtype": {"type": "DT_INT32"}, "value": {"tensor": {"dtype": "DT_INT32", "tensorShape": {}}}}}, {"name": "PartitionedCall/model_16/tf.compat.v1.transpose_2316/transpose/perm", "op": "Const", "attr": {"value": {"tensor": {"dtype": "DT_INT32", "tensorShape": {"dim": [{"size": "4"}]}}}, "dtype": {"type": "DT_INT32"}}}, {"name": "PartitionedCall/model_16/tf.reshape/Reshape/shape", "op": "Const", "attr": {"value": {"tensor": {"dtype": "DT_INT32", "tensorShape": {"dim": [{"size": "3"}]}}}, "dtype": {"type": "DT_INT32"}}}, {"name": "50115", "op": "Const", "attr": {"value": {"tensor": {"dtype": "DT_FLOAT", "tensorShape": {"dim": [{"size": "3"}, {"size": "3"}, {"size": "128"}, {"size": "64"}]}}}, "dtype": {"type": "DT_FLOAT"}}}, {"name": "50121", "op": "Const", "attr": {"value": {"tensor": {"dtype": "DT_FLOAT", "tensorShape": {"dim": [{"size": "64"}]}}}, "dtype": {"type": "DT_FLOAT"}}}, {"name": "50137", "op": "Const", "attr": {"value": {"tensor": {"dtype": "DT_FLOAT", "tensorShape": {"dim": [{"size": "3"}, {"size": "3"}, {"size": "64"}, {"size": "64"}]}}}, "dtype": {"type": "DT_FLOAT"}}}, {"name": "50145", "op": "Const", "attr": {"dtype": {"type": "DT_FLOAT"}, "value": {"tensor": {"dtype": "DT_FLOAT", "tensorShape": {"dim": [{"size": "64"}]}}}}}, {"name": "50165", "op": "Const", "attr": {"value": {"tensor": {"dtype": "DT_FLOAT", "tensorShape": {"dim": [{"size": "1"}, {"size": "1"}, {"size": "64"}, {"size": "64"}]}}}, "dtype": {"type": "DT_FLOAT"}}}, {"name": "50173", "op": "Const", "attr": {"value": {"tensor": {"dtype": "DT_FLOAT", "tensorShape": {"dim": [{"size": "64"}]}}}, "dtype": {"type": "DT_FLOAT"}}}, {"name": "50113", "op": "Const", "attr": {"value": {"tensor": {"dtype": "DT_FLOAT", "tensorShape": {"dim": [{"size": "3"}, {"size": "3"}, {"size": "128"}, {"size": "64"}]}}}, "dtype": {"type": "DT_FLOAT"}}}, {"name": "50119", "op": "Const", "attr": {"value": {"tensor": {"dtype": "DT_FLOAT", "tensorShape": {"dim": [{"size": "64"}]}}}, "dtype": {"type": "DT_FLOAT"}}}, {"name": "50135", "op": "Const", "attr": {"dtype": {"type": "DT_FLOAT"}, "value": {"tensor": {"dtype": "DT_FLOAT", "tensorShape": {"dim": [{"size": "3"}, {"size": "3"}, {"size": "64"}, {"size": "64"}]}}}}}, {"name": "50143", "op": "Const", "attr": {"dtype": {"type": "DT_FLOAT"}, "value": {"tensor": {"dtype": "DT_FLOAT", "tensorShape": {"dim": [{"size": "64"}]}}}}}, {"name": "50163", "op": "Const", "attr": {"value": {"tensor": {"dtype": "DT_FLOAT", "tensorShape": {"dim": [{"size": "1"}, {"size": "1"}, {"size": "64"}, {"size": "2"}]}}}, "dtype": {"type": "DT_FLOAT"}}}, {"name": "50171", "op": "Const", "attr": {"dtype": {"type": "DT_FLOAT"}, "value": {"tensor": {"dtype": "DT_FLOAT", "tensorShape": {"dim": [{"size": "2"}]}}}}}, {"name": "PartitionedCall/model_16/tf.concat_1744/concat/axis", "op": "Const", "attr": {"dtype": {"type": "DT_INT32"}, "value": {"tensor": {"dtype": "DT_INT32", "tensorShape": {}}}}}, {"name": "PartitionedCall/model_16/tf.compat.v1.transpose_3476/transpose/perm", "op": "Const", "attr": {"dtype": {"type": "DT_INT32"}, "value": {"tensor": {"dtype": "DT_INT32", "tensorShape": {"dim": [{"size": "4"}]}}}}}, {"name": "PartitionedCall/model_16/tf.reshape_1/Reshape/shape", "op": "Const", "attr": {"value": {"tensor": {"dtype": "DT_INT32", "tensorShape": {"dim": [{"size": "3"}]}}}, "dtype": {"type": "DT_INT32"}}}, {"name": "50125", "op": "Const", "attr": {"dtype": {"type": "DT_FLOAT"}, "value": {"tensor": {"dtype": "DT_FLOAT", "tensorShape": {"dim": [{"size": "3"}, {"size": "3"}, {"size": "256"}, {"size": "64"}]}}}}}, {"name": "50133", "op": "Const", "attr": {"value": {"tensor": {"dtype": "DT_FLOAT", "tensorShape": {"dim": [{"size": "64"}]}}}, "dtype": {"type": "DT_FLOAT"}}}, {"name": "50149", "op": "Const", "attr": {"value": {"tensor": {"dtype": "DT_FLOAT", "tensorShape": {"dim": [{"size": "3"}, {"size": "3"}, {"size": "64"}, {"size": "64"}]}}}, "dtype": {"type": "DT_FLOAT"}}}, {"name": "50157", "op": "Const", "attr": {"value": {"tensor": {"dtype": "DT_FLOAT", "tensorShape": {"dim": [{"size": "64"}]}}}, "dtype": {"type": "DT_FLOAT"}}}, {"name": "50169", "op": "Const", "attr": {"dtype": {"type": "DT_FLOAT"}, "value": {"tensor": {"dtype": "DT_FLOAT", "tensorShape": {"dim": [{"size": "1"}, {"size": "1"}, {"size": "64"}, {"size": "64"}]}}}}}, {"name": "50179", "op": "Const", "attr": {"value": {"tensor": {"dtype": "DT_FLOAT", "tensorShape": {"dim": [{"size": "64"}]}}}, "dtype": {"type": "DT_FLOAT"}}}, {"name": "50107", "op": "Const", "attr": {"value": {"tensor": {"dtype": "DT_INT64", "tensorShape": {"dim": [{"size": "4"}]}}}, "dtype": {"type": "DT_INT64"}}}, {"name": "50109", "op": "Const", "attr": {"dtype": {"type": "DT_INT64"}, "value": {"tensor": {"dtype": "DT_INT64", "tensorShape": {"dim": [{"size": "4"}]}}}}}, {"name": "PartitionedCall/model_16/tf.strided_slice_14/ones_like", "op": "Const", "attr": {"value": {"tensor": {"dtype": "DT_INT64", "tensorShape": {"dim": [{"size": "4"}]}}}, "dtype": {"type": "DT_INT64"}}}, {"name": "50077", "op": "Const", "attr": {"value": {"tensor": {"dtype": "DT_INT64", "tensorShape": {"dim": [{"size": "4"}]}}}, "dtype": {"type": "DT_INT64"}}}, {"name": "50079", "op": "Const", "attr": {"value": {"tensor": {"dtype": "DT_INT64", "tensorShape": {"dim": [{"size": "4"}]}}}, "dtype": {"type": "DT_INT64"}}}, {"name": "PartitionedCall/model_16/tf.strided_slice_12/ones_like", "op": "Const", "attr": {"value": {"tensor": {"dtype": "DT_INT64", "tensorShape": {"dim": [{"size": "4"}]}}}, "dtype": {"type": "DT_INT64"}}}, {"name": "50047", "op": "Const", "attr": {"value": {"tensor": {"dtype": "DT_INT64", "tensorShape": {"dim": [{"size": "4"}]}}}, "dtype": {"type": "DT_INT64"}}}, {"name": "50049", "op": "Const", "attr": {"value": {"tensor": {"dtype": "DT_INT64", "tensorShape": {"dim": [{"size": "4"}]}}}, "dtype": {"type": "DT_INT64"}}}, {"name": "PartitionedCall/model_16/tf.strided_slice_10/ones_like", "op": "Const", "attr": {"value": {"tensor": {"dtype": "DT_INT64", "tensorShape": {"dim": [{"size": "4"}]}}}, "dtype": {"type": "DT_INT64"}}}, {"name": "PartitionedCall/model_16/lambda_1//model.13/Resize/size", "op": "Const", "attr": {"value": {"tensor": {"dtype": "DT_INT32", "tensorShape": {"dim": [{"size": "2"}]}}}, "dtype": {"type": "DT_INT32"}}}, {"name": "PartitionedCall/model_16/tf.concat_584/concat/axis", "op": "Const", "attr": {"value": {"tensor": {"dtype": "DT_INT32", "tensorShape": {}}}, "dtype": {"type": "DT_INT32"}}}, {"name": "50031", "op": "Const", "attr": {"value": {"tensor": {"dtype": "DT_FLOAT", "tensorShape": {"dim": [{"size": "1"}, {"size": "1"}, {"size": "192"}, {"size": "64"}]}}}, "dtype": {"type": "DT_FLOAT"}}}, {"name": "50033", "op": "Const", "attr": {"dtype": {"type": "DT_FLOAT"}, "value": {"tensor": {"dtype": "DT_FLOAT", "tensorShape": {"dim": [{"size": "64"}]}}}}}, {"name": "50035", "op": "Const", "attr": {"value": {"tensor": {"dtype": "DT_INT64", "tensorShape": {"dim": [{"size": "4"}]}}}, "dtype": {"type": "DT_INT64"}}}, {"name": "50037", "op": "Const", "attr": {"value": {"tensor": {"dtype": "DT_INT64", "tensorShape": {"dim": [{"size": "4"}]}}}, "dtype": {"type": "DT_INT64"}}}, {"name": "PartitionedCall/model_16/tf.strided_slice_11/ones_like", "op": "Const", "attr": {"value": {"tensor": {"dtype": "DT_INT64", "tensorShape": {"dim": [{"size": "4"}]}}}, "dtype": {"type": "DT_INT64"}}}, {"name": "50039", "op": "Const", "attr": {"dtype": {"type": "DT_FLOAT"}, "value": {"tensor": {"dtype": "DT_FLOAT", "tensorShape": {"dim": [{"size": "3"}, {"size": "3"}, {"size": "32"}, {"size": "32"}]}}}}}, {"name": "50041", "op": "Const", "attr": {"dtype": {"type": "DT_FLOAT"}, "value": {"tensor": {"dtype": "DT_FLOAT", "tensorShape": {"dim": [{"size": "32"}]}}}}}, {"name": "50043", "op": "Const", "attr": {"value": {"tensor": {"dtype": "DT_FLOAT", "tensorShape": {"dim": [{"size": "3"}, {"size": "3"}, {"size": "32"}, {"size": "32"}]}}}, "dtype": {"type": "DT_FLOAT"}}}, {"name": "50045", "op": "Const", "attr": {"dtype": {"type": "DT_FLOAT"}, "value": {"tensor": {"dtype": "DT_FLOAT", "tensorShape": {"dim": [{"size": "32"}]}}}}}, {"name": "PartitionedCall/model_16/tf.concat_585/concat/axis", "op": "Const", "attr": {"value": {"tensor": {"dtype": "DT_INT32", "tensorShape": {}}}, "dtype": {"type": "DT_INT32"}}}, {"name": "50051", "op": "Const", "attr": {"value": {"tensor": {"dtype": "DT_FLOAT", "tensorShape": {"dim": [{"size": "1"}, {"size": "1"}, {"size": "96"}, {"size": "64"}]}}}, "dtype": {"type": "DT_FLOAT"}}}, {"name": "50053", "op": "Const", "attr": {"dtype": {"type": "DT_FLOAT"}, "value": {"tensor": {"dtype": "DT_FLOAT", "tensorShape": {"dim": [{"size": "64"}]}}}}}, {"name": "50055", "op": "Const", "attr": {"value": {"tensor": {"dtype": "DT_INT32", "tensorShape": {"dim": [{"size": "4"}, {"size": "2"}]}}}, "dtype": {"type": "DT_INT32"}}}, {"name": "50057", "op": "Const", "attr": {"value": {"tensor": {"dtype": "DT_FLOAT", "tensorShape": {"dim": [{"size": "3"}, {"size": "3"}, {"size": "64"}, {"size": "64"}]}}}, "dtype": {"type": "DT_FLOAT"}}}, {"name": "50059", "op": "Const", "attr": {"dtype": {"type": "DT_FLOAT"}, "value": {"tensor": {"dtype": "DT_FLOAT", "tensorShape": {"dim": [{"size": "64"}]}}}}}, {"name": "50023", "op": "Const", "attr": {"dtype": {"type": "DT_INT64"}, "value": {"tensor": {"dtype": "DT_INT64", "tensorShape": {"dim": [{"size": "4"}]}}}}}, {"name": "50025", "op": "Const", "attr": {"dtype": {"type": "DT_INT64"}, "value": {"tensor": {"dtype": "DT_INT64", "tensorShape": {"dim": [{"size": "4"}]}}}}}, {"name": "PartitionedCall/model_16/tf.strided_slice_8/ones_like", "op": "Const", "attr": {"value": {"tensor": {"dtype": "DT_INT64", "tensorShape": {"dim": [{"size": "4"}]}}}, "dtype": {"type": "DT_INT64"}}}, {"name": "PartitionedCall/model_16/lambda//model.10/Resize/size", "op": "Const", "attr": {"dtype": {"type": "DT_INT32"}, "value": {"tensor": {"dtype": "DT_INT32", "tensorShape": {"dim": [{"size": "2"}]}}}}}, {"name": "PartitionedCall/model_16/tf.concat_5/concat/axis", "op": "Const", "attr": {"value": {"tensor": {"dtype": "DT_INT32", "tensorShape": {}}}, "dtype": {"type": "DT_INT32"}}}, {"name": "50007", "op": "Const", "attr": {"dtype": {"type": "DT_FLOAT"}, "value": {"tensor": {"dtype": "DT_FLOAT", "tensorShape": {"dim": [{"size": "1"}, {"size": "1"}, {"size": "384"}, {"size": "128"}]}}}}}, {"name": "50009", "op": "Const", "attr": {"dtype": {"type": "DT_FLOAT"}, "value": {"tensor": {"dtype": "DT_FLOAT", "tensorShape": {"dim": [{"size": "128"}]}}}}}, {"name": "50011", "op": "Const", "attr": {"dtype": {"type": "DT_INT64"}, "value": {"tensor": {"dtype": "DT_INT64", "tensorShape": {"dim": [{"size": "4"}]}}}}}, {"name": "50013", "op": "Const", "attr": {"dtype": {"type": "DT_INT64"}, "value": {"tensor": {"dtype": "DT_INT64", "tensorShape": {"dim": [{"size": "4"}]}}}}}, {"name": "PartitionedCall/model_16/tf.strided_slice_9/ones_like", "op": "Const", "attr": {"dtype": {"type": "DT_INT64"}, "value": {"tensor": {"dtype": "DT_INT64", "tensorShape": {"dim": [{"size": "4"}]}}}}}, {"name": "50015", "op": "Const", "attr": {"value": {"tensor": {"dtype": "DT_FLOAT", "tensorShape": {"dim": [{"size": "3"}, {"size": "3"}, {"size": "64"}, {"size": "64"}]}}}, "dtype": {"type": "DT_FLOAT"}}}, {"name": "50017", "op": "Const", "attr": {"value": {"tensor": {"dtype": "DT_FLOAT", "tensorShape": {"dim": [{"size": "64"}]}}}, "dtype": {"type": "DT_FLOAT"}}}, {"name": "50019", "op": "Const", "attr": {"dtype": {"type": "DT_FLOAT"}, "value": {"tensor": {"dtype": "DT_FLOAT", "tensorShape": {"dim": [{"size": "3"}, {"size": "3"}, {"size": "64"}, {"size": "64"}]}}}}}, {"name": "50021", "op": "Const", "attr": {"dtype": {"type": "DT_FLOAT"}, "value": {"tensor": {"dtype": "DT_FLOAT", "tensorShape": {"dim": [{"size": "64"}]}}}}}, {"name": "PartitionedCall/model_16/tf.concat_6/concat/axis", "op": "Const", "attr": {"dtype": {"type": "DT_INT32"}, "value": {"tensor": {"dtype": "DT_INT32", "tensorShape": {}}}}}, {"name": "50027", "op": "Const", "attr": {"dtype": {"type": "DT_FLOAT"}, "value": {"tensor": {"dtype": "DT_FLOAT", "tensorShape": {"dim": [{"size": "1"}, {"size": "1"}, {"size": "192"}, {"size": "128"}]}}}}}, {"name": "50029", "op": "Const", "attr": {"value": {"tensor": {"dtype": "DT_FLOAT", "tensorShape": {"dim": [{"size": "128"}]}}}, "dtype": {"type": "DT_FLOAT"}}}, {"name": "PartitionedCall/model_16/tf.concat_1163/concat/axis", "op": "Const", "attr": {"dtype": {"type": "DT_INT32"}, "value": {"tensor": {"dtype": "DT_INT32", "tensorShape": {}}}}}, {"name": "50061", "op": "Const", "attr": {"dtype": {"type": "DT_FLOAT"}, "value": {"tensor": {"dtype": "DT_FLOAT", "tensorShape": {"dim": [{"size": "1"}, {"size": "1"}, {"size": "192"}, {"size": "128"}]}}}}}, {"name": "50063", "op": "Const", "attr": {"dtype": {"type": "DT_FLOAT"}, "value": {"tensor": {"dtype": "DT_FLOAT", "tensorShape": {"dim": [{"size": "128"}]}}}}}, {"name": "50065", "op": "Const", "attr": {"value": {"tensor": {"dtype": "DT_INT64", "tensorShape": {"dim": [{"size": "4"}]}}}, "dtype": {"type": "DT_INT64"}}}, {"name": "50067", "op": "Const", "attr": {"value": {"tensor": {"dtype": "DT_INT64", "tensorShape": {"dim": [{"size": "4"}]}}}, "dtype": {"type": "DT_INT64"}}}, {"name": "PartitionedCall/model_16/tf.strided_slice_13/ones_like", "op": "Const", "attr": {"value": {"tensor": {"dtype": "DT_INT64", "tensorShape": {"dim": [{"size": "4"}]}}}, "dtype": {"type": "DT_INT64"}}}, {"name": "50069", "op": "Const", "attr": {"dtype": {"type": "DT_FLOAT"}, "value": {"tensor": {"dtype": "DT_FLOAT", "tensorShape": {"dim": [{"size": "3"}, {"size": "3"}, {"size": "64"}, {"size": "64"}]}}}}}, {"name": "50071", "op": "Const", "attr": {"dtype": {"type": "DT_FLOAT"}, "value": {"tensor": {"dtype": "DT_FLOAT", "tensorShape": {"dim": [{"size": "64"}]}}}}}, {"name": "50073", "op": "Const", "attr": {"value": {"tensor": {"dtype": "DT_FLOAT", "tensorShape": {"dim": [{"size": "3"}, {"size": "3"}, {"size": "64"}, {"size": "64"}]}}}, "dtype": {"type": "DT_FLOAT"}}}, {"name": "50075", "op": "Const", "attr": {"value": {"tensor": {"dtype": "DT_FLOAT", "tensorShape": {"dim": [{"size": "64"}]}}}, "dtype": {"type": "DT_FLOAT"}}}, {"name": "PartitionedCall/model_16/tf.concat_1165/concat/axis", "op": "Const", "attr": {"value": {"tensor": {"dtype": "DT_INT32", "tensorShape": {}}}, "dtype": {"type": "DT_INT32"}}}, {"name": "50081", "op": "Const", "attr": {"dtype": {"type": "DT_FLOAT"}, "value": {"tensor": {"dtype": "DT_FLOAT", "tensorShape": {"dim": [{"size": "1"}, {"size": "1"}, {"size": "192"}, {"size": "128"}]}}}}}, {"name": "50083", "op": "Const", "attr": {"dtype": {"type": "DT_FLOAT"}, "value": {"tensor": {"dtype": "DT_FLOAT", "tensorShape": {"dim": [{"size": "128"}]}}}}}, {"name": "50085", "op": "Const", "attr": {"value": {"tensor": {"dtype": "DT_INT32", "tensorShape": {"dim": [{"size": "4"}, {"size": "2"}]}}}, "dtype": {"type": "DT_INT32"}}}, {"name": "50087", "op": "Const", "attr": {"dtype": {"type": "DT_FLOAT"}, "value": {"tensor": {"dtype": "DT_FLOAT", "tensorShape": {"dim": [{"size": "3"}, {"size": "3"}, {"size": "128"}, {"size": "128"}]}}}}}, {"name": "50089", "op": "Const", "attr": {"value": {"tensor": {"dtype": "DT_FLOAT", "tensorShape": {"dim": [{"size": "128"}]}}}, "dtype": {"type": "DT_FLOAT"}}}, {"name": "49991", "op": "Const", "attr": {"value": {"tensor": {"dtype": "DT_INT64", "tensorShape": {"dim": [{"size": "4"}]}}}, "dtype": {"type": "DT_INT64"}}}, {"name": "49993", "op": "Const", "attr": {"dtype": {"type": "DT_INT64"}, "value": {"tensor": {"dtype": "DT_INT64", "tensorShape": {"dim": [{"size": "4"}]}}}}}, {"name": "PartitionedCall/model_16/tf.strided_slice_6/ones_like", "op": "Const", "attr": {"value": {"tensor": {"dtype": "DT_INT64", "tensorShape": {"dim": [{"size": "4"}]}}}, "dtype": {"type": "DT_INT64"}}}, {"name": "49961", "op": "Const", "attr": {"dtype": {"type": "DT_INT64"}, "value": {"tensor": {"dtype": "DT_INT64", "tensorShape": {"dim": [{"size": "4"}]}}}}}, {"name": "49963", "op": "Const", "attr": {"value": {"tensor": {"dtype": "DT_INT64", "tensorShape": {"dim": [{"size": "4"}]}}}, "dtype": {"type": "DT_INT64"}}}, {"name": "PartitionedCall/model_16/tf.strided_slice_4/ones_like", "op": "Const", "attr": {"value": {"tensor": {"dtype": "DT_INT64", "tensorShape": {"dim": [{"size": "4"}]}}}, "dtype": {"type": "DT_INT64"}}}, {"name": "49923", "op": "Const", "attr": {"value": {"tensor": {"dtype": "DT_INT64", "tensorShape": {"dim": [{"size": "4"}]}}}, "dtype": {"type": "DT_INT64"}}}, {"name": "49925", "op": "Const", "attr": {"dtype": {"type": "DT_INT64"}, "value": {"tensor": {"dtype": "DT_INT64", "tensorShape": {"dim": [{"size": "4"}]}}}}}, {"name": "PartitionedCall/model_16/tf.strided_slice_2/ones_like", "op": "Const", "attr": {"value": {"tensor": {"dtype": "DT_INT64", "tensorShape": {"dim": [{"size": "4"}]}}}, "dtype": {"type": "DT_INT64"}}}, {"name": "49885", "op": "Const", "attr": {"value": {"tensor": {"dtype": "DT_INT64", "tensorShape": {"dim": [{"size": "4"}]}}}, "dtype": {"type": "DT_INT64"}}}, {"name": "49887", "op": "Const", "attr": {"value": {"tensor": {"dtype": "DT_INT64", "tensorShape": {"dim": [{"size": "4"}]}}}, "dtype": {"type": "DT_INT64"}}}, {"name": "PartitionedCall/model_16/tf.strided_slice/ones_like", "op": "Const", "attr": {"dtype": {"type": "DT_INT64"}, "value": {"tensor": {"dtype": "DT_INT64", "tensorShape": {"dim": [{"size": "4"}]}}}}}, {"name": "49857", "op": "Const", "attr": {"value": {"tensor": {"dtype": "DT_INT32", "tensorShape": {"dim": [{"size": "4"}, {"size": "2"}]}}}, "dtype": {"type": "DT_INT32"}}}, {"name": "49859", "op": "Const", "attr": {"value": {"tensor": {"dtype": "DT_FLOAT", "tensorShape": {"dim": [{"size": "3"}, {"size": "3"}, {"size": "3"}, {"size": "16"}]}}}, "dtype": {"type": "DT_FLOAT"}}}, {"name": "49861", "op": "Const", "attr": {"dtype": {"type": "DT_FLOAT"}, "value": {"tensor": {"dtype": "DT_FLOAT", "tensorShape": {"dim": [{"size": "16"}]}}}}}, {"name": "49863", "op": "Const", "attr": {"value": {"tensor": {"dtype": "DT_INT32", "tensorShape": {"dim": [{"size": "4"}, {"size": "2"}]}}}, "dtype": {"type": "DT_INT32"}}}, {"name": "49865", "op": "Const", "attr": {"value": {"tensor": {"dtype": "DT_FLOAT", "tensorShape": {"dim": [{"size": "3"}, {"size": "3"}, {"size": "16"}, {"size": "32"}]}}}, "dtype": {"type": "DT_FLOAT"}}}, {"name": "49867", "op": "Const", "attr": {"dtype": {"type": "DT_FLOAT"}, "value": {"tensor": {"dtype": "DT_FLOAT", "tensorShape": {"dim": [{"size": "32"}]}}}}}, {"name": "49869", "op": "Const", "attr": {"dtype": {"type": "DT_FLOAT"}, "value": {"tensor": {"dtype": "DT_FLOAT", "tensorShape": {"dim": [{"size": "1"}, {"size": "1"}, {"size": "32"}, {"size": "32"}]}}}}}, {"name": "49871", "op": "Const", "attr": {"value": {"tensor": {"dtype": "DT_FLOAT", "tensorShape": {"dim": [{"size": "32"}]}}}, "dtype": {"type": "DT_FLOAT"}}}, {"name": "49873", "op": "Const", "attr": {"value": {"tensor": {"dtype": "DT_INT64", "tensorShape": {"dim": [{"size": "4"}]}}}, "dtype": {"type": "DT_INT64"}}}, {"name": "49875", "op": "Const", "attr": {"dtype": {"type": "DT_INT64"}, "value": {"tensor": {"dtype": "DT_INT64", "tensorShape": {"dim": [{"size": "4"}]}}}}}, {"name": "PartitionedCall/model_16/tf.strided_slice_1/ones_like", "op": "Const", "attr": {"value": {"tensor": {"dtype": "DT_INT64", "tensorShape": {"dim": [{"size": "4"}]}}}, "dtype": {"type": "DT_INT64"}}}, {"name": "49877", "op": "Const", "attr": {"value": {"tensor": {"dtype": "DT_FLOAT", "tensorShape": {"dim": [{"size": "3"}, {"size": "3"}, {"size": "16"}, {"size": "16"}]}}}, "dtype": {"type": "DT_FLOAT"}}}, {"name": "49879", "op": "Const", "attr": {"value": {"tensor": {"dtype": "DT_FLOAT", "tensorShape": {"dim": [{"size": "16"}]}}}, "dtype": {"type": "DT_FLOAT"}}}, {"name": "49881", "op": "Const", "attr": {"dtype": {"type": "DT_FLOAT"}, "value": {"tensor": {"dtype": "DT_FLOAT", "tensorShape": {"dim": [{"size": "3"}, {"size": "3"}, {"size": "16"}, {"size": "16"}]}}}}}, {"name": "49883", "op": "Const", "attr": {"dtype": {"type": "DT_FLOAT"}, "value": {"tensor": {"dtype": "DT_FLOAT", "tensorShape": {"dim": [{"size": "16"}]}}}}}, {"name": "PartitionedCall/model_16/tf.concat/concat/axis", "op": "Const", "attr": {"value": {"tensor": {"dtype": "DT_INT32", "tensorShape": {}}}, "dtype": {"type": "DT_INT32"}}}, {"name": "49889", "op": "Const", "attr": {"dtype": {"type": "DT_FLOAT"}, "value": {"tensor": {"dtype": "DT_FLOAT", "tensorShape": {"dim": [{"size": "1"}, {"size": "1"}, {"size": "48"}, {"size": "32"}]}}}}}, {"name": "49891", "op": "Const", "attr": {"value": {"tensor": {"dtype": "DT_FLOAT", "tensorShape": {"dim": [{"size": "32"}]}}}, "dtype": {"type": "DT_FLOAT"}}}, {"name": "49893", "op": "Const", "attr": {"value": {"tensor": {"dtype": "DT_INT32", "tensorShape": {"dim": [{"size": "4"}, {"size": "2"}]}}}, "dtype": {"type": "DT_INT32"}}}, {"name": "49895", "op": "Const", "attr": {"value": {"tensor": {"dtype": "DT_FLOAT", "tensorShape": {"dim": [{"size": "3"}, {"size": "3"}, {"size": "32"}, {"size": "64"}]}}}, "dtype": {"type": "DT_FLOAT"}}}, {"name": "49897", "op": "Const", "attr": {"value": {"tensor": {"dtype": "DT_FLOAT", "tensorShape": {"dim": [{"size": "64"}]}}}, "dtype": {"type": "DT_FLOAT"}}}, {"name": "49899", "op": "Const", "attr": {"value": {"tensor": {"dtype": "DT_FLOAT", "tensorShape": {"dim": [{"size": "1"}, {"size": "1"}, {"size": "64"}, {"size": "64"}]}}}, "dtype": {"type": "DT_FLOAT"}}}, {"name": "49901", "op": "Const", "attr": {"value": {"tensor": {"dtype": "DT_FLOAT", "tensorShape": {"dim": [{"size": "64"}]}}}, "dtype": {"type": "DT_FLOAT"}}}, {"name": "49903", "op": "Const", "attr": {"dtype": {"type": "DT_INT64"}, "value": {"tensor": {"dtype": "DT_INT64", "tensorShape": {"dim": [{"size": "4"}]}}}}}, {"name": "49905", "op": "Const", "attr": {"dtype": {"type": "DT_INT64"}, "value": {"tensor": {"dtype": "DT_INT64", "tensorShape": {"dim": [{"size": "4"}]}}}}}, {"name": "PartitionedCall/model_16/tf.strided_slice_3/ones_like", "op": "Const", "attr": {"value": {"tensor": {"dtype": "DT_INT64", "tensorShape": {"dim": [{"size": "4"}]}}}, "dtype": {"type": "DT_INT64"}}}, {"name": "49907", "op": "Const", "attr": {"value": {"tensor": {"dtype": "DT_FLOAT", "tensorShape": {"dim": [{"size": "3"}, {"size": "3"}, {"size": "32"}, {"size": "32"}]}}}, "dtype": {"type": "DT_FLOAT"}}}, {"name": "49909", "op": "Const", "attr": {"value": {"tensor": {"dtype": "DT_FLOAT", "tensorShape": {"dim": [{"size": "32"}]}}}, "dtype": {"type": "DT_FLOAT"}}}, {"name": "49911", "op": "Const", "attr": {"dtype": {"type": "DT_FLOAT"}, "value": {"tensor": {"dtype": "DT_FLOAT", "tensorShape": {"dim": [{"size": "3"}, {"size": "3"}, {"size": "32"}, {"size": "32"}]}}}}}, {"name": "49913", "op": "Const", "attr": {"value": {"tensor": {"dtype": "DT_FLOAT", "tensorShape": {"dim": [{"size": "32"}]}}}, "dtype": {"type": "DT_FLOAT"}}}, {"name": "49915", "op": "Const", "attr": {"value": {"tensor": {"dtype": "DT_FLOAT", "tensorShape": {"dim": [{"size": "3"}, {"size": "3"}, {"size": "32"}, {"size": "32"}]}}}, "dtype": {"type": "DT_FLOAT"}}}, {"name": "49917", "op": "Const", "attr": {"dtype": {"type": "DT_FLOAT"}, "value": {"tensor": {"dtype": "DT_FLOAT", "tensorShape": {"dim": [{"size": "32"}]}}}}}, {"name": "49919", "op": "Const", "attr": {"value": {"tensor": {"dtype": "DT_FLOAT", "tensorShape": {"dim": [{"size": "3"}, {"size": "3"}, {"size": "32"}, {"size": "32"}]}}}, "dtype": {"type": "DT_FLOAT"}}}, {"name": "49921", "op": "Const", "attr": {"dtype": {"type": "DT_FLOAT"}, "value": {"tensor": {"dtype": "DT_FLOAT", "tensorShape": {"dim": [{"size": "32"}]}}}}}, {"name": "PartitionedCall/model_16/tf.concat_1/concat/axis", "op": "Const", "attr": {"value": {"tensor": {"dtype": "DT_INT32", "tensorShape": {}}}, "dtype": {"type": "DT_INT32"}}}, {"name": "49927", "op": "Const", "attr": {"value": {"tensor": {"dtype": "DT_FLOAT", "tensorShape": {"dim": [{"size": "1"}, {"size": "1"}, {"size": "128"}, {"size": "64"}]}}}, "dtype": {"type": "DT_FLOAT"}}}, {"name": "49929", "op": "Const", "attr": {"value": {"tensor": {"dtype": "DT_FLOAT", "tensorShape": {"dim": [{"size": "64"}]}}}, "dtype": {"type": "DT_FLOAT"}}}, {"name": "49931", "op": "Const", "attr": {"dtype": {"type": "DT_INT32"}, "value": {"tensor": {"dtype": "DT_INT32", "tensorShape": {"dim": [{"size": "4"}, {"size": "2"}]}}}}}, {"name": "49933", "op": "Const", "attr": {"dtype": {"type": "DT_FLOAT"}, "value": {"tensor": {"dtype": "DT_FLOAT", "tensorShape": {"dim": [{"size": "3"}, {"size": "3"}, {"size": "64"}, {"size": "128"}]}}}}}, {"name": "49935", "op": "Const", "attr": {"value": {"tensor": {"dtype": "DT_FLOAT", "tensorShape": {"dim": [{"size": "128"}]}}}, "dtype": {"type": "DT_FLOAT"}}}, {"name": "49937", "op": "Const", "attr": {"dtype": {"type": "DT_FLOAT"}, "value": {"tensor": {"dtype": "DT_FLOAT", "tensorShape": {"dim": [{"size": "1"}, {"size": "1"}, {"size": "128"}, {"size": "128"}]}}}}}, {"name": "49939", "op": "Const", "attr": {"value": {"tensor": {"dtype": "DT_FLOAT", "tensorShape": {"dim": [{"size": "128"}]}}}, "dtype": {"type": "DT_FLOAT"}}}, {"name": "49941", "op": "Const", "attr": {"value": {"tensor": {"dtype": "DT_INT64", "tensorShape": {"dim": [{"size": "4"}]}}}, "dtype": {"type": "DT_INT64"}}}, {"name": "49943", "op": "Const", "attr": {"value": {"tensor": {"dtype": "DT_INT64", "tensorShape": {"dim": [{"size": "4"}]}}}, "dtype": {"type": "DT_INT64"}}}, {"name": "PartitionedCall/model_16/tf.strided_slice_5/ones_like", "op": "Const", "attr": {"value": {"tensor": {"dtype": "DT_INT64", "tensorShape": {"dim": [{"size": "4"}]}}}, "dtype": {"type": "DT_INT64"}}}, {"name": "49945", "op": "Const", "attr": {"value": {"tensor": {"dtype": "DT_FLOAT", "tensorShape": {"dim": [{"size": "3"}, {"size": "3"}, {"size": "64"}, {"size": "64"}]}}}, "dtype": {"type": "DT_FLOAT"}}}, {"name": "49947", "op": "Const", "attr": {"dtype": {"type": "DT_FLOAT"}, "value": {"tensor": {"dtype": "DT_FLOAT", "tensorShape": {"dim": [{"size": "64"}]}}}}}, {"name": "49949", "op": "Const", "attr": {"dtype": {"type": "DT_FLOAT"}, "value": {"tensor": {"dtype": "DT_FLOAT", "tensorShape": {"dim": [{"size": "3"}, {"size": "3"}, {"size": "64"}, {"size": "64"}]}}}}}, {"name": "49951", "op": "Const", "attr": {"value": {"tensor": {"dtype": "DT_FLOAT", "tensorShape": {"dim": [{"size": "64"}]}}}, "dtype": {"type": "DT_FLOAT"}}}, {"name": "49953", "op": "Const", "attr": {"dtype": {"type": "DT_FLOAT"}, "value": {"tensor": {"dtype": "DT_FLOAT", "tensorShape": {"dim": [{"size": "3"}, {"size": "3"}, {"size": "64"}, {"size": "64"}]}}}}}, {"name": "49955", "op": "Const", "attr": {"dtype": {"type": "DT_FLOAT"}, "value": {"tensor": {"dtype": "DT_FLOAT", "tensorShape": {"dim": [{"size": "64"}]}}}}}, {"name": "49957", "op": "Const", "attr": {"value": {"tensor": {"dtype": "DT_FLOAT", "tensorShape": {"dim": [{"size": "3"}, {"size": "3"}, {"size": "64"}, {"size": "64"}]}}}, "dtype": {"type": "DT_FLOAT"}}}, {"name": "49959", "op": "Const", "attr": {"dtype": {"type": "DT_FLOAT"}, "value": {"tensor": {"dtype": "DT_FLOAT", "tensorShape": {"dim": [{"size": "64"}]}}}}}, {"name": "PartitionedCall/model_16/tf.concat_2/concat/axis", "op": "Const", "attr": {"dtype": {"type": "DT_INT32"}, "value": {"tensor": {"dtype": "DT_INT32", "tensorShape": {}}}}}, {"name": "49965", "op": "Const", "attr": {"value": {"tensor": {"dtype": "DT_FLOAT", "tensorShape": {"dim": [{"size": "1"}, {"size": "1"}, {"size": "256"}, {"size": "128"}]}}}, "dtype": {"type": "DT_FLOAT"}}}, {"name": "49967", "op": "Const", "attr": {"dtype": {"type": "DT_FLOAT"}, "value": {"tensor": {"dtype": "DT_FLOAT", "tensorShape": {"dim": [{"size": "128"}]}}}}}, {"name": "49969", "op": "Const", "attr": {"dtype": {"type": "DT_INT32"}, "value": {"tensor": {"dtype": "DT_INT32", "tensorShape": {"dim": [{"size": "4"}, {"size": "2"}]}}}}}, {"name": "49971", "op": "Const", "attr": {"value": {"tensor": {"dtype": "DT_FLOAT", "tensorShape": {"dim": [{"size": "3"}, {"size": "3"}, {"size": "128"}, {"size": "256"}]}}}, "dtype": {"type": "DT_FLOAT"}}}, {"name": "49973", "op": "Const", "attr": {"value": {"tensor": {"dtype": "DT_FLOAT", "tensorShape": {"dim": [{"size": "256"}]}}}, "dtype": {"type": "DT_FLOAT"}}}, {"name": "49975", "op": "Const", "attr": {"value": {"tensor": {"dtype": "DT_FLOAT", "tensorShape": {"dim": [{"size": "1"}, {"size": "1"}, {"size": "256"}, {"size": "256"}]}}}, "dtype": {"type": "DT_FLOAT"}}}, {"name": "49977", "op": "Const", "attr": {"value": {"tensor": {"dtype": "DT_FLOAT", "tensorShape": {"dim": [{"size": "256"}]}}}, "dtype": {"type": "DT_FLOAT"}}}, {"name": "49979", "op": "Const", "attr": {"dtype": {"type": "DT_INT64"}, "value": {"tensor": {"dtype": "DT_INT64", "tensorShape": {"dim": [{"size": "4"}]}}}}}, {"name": "49981", "op": "Const", "attr": {"value": {"tensor": {"dtype": "DT_INT64", "tensorShape": {"dim": [{"size": "4"}]}}}, "dtype": {"type": "DT_INT64"}}}, {"name": "PartitionedCall/model_16/tf.strided_slice_7/ones_like", "op": "Const", "attr": {"value": {"tensor": {"dtype": "DT_INT64", "tensorShape": {"dim": [{"size": "4"}]}}}, "dtype": {"type": "DT_INT64"}}}, {"name": "49983", "op": "Const", "attr": {"value": {"tensor": {"dtype": "DT_FLOAT", "tensorShape": {"dim": [{"size": "3"}, {"size": "3"}, {"size": "128"}, {"size": "128"}]}}}, "dtype": {"type": "DT_FLOAT"}}}, {"name": "49985", "op": "Const", "attr": {"value": {"tensor": {"dtype": "DT_FLOAT", "tensorShape": {"dim": [{"size": "128"}]}}}, "dtype": {"type": "DT_FLOAT"}}}, {"name": "49987", "op": "Const", "attr": {"dtype": {"type": "DT_FLOAT"}, "value": {"tensor": {"dtype": "DT_FLOAT", "tensorShape": {"dim": [{"size": "3"}, {"size": "3"}, {"size": "128"}, {"size": "128"}]}}}}}, {"name": "49989", "op": "Const", "attr": {"dtype": {"type": "DT_FLOAT"}, "value": {"tensor": {"dtype": "DT_FLOAT", "tensorShape": {"dim": [{"size": "128"}]}}}}}, {"name": "PartitionedCall/model_16/tf.concat_3/concat/axis", "op": "Const", "attr": {"value": {"tensor": {"dtype": "DT_INT32", "tensorShape": {}}}, "dtype": {"type": "DT_INT32"}}}, {"name": "49995", "op": "Const", "attr": {"dtype": {"type": "DT_FLOAT"}, "value": {"tensor": {"dtype": "DT_FLOAT", "tensorShape": {"dim": [{"size": "1"}, {"size": "1"}, {"size": "384"}, {"size": "256"}]}}}}}, {"name": "49997", "op": "Const", "attr": {"value": {"tensor": {"dtype": "DT_FLOAT", "tensorShape": {"dim": [{"size": "256"}]}}}, "dtype": {"type": "DT_FLOAT"}}}, {"name": "49999", "op": "Const", "attr": {"dtype": {"type": "DT_FLOAT"}, "value": {"tensor": {"dtype": "DT_FLOAT", "tensorShape": {"dim": [{"size": "1"}, {"size": "1"}, {"size": "256"}, {"size": "128"}]}}}}}, {"name": "50001", "op": "Const", "attr": {"dtype": {"type": "DT_FLOAT"}, "value": {"tensor": {"dtype": "DT_FLOAT", "tensorShape": {"dim": [{"size": "128"}]}}}}}, {"name": "PartitionedCall/model_16/tf.concat_4/concat/axis", "op": "Const", "attr": {"dtype": {"type": "DT_INT32"}, "value": {"tensor": {"dtype": "DT_INT32", "tensorShape": {}}}}}, {"name": "50003", "op": "Const", "attr": {"dtype": {"type": "DT_FLOAT"}, "value": {"tensor": {"dtype": "DT_FLOAT", "tensorShape": {"dim": [{"size": "1"}, {"size": "1"}, {"size": "512"}, {"size": "256"}]}}}}}, {"name": "50005", "op": "Const", "attr": {"value": {"tensor": {"dtype": "DT_FLOAT", "tensorShape": {"dim": [{"size": "256"}]}}}, "dtype": {"type": "DT_FLOAT"}}}, {"name": "PartitionedCall/model_16/tf.concat_1166/concat/axis", "op": "Const", "attr": {"value": {"tensor": {"dtype": "DT_INT32", "tensorShape": {}}}, "dtype": {"type": "DT_INT32"}}}, {"name": "50091", "op": "Const", "attr": {"dtype": {"type": "DT_FLOAT"}, "value": {"tensor": {"dtype": "DT_FLOAT", "tensorShape": {"dim": [{"size": "1"}, {"size": "1"}, {"size": "384"}, {"size": "256"}]}}}}}, {"name": "50093", "op": "Const", "attr": {"dtype": {"type": "DT_FLOAT"}, "value": {"tensor": {"dtype": "DT_FLOAT", "tensorShape": {"dim": [{"size": "256"}]}}}}}, {"name": "50095", "op": "Const", "attr": {"dtype": {"type": "DT_INT64"}, "value": {"tensor": {"dtype": "DT_INT64", "tensorShape": {"dim": [{"size": "4"}]}}}}}, {"name": "50097", "op": "Const", "attr": {"value": {"tensor": {"dtype": "DT_INT64", "tensorShape": {"dim": [{"size": "4"}]}}}, "dtype": {"type": "DT_INT64"}}}, {"name": "PartitionedCall/model_16/tf.strided_slice_15/ones_like", "op": "Const", "attr": {"dtype": {"type": "DT_INT64"}, "value": {"tensor": {"dtype": "DT_INT64", "tensorShape": {"dim": [{"size": "4"}]}}}}}, {"name": "50099", "op": "Const", "attr": {"value": {"tensor": {"dtype": "DT_FLOAT", "tensorShape": {"dim": [{"size": "3"}, {"size": "3"}, {"size": "128"}, {"size": "128"}]}}}, "dtype": {"type": "DT_FLOAT"}}}, {"name": "50101", "op": "Const", "attr": {"value": {"tensor": {"dtype": "DT_FLOAT", "tensorShape": {"dim": [{"size": "128"}]}}}, "dtype": {"type": "DT_FLOAT"}}}, {"name": "50103", "op": "Const", "attr": {"value": {"tensor": {"dtype": "DT_FLOAT", "tensorShape": {"dim": [{"size": "3"}, {"size": "3"}, {"size": "128"}, {"size": "128"}]}}}, "dtype": {"type": "DT_FLOAT"}}}, {"name": "50105", "op": "Const", "attr": {"dtype": {"type": "DT_FLOAT"}, "value": {"tensor": {"dtype": "DT_FLOAT", "tensorShape": {"dim": [{"size": "128"}]}}}}}, {"name": "PartitionedCall/model_16/tf.concat_1745/concat/axis", "op": "Const", "attr": {"value": {"tensor": {"dtype": "DT_INT32", "tensorShape": {}}}, "dtype": {"type": "DT_INT32"}}}, {"name": "50111", "op": "Const", "attr": {"value": {"tensor": {"dtype": "DT_FLOAT", "tensorShape": {"dim": [{"size": "1"}, {"size": "1"}, {"size": "384"}, {"size": "256"}]}}}, "dtype": {"type": "DT_FLOAT"}}}, {"name": "50117", "op": "Const", "attr": {"value": {"tensor": {"dtype": "DT_FLOAT", "tensorShape": {"dim": [{"size": "256"}]}}}, "dtype": {"type": "DT_FLOAT"}}}, {"name": "50123", "op": "Const", "attr": {"dtype": {"type": "DT_FLOAT"}, "value": {"tensor": {"dtype": "DT_FLOAT", "tensorShape": {"dim": [{"size": "3"}, {"size": "3"}, {"size": "256"}, {"size": "64"}]}}}}}, {"name": "50131", "op": "Const", "attr": {"dtype": {"type": "DT_FLOAT"}, "value": {"tensor": {"dtype": "DT_FLOAT", "tensorShape": {"dim": [{"size": "64"}]}}}}}, {"name": "50147", "op": "Const", "attr": {"value": {"tensor": {"dtype": "DT_FLOAT", "tensorShape": {"dim": [{"size": "3"}, {"size": "3"}, {"size": "64"}, {"size": "64"}]}}}, "dtype": {"type": "DT_FLOAT"}}}, {"name": "50155", "op": "Const", "attr": {"dtype": {"type": "DT_FLOAT"}, "value": {"tensor": {"dtype": "DT_FLOAT", "tensorShape": {"dim": [{"size": "64"}]}}}}}, {"name": "50167", "op": "Const", "attr": {"value": {"tensor": {"dtype": "DT_FLOAT", "tensorShape": {"dim": [{"size": "1"}, {"size": "1"}, {"size": "64"}, {"size": "2"}]}}}, "dtype": {"type": "DT_FLOAT"}}}, {"name": "50181", "op": "Const", "attr": {"dtype": {"type": "DT_FLOAT"}, "value": {"tensor": {"dtype": "DT_FLOAT", "tensorShape": {"dim": [{"size": "2"}]}}}}}, {"name": "PartitionedCall/model_16/tf.concat_1746/concat/axis", "op": "Const", "attr": {"dtype": {"type": "DT_INT32"}, "value": {"tensor": {"dtype": "DT_INT32", "tensorShape": {}}}}}, {"name": "PartitionedCall/model_16/tf.compat.v1.transpose_3477/transpose/perm", "op": "Const", "attr": {"dtype": {"type": "DT_INT32"}, "value": {"tensor": {"dtype": "DT_INT32", "tensorShape": {"dim": [{"size": "4"}]}}}}}, {"name": "PartitionedCall/model_16/tf.reshape_2/Reshape/shape", "op": "Const", "attr": {"value": {"tensor": {"dtype": "DT_INT32", "tensorShape": {"dim": [{"size": "3"}]}}}, "dtype": {"type": "DT_INT32"}}}, {"name": "PartitionedCall/model_16/tf.concat_1747/concat/axis", "op": "Const", "attr": {"value": {"tensor": {"dtype": "DT_INT32", "tensorShape": {}}}, "dtype": {"type": "DT_INT32"}}}, {"name": "50207", "op": "Const", "attr": {"dtype": {"type": "DT_INT64"}, "value": {"tensor": {"dtype": "DT_INT64", "tensorShape": {"dim": [{"size": "3"}]}}}}}, {"name": "50209", "op": "Const", "attr": {"value": {"tensor": {"dtype": "DT_INT64", "tensorShape": {"dim": [{"size": "3"}]}}}, "dtype": {"type": "DT_INT64"}}}, {"name": "PartitionedCall/model_16/tf.strided_slice_17/StridedSlice/strides", "op": "Const", "attr": {"value": {"tensor": {"dtype": "DT_INT64", "tensorShape": {"dim": [{"size": "3"}]}}}, "dtype": {"type": "DT_INT64"}}}, {"name": "PartitionedCall/model_16/output0/concat/axis", "op": "Const", "attr": {"value": {"tensor": {"dtype": "DT_INT32", "tensorShape": {}}}, "dtype": {"type": "DT_INT32"}}}, {"name": "x", "op": "Placeholder", "attr": {"shape": {"shape": {"dim": [{"size": "1"}, {"size": "1024"}, {"size": "1024"}, {"size": "3"}]}}, "dtype": {"type": "DT_FLOAT"}}}, {"name": "PartitionedCall/model_16/tf.compat.v1.pad/Pad", "op": "Pad", "input": ["x", "49857"], "attr": {"T": {"type": "DT_FLOAT"}, "Tpaddings": {"type": "DT_INT32"}}}, {"name": "PartitionedCall/model_16/tf.nn.convolution/convolution", "op": "Conv2D", "input": ["PartitionedCall/model_16/tf.compat.v1.pad/Pad", "49859"], "device": "/device:CPU:0", "attr": {"T": {"type": "DT_FLOAT"}, "strides": {"list": {"i": ["1", "2", "2", "1"]}}, "data_format": {"s": "TkhXQw=="}, "dilations": {"list": {"i": ["1", "1", "1", "1"]}}, "explicit_paddings": {"list": {}}, "padding": {"s": "VkFMSUQ="}, "use_cudnn_on_gpu": {"b": true}}}, {"name": "PartitionedCall/model_16/tf.math.add/Add", "op": "AddV2", "input": ["PartitionedCall/model_16/tf.nn.convolution/convolution", "49861"], "attr": {"T": {"type": "DT_FLOAT"}}}, {"name": "PartitionedCall/model_16/tf.nn.relu/Relu", "op": "Relu", "input": ["PartitionedCall/model_16/tf.math.add/Add"], "attr": {"T": {"type": "DT_FLOAT"}}}, {"name": "PartitionedCall/model_16/tf.compat.v1.pad_1/Pad", "op": "Pad", "input": ["PartitionedCall/model_16/tf.nn.relu/Relu", "49863"], "attr": {"T": {"type": "DT_FLOAT"}, "Tpaddings": {"type": "DT_INT32"}}}, {"name": "PartitionedCall/model_16/tf.nn.convolution_1/convolution", "op": "Conv2D", "input": ["PartitionedCall/model_16/tf.compat.v1.pad_1/Pad", "49865"], "device": "/device:CPU:0", "attr": {"dilations": {"list": {"i": ["1", "1", "1", "1"]}}, "use_cudnn_on_gpu": {"b": true}, "T": {"type": "DT_FLOAT"}, "padding": {"s": "VkFMSUQ="}, "explicit_paddings": {"list": {}}, "data_format": {"s": "TkhXQw=="}, "strides": {"list": {"i": ["1", "2", "2", "1"]}}}}, {"name": "PartitionedCall/model_16/tf.math.add_1/Add", "op": "AddV2", "input": ["PartitionedCall/model_16/tf.nn.convolution_1/convolution", "49867"], "attr": {"T": {"type": "DT_FLOAT"}}}, {"name": "PartitionedCall/model_16/tf.nn.relu_1/Relu", "op": "Relu", "input": ["PartitionedCall/model_16/tf.math.add_1/Add"], "attr": {"T": {"type": "DT_FLOAT"}}}, {"name": "PartitionedCall/model_16/tf.nn.convolution_2/convolution", "op": "Conv2D", "input": ["PartitionedCall/model_16/tf.nn.relu_1/Relu", "49869"], "device": "/device:CPU:0", "attr": {"explicit_paddings": {"list": {}}, "padding": {"s": "U0FNRQ=="}, "use_cudnn_on_gpu": {"b": true}, "strides": {"list": {"i": ["1", "1", "1", "1"]}}, "data_format": {"s": "TkhXQw=="}, "dilations": {"list": {"i": ["1", "1", "1", "1"]}}, "T": {"type": "DT_FLOAT"}}}, {"name": "PartitionedCall/model_16/tf.math.add_2/Add", "op": "AddV2", "input": ["PartitionedCall/model_16/tf.nn.convolution_2/convolution", "49871"], "attr": {"T": {"type": "DT_FLOAT"}}}, {"name": "PartitionedCall/model_16/tf.nn.relu_2/Relu", "op": "Relu", "input": ["PartitionedCall/model_16/tf.math.add_2/Add"], "attr": {"T": {"type": "DT_FLOAT"}}}, {"name": "PartitionedCall/model_16/tf.strided_slice/StridedSlice", "op": "StridedSlice", "input": ["PartitionedCall/model_16/tf.nn.relu_2/Relu", "49885", "49887", "PartitionedCall/model_16/tf.strided_slice/ones_like"], "attr": {"T": {"type": "DT_FLOAT"}, "ellipsis_mask": {"i": "0"}, "shrink_axis_mask": {"i": "0"}, "Index": {"type": "DT_INT64"}, "begin_mask": {"i": "15"}, "end_mask": {"i": "7"}, "new_axis_mask": {"i": "0"}}}, {"name": "PartitionedCall/model_16/tf.strided_slice_1/StridedSlice", "op": "StridedSlice", "input": ["PartitionedCall/model_16/tf.nn.relu_2/Relu", "49873", "49875", "PartitionedCall/model_16/tf.strided_slice_1/ones_like"], "attr": {"begin_mask": {"i": "7"}, "ellipsis_mask": {"i": "0"}, "end_mask": {"i": "7"}, "shrink_axis_mask": {"i": "0"}, "new_axis_mask": {"i": "0"}, "Index": {"type": "DT_INT64"}, "T": {"type": "DT_FLOAT"}}}, {"name": "PartitionedCall/model_16/tf.nn.convolution_3/convolution", "op": "Conv2D", "input": ["PartitionedCall/model_16/tf.strided_slice_1/StridedSlice", "49877"], "device": "/device:CPU:0", "attr": {"padding": {"s": "U0FNRQ=="}, "use_cudnn_on_gpu": {"b": true}, "T": {"type": "DT_FLOAT"}, "explicit_paddings": {"list": {}}, "strides": {"list": {"i": ["1", "1", "1", "1"]}}, "dilations": {"list": {"i": ["1", "1", "1", "1"]}}, "data_format": {"s": "TkhXQw=="}}}, {"name": "PartitionedCall/model_16/tf.math.add_3/Add", "op": "AddV2", "input": ["PartitionedCall/model_16/tf.nn.convolution_3/convolution", "49879"], "attr": {"T": {"type": "DT_FLOAT"}}}, {"name": "PartitionedCall/model_16/tf.nn.relu_3/Relu", "op": "Relu", "input": ["PartitionedCall/model_16/tf.math.add_3/Add"], "attr": {"T": {"type": "DT_FLOAT"}}}, {"name": "PartitionedCall/model_16/tf.nn.convolution_4/convolution", "op": "Conv2D", "input": ["PartitionedCall/model_16/tf.nn.relu_3/Relu", "49881"], "device": "/device:CPU:0", "attr": {"strides": {"list": {"i": ["1", "1", "1", "1"]}}, "explicit_paddings": {"list": {}}, "dilations": {"list": {"i": ["1", "1", "1", "1"]}}, "T": {"type": "DT_FLOAT"}, "use_cudnn_on_gpu": {"b": true}, "data_format": {"s": "TkhXQw=="}, "padding": {"s": "U0FNRQ=="}}}, {"name": "PartitionedCall/model_16/tf.math.add_4/Add", "op": "AddV2", "input": ["PartitionedCall/model_16/tf.nn.convolution_4/convolution", "49883"], "attr": {"T": {"type": "DT_FLOAT"}}}, {"name": "PartitionedCall/model_16/tf.nn.relu_4/Relu", "op": "Relu", "input": ["PartitionedCall/model_16/tf.math.add_4/Add"], "attr": {"T": {"type": "DT_FLOAT"}}}, {"name": "PartitionedCall/model_16/tf.math.add_5/Add", "op": "AddV2", "input": ["PartitionedCall/model_16/tf.strided_slice_1/StridedSlice", "PartitionedCall/model_16/tf.nn.relu_4/Relu"], "attr": {"T": {"type": "DT_FLOAT"}}}, {"name": "PartitionedCall/model_16/tf.concat/concat", "op": "ConcatV2", "input": ["PartitionedCall/model_16/tf.strided_slice/StridedSlice", "PartitionedCall/model_16/tf.strided_slice_1/StridedSlice", "PartitionedCall/model_16/tf.math.add_5/Add", "PartitionedCall/model_16/tf.concat/concat/axis"], "attr": {"Tidx": {"type": "DT_INT32"}, "T": {"type": "DT_FLOAT"}, "N": {"i": "3"}}}, {"name": "PartitionedCall/model_16/tf.nn.convolution_5/convolution", "op": "Conv2D", "input": ["PartitionedCall/model_16/tf.concat/concat", "49889"], "device": "/device:CPU:0", "attr": {"padding": {"s": "U0FNRQ=="}, "use_cudnn_on_gpu": {"b": true}, "data_format": {"s": "TkhXQw=="}, "dilations": {"list": {"i": ["1", "1", "1", "1"]}}, "strides": {"list": {"i": ["1", "1", "1", "1"]}}, "T": {"type": "DT_FLOAT"}, "explicit_paddings": {"list": {}}}}, {"name": "PartitionedCall/model_16/tf.math.add_6/Add", "op": "AddV2", "input": ["PartitionedCall/model_16/tf.nn.convolution_5/convolution", "49891"], "attr": {"T": {"type": "DT_FLOAT"}}}, {"name": "PartitionedCall/model_16/tf.nn.relu_5/Relu", "op": "Relu", "input": ["PartitionedCall/model_16/tf.math.add_6/Add"], "attr": {"T": {"type": "DT_FLOAT"}}}, {"name": "PartitionedCall/model_16/tf.compat.v1.pad_2/Pad", "op": "Pad", "input": ["PartitionedCall/model_16/tf.nn.relu_5/Relu", "49893"], "attr": {"Tpaddings": {"type": "DT_INT32"}, "T": {"type": "DT_FLOAT"}}}, {"name": "PartitionedCall/model_16/tf.nn.convolution_6/convolution", "op": "Conv2D", "input": ["PartitionedCall/model_16/tf.compat.v1.pad_2/Pad", "49895"], "device": "/device:CPU:0", "attr": {"use_cudnn_on_gpu": {"b": true}, "explicit_paddings": {"list": {}}, "strides": {"list": {"i": ["1", "2", "2", "1"]}}, "dilations": {"list": {"i": ["1", "1", "1", "1"]}}, "data_format": {"s": "TkhXQw=="}, "padding": {"s": "VkFMSUQ="}, "T": {"type": "DT_FLOAT"}}}, {"name": "PartitionedCall/model_16/tf.math.add_7/Add", "op": "AddV2", "input": ["PartitionedCall/model_16/tf.nn.convolution_6/convolution", "49897"], "attr": {"T": {"type": "DT_FLOAT"}}}, {"name": "PartitionedCall/model_16/tf.nn.relu_6/Relu", "op": "Relu", "input": ["PartitionedCall/model_16/tf.math.add_7/Add"], "attr": {"T": {"type": "DT_FLOAT"}}}, {"name": "PartitionedCall/model_16/tf.nn.convolution_7/convolution", "op": "Conv2D", "input": ["PartitionedCall/model_16/tf.nn.relu_6/Relu", "49899"], "device": "/device:CPU:0", "attr": {"dilations": {"list": {"i": ["1", "1", "1", "1"]}}, "use_cudnn_on_gpu": {"b": true}, "data_format": {"s": "TkhXQw=="}, "padding": {"s": "U0FNRQ=="}, "explicit_paddings": {"list": {}}, "strides": {"list": {"i": ["1", "1", "1", "1"]}}, "T": {"type": "DT_FLOAT"}}}, {"name": "PartitionedCall/model_16/tf.math.add_8/Add", "op": "AddV2", "input": ["PartitionedCall/model_16/tf.nn.convolution_7/convolution", "49901"], "attr": {"T": {"type": "DT_FLOAT"}}}, {"name": "PartitionedCall/model_16/tf.nn.relu_7/Relu", "op": "Relu", "input": ["PartitionedCall/model_16/tf.math.add_8/Add"], "attr": {"T": {"type": "DT_FLOAT"}}}, {"name": "PartitionedCall/model_16/tf.strided_slice_2/StridedSlice", "op": "StridedSlice", "input": ["PartitionedCall/model_16/tf.nn.relu_7/Relu", "49923", "49925", "PartitionedCall/model_16/tf.strided_slice_2/ones_like"], "attr": {"Index": {"type": "DT_INT64"}, "begin_mask": {"i": "15"}, "end_mask": {"i": "7"}, "ellipsis_mask": {"i": "0"}, "T": {"type": "DT_FLOAT"}, "shrink_axis_mask": {"i": "0"}, "new_axis_mask": {"i": "0"}}}, {"name": "PartitionedCall/model_16/tf.strided_slice_3/StridedSlice", "op": "StridedSlice", "input": ["PartitionedCall/model_16/tf.nn.relu_7/Relu", "49903", "49905", "PartitionedCall/model_16/tf.strided_slice_3/ones_like"], "attr": {"shrink_axis_mask": {"i": "0"}, "new_axis_mask": {"i": "0"}, "begin_mask": {"i": "7"}, "Index": {"type": "DT_INT64"}, "T": {"type": "DT_FLOAT"}, "ellipsis_mask": {"i": "0"}, "end_mask": {"i": "7"}}}, {"name": "PartitionedCall/model_16/tf.nn.convolution_8/convolution", "op": "Conv2D", "input": ["PartitionedCall/model_16/tf.strided_slice_3/StridedSlice", "49907"], "device": "/device:CPU:0", "attr": {"explicit_paddings": {"list": {}}, "data_format": {"s": "TkhXQw=="}, "dilations": {"list": {"i": ["1", "1", "1", "1"]}}, "padding": {"s": "U0FNRQ=="}, "strides": {"list": {"i": ["1", "1", "1", "1"]}}, "T": {"type": "DT_FLOAT"}, "use_cudnn_on_gpu": {"b": true}}}, {"name": "PartitionedCall/model_16/tf.math.add_9/Add", "op": "AddV2", "input": ["PartitionedCall/model_16/tf.nn.convolution_8/convolution", "49909"], "attr": {"T": {"type": "DT_FLOAT"}}}, {"name": "PartitionedCall/model_16/tf.nn.relu_8/Relu", "op": "Relu", "input": ["PartitionedCall/model_16/tf.math.add_9/Add"], "attr": {"T": {"type": "DT_FLOAT"}}}, {"name": "PartitionedCall/model_16/tf.nn.convolution_9/convolution", "op": "Conv2D", "input": ["PartitionedCall/model_16/tf.nn.relu_8/Relu", "49911"], "device": "/device:CPU:0", "attr": {"data_format": {"s": "TkhXQw=="}, "use_cudnn_on_gpu": {"b": true}, "explicit_paddings": {"list": {}}, "padding": {"s": "U0FNRQ=="}, "strides": {"list": {"i": ["1", "1", "1", "1"]}}, "dilations": {"list": {"i": ["1", "1", "1", "1"]}}, "T": {"type": "DT_FLOAT"}}}, {"name": "PartitionedCall/model_16/tf.math.add_10/Add", "op": "AddV2", "input": ["PartitionedCall/model_16/tf.nn.convolution_9/convolution", "49913"], "attr": {"T": {"type": "DT_FLOAT"}}}, {"name": "PartitionedCall/model_16/tf.nn.relu_9/Relu", "op": "Relu", "input": ["PartitionedCall/model_16/tf.math.add_10/Add"], "attr": {"T": {"type": "DT_FLOAT"}}}, {"name": "PartitionedCall/model_16/tf.math.add_11/Add", "op": "AddV2", "input": ["PartitionedCall/model_16/tf.strided_slice_3/StridedSlice", "PartitionedCall/model_16/tf.nn.relu_9/Relu"], "attr": {"T": {"type": "DT_FLOAT"}}}, {"name": "PartitionedCall/model_16/tf.nn.convolution_10/convolution", "op": "Conv2D", "input": ["PartitionedCall/model_16/tf.math.add_11/Add", "49915"], "device": "/device:CPU:0", "attr": {"explicit_paddings": {"list": {}}, "T": {"type": "DT_FLOAT"}, "padding": {"s": "U0FNRQ=="}, "data_format": {"s": "TkhXQw=="}, "strides": {"list": {"i": ["1", "1", "1", "1"]}}, "use_cudnn_on_gpu": {"b": true}, "dilations": {"list": {"i": ["1", "1", "1", "1"]}}}}, {"name": "PartitionedCall/model_16/tf.math.add_12/Add", "op": "AddV2", "input": ["PartitionedCall/model_16/tf.nn.convolution_10/convolution", "49917"], "attr": {"T": {"type": "DT_FLOAT"}}}, {"name": "PartitionedCall/model_16/tf.nn.relu_10/Relu", "op": "Relu", "input": ["PartitionedCall/model_16/tf.math.add_12/Add"], "attr": {"T": {"type": "DT_FLOAT"}}}, {"name": "PartitionedCall/model_16/tf.nn.convolution_11/convolution", "op": "Conv2D", "input": ["PartitionedCall/model_16/tf.nn.relu_10/Relu", "49919"], "device": "/device:CPU:0", "attr": {"dilations": {"list": {"i": ["1", "1", "1", "1"]}}, "data_format": {"s": "TkhXQw=="}, "explicit_paddings": {"list": {}}, "T": {"type": "DT_FLOAT"}, "padding": {"s": "U0FNRQ=="}, "strides": {"list": {"i": ["1", "1", "1", "1"]}}, "use_cudnn_on_gpu": {"b": true}}}, {"name": "PartitionedCall/model_16/tf.math.add_13/Add", "op": "AddV2", "input": ["PartitionedCall/model_16/tf.nn.convolution_11/convolution", "49921"], "attr": {"T": {"type": "DT_FLOAT"}}}, {"name": "PartitionedCall/model_16/tf.nn.relu_11/Relu", "op": "Relu", "input": ["PartitionedCall/model_16/tf.math.add_13/Add"], "attr": {"T": {"type": "DT_FLOAT"}}}, {"name": "PartitionedCall/model_16/tf.math.add_14/Add", "op": "AddV2", "input": ["PartitionedCall/model_16/tf.math.add_11/Add", "PartitionedCall/model_16/tf.nn.relu_11/Relu"], "attr": {"T": {"type": "DT_FLOAT"}}}, {"name": "PartitionedCall/model_16/tf.concat_1/concat", "op": "ConcatV2", "input": ["PartitionedCall/model_16/tf.strided_slice_2/StridedSlice", "PartitionedCall/model_16/tf.strided_slice_3/StridedSlice", "PartitionedCall/model_16/tf.math.add_11/Add", "PartitionedCall/model_16/tf.math.add_14/Add", "PartitionedCall/model_16/tf.concat_1/concat/axis"], "attr": {"T": {"type": "DT_FLOAT"}, "Tidx": {"type": "DT_INT32"}, "N": {"i": "4"}}}, {"name": "PartitionedCall/model_16/tf.nn.convolution_13/convolution", "op": "Conv2D", "input": ["PartitionedCall/model_16/tf.concat_1/concat", "49927"], "device": "/device:CPU:0", "attr": {"padding": {"s": "U0FNRQ=="}, "dilations": {"list": {"i": ["1", "1", "1", "1"]}}, "T": {"type": "DT_FLOAT"}, "explicit_paddings": {"list": {}}, "use_cudnn_on_gpu": {"b": true}, "strides": {"list": {"i": ["1", "1", "1", "1"]}}, "data_format": {"s": "TkhXQw=="}}}, {"name": "PartitionedCall/model_16/tf.math.add_16/Add", "op": "AddV2", "input": ["PartitionedCall/model_16/tf.nn.convolution_13/convolution", "49929"], "attr": {"T": {"type": "DT_FLOAT"}}}, {"name": "PartitionedCall/model_16/tf.nn.relu_12/Relu", "op": "Relu", "input": ["PartitionedCall/model_16/tf.math.add_16/Add"], "attr": {"T": {"type": "DT_FLOAT"}}}, {"name": "PartitionedCall/model_16/tf.compat.v1.pad_3/Pad", "op": "Pad", "input": ["PartitionedCall/model_16/tf.nn.relu_12/Relu", "49931"], "attr": {"Tpaddings": {"type": "DT_INT32"}, "T": {"type": "DT_FLOAT"}}}, {"name": "PartitionedCall/model_16/tf.nn.convolution_14/convolution", "op": "Conv2D", "input": ["PartitionedCall/model_16/tf.compat.v1.pad_3/Pad", "49933"], "device": "/device:CPU:0", "attr": {"use_cudnn_on_gpu": {"b": true}, "dilations": {"list": {"i": ["1", "1", "1", "1"]}}, "explicit_paddings": {"list": {}}, "data_format": {"s": "TkhXQw=="}, "padding": {"s": "VkFMSUQ="}, "strides": {"list": {"i": ["1", "2", "2", "1"]}}, "T": {"type": "DT_FLOAT"}}}, {"name": "PartitionedCall/model_16/tf.math.add_17/Add", "op": "AddV2", "input": ["PartitionedCall/model_16/tf.nn.convolution_14/convolution", "49935"], "attr": {"T": {"type": "DT_FLOAT"}}}, {"name": "PartitionedCall/model_16/tf.nn.relu_13/Relu", "op": "Relu", "input": ["PartitionedCall/model_16/tf.math.add_17/Add"], "attr": {"T": {"type": "DT_FLOAT"}}}, {"name": "PartitionedCall/model_16/tf.nn.convolution_15/convolution", "op": "Conv2D", "input": ["PartitionedCall/model_16/tf.nn.relu_13/Relu", "49937"], "device": "/device:CPU:0", "attr": {"strides": {"list": {"i": ["1", "1", "1", "1"]}}, "use_cudnn_on_gpu": {"b": true}, "padding": {"s": "U0FNRQ=="}, "explicit_paddings": {"list": {}}, "dilations": {"list": {"i": ["1", "1", "1", "1"]}}, "data_format": {"s": "TkhXQw=="}, "T": {"type": "DT_FLOAT"}}}, {"name": "PartitionedCall/model_16/tf.math.add_18/Add", "op": "AddV2", "input": ["PartitionedCall/model_16/tf.nn.convolution_15/convolution", "49939"], "attr": {"T": {"type": "DT_FLOAT"}}}, {"name": "PartitionedCall/model_16/tf.nn.relu_14/Relu", "op": "Relu", "input": ["PartitionedCall/model_16/tf.math.add_18/Add"], "attr": {"T": {"type": "DT_FLOAT"}}}, {"name": "PartitionedCall/model_16/tf.strided_slice_4/StridedSlice", "op": "StridedSlice", "input": ["PartitionedCall/model_16/tf.nn.relu_14/Relu", "49961", "49963", "PartitionedCall/model_16/tf.strided_slice_4/ones_like"], "attr": {"Index": {"type": "DT_INT64"}, "end_mask": {"i": "7"}, "T": {"type": "DT_FLOAT"}, "shrink_axis_mask": {"i": "0"}, "new_axis_mask": {"i": "0"}, "begin_mask": {"i": "15"}, "ellipsis_mask": {"i": "0"}}}, {"name": "PartitionedCall/model_16/tf.strided_slice_5/StridedSlice", "op": "StridedSlice", "input": ["PartitionedCall/model_16/tf.nn.relu_14/Relu", "49941", "49943", "PartitionedCall/model_16/tf.strided_slice_5/ones_like"], "attr": {"Index": {"type": "DT_INT64"}, "ellipsis_mask": {"i": "0"}, "end_mask": {"i": "7"}, "T": {"type": "DT_FLOAT"}, "begin_mask": {"i": "7"}, "shrink_axis_mask": {"i": "0"}, "new_axis_mask": {"i": "0"}}}, {"name": "PartitionedCall/model_16/tf.nn.convolution_17/convolution", "op": "Conv2D", "input": ["PartitionedCall/model_16/tf.strided_slice_5/StridedSlice", "49945"], "device": "/device:CPU:0", "attr": {"explicit_paddings": {"list": {}}, "data_format": {"s": "TkhXQw=="}, "T": {"type": "DT_FLOAT"}, "use_cudnn_on_gpu": {"b": true}, "dilations": {"list": {"i": ["1", "1", "1", "1"]}}, "padding": {"s": "U0FNRQ=="}, "strides": {"list": {"i": ["1", "1", "1", "1"]}}}}, {"name": "PartitionedCall/model_16/tf.math.add_20/Add", "op": "AddV2", "input": ["PartitionedCall/model_16/tf.nn.convolution_17/convolution", "49947"], "attr": {"T": {"type": "DT_FLOAT"}}}, {"name": "PartitionedCall/model_16/tf.nn.relu_15/Relu", "op": "Relu", "input": ["PartitionedCall/model_16/tf.math.add_20/Add"], "attr": {"T": {"type": "DT_FLOAT"}}}, {"name": "PartitionedCall/model_16/tf.nn.convolution_19/convolution", "op": "Conv2D", "input": ["PartitionedCall/model_16/tf.nn.relu_15/Relu", "49949"], "device": "/device:CPU:0", "attr": {"dilations": {"list": {"i": ["1", "1", "1", "1"]}}, "data_format": {"s": "TkhXQw=="}, "strides": {"list": {"i": ["1", "1", "1", "1"]}}, "T": {"type": "DT_FLOAT"}, "use_cudnn_on_gpu": {"b": true}, "explicit_paddings": {"list": {}}, "padding": {"s": "U0FNRQ=="}}}, {"name": "PartitionedCall/model_16/tf.math.add_22/Add", "op": "AddV2", "input": ["PartitionedCall/model_16/tf.nn.convolution_19/convolution", "49951"], "attr": {"T": {"type": "DT_FLOAT"}}}, {"name": "PartitionedCall/model_16/tf.nn.relu_16/Relu", "op": "Relu", "input": ["PartitionedCall/model_16/tf.math.add_22/Add"], "attr": {"T": {"type": "DT_FLOAT"}}}, {"name": "PartitionedCall/model_16/tf.math.add_23/Add", "op": "AddV2", "input": ["PartitionedCall/model_16/tf.strided_slice_5/StridedSlice", "PartitionedCall/model_16/tf.nn.relu_16/Relu"], "attr": {"T": {"type": "DT_FLOAT"}}}, {"name": "PartitionedCall/model_16/tf.nn.convolution_21/convolution", "op": "Conv2D", "input": ["PartitionedCall/model_16/tf.math.add_23/Add", "49953"], "device": "/device:CPU:0", "attr": {"use_cudnn_on_gpu": {"b": true}, "T": {"type": "DT_FLOAT"}, "data_format": {"s": "TkhXQw=="}, "explicit_paddings": {"list": {}}, "dilations": {"list": {"i": ["1", "1", "1", "1"]}}, "strides": {"list": {"i": ["1", "1", "1", "1"]}}, "padding": {"s": "U0FNRQ=="}}}, {"name": "PartitionedCall/model_16/tf.math.add_25/Add", "op": "AddV2", "input": ["PartitionedCall/model_16/tf.nn.convolution_21/convolution", "49955"], "attr": {"T": {"type": "DT_FLOAT"}}}, {"name": "PartitionedCall/model_16/tf.nn.relu_17/Relu", "op": "Relu", "input": ["PartitionedCall/model_16/tf.math.add_25/Add"], "attr": {"T": {"type": "DT_FLOAT"}}}, {"name": "PartitionedCall/model_16/tf.nn.convolution_23/convolution", "op": "Conv2D", "input": ["PartitionedCall/model_16/tf.nn.relu_17/Relu", "49957"], "device": "/device:CPU:0", "attr": {"T": {"type": "DT_FLOAT"}, "explicit_paddings": {"list": {}}, "padding": {"s": "U0FNRQ=="}, "strides": {"list": {"i": ["1", "1", "1", "1"]}}, "dilations": {"list": {"i": ["1", "1", "1", "1"]}}, "use_cudnn_on_gpu": {"b": true}, "data_format": {"s": "TkhXQw=="}}}, {"name": "PartitionedCall/model_16/tf.math.add_27/Add", "op": "AddV2", "input": ["PartitionedCall/model_16/tf.nn.convolution_23/convolution", "49959"], "attr": {"T": {"type": "DT_FLOAT"}}}, {"name": "PartitionedCall/model_16/tf.nn.relu_18/Relu", "op": "Relu", "input": ["PartitionedCall/model_16/tf.math.add_27/Add"], "attr": {"T": {"type": "DT_FLOAT"}}}, {"name": "PartitionedCall/model_16/tf.math.add_28/Add", "op": "AddV2", "input": ["PartitionedCall/model_16/tf.math.add_23/Add", "PartitionedCall/model_16/tf.nn.relu_18/Relu"], "attr": {"T": {"type": "DT_FLOAT"}}}, {"name": "PartitionedCall/model_16/tf.concat_2/concat", "op": "ConcatV2", "input": ["PartitionedCall/model_16/tf.strided_slice_4/StridedSlice", "PartitionedCall/model_16/tf.strided_slice_5/StridedSlice", "PartitionedCall/model_16/tf.math.add_23/Add", "PartitionedCall/model_16/tf.math.add_28/Add", "PartitionedCall/model_16/tf.concat_2/concat/axis"], "attr": {"T": {"type": "DT_FLOAT"}, "Tidx": {"type": "DT_INT32"}, "N": {"i": "4"}}}, {"name": "PartitionedCall/model_16/tf.nn.convolution_24/convolution", "op": "Conv2D", "input": ["PartitionedCall/model_16/tf.concat_2/concat", "49965"], "device": "/device:CPU:0", "attr": {"data_format": {"s": "TkhXQw=="}, "explicit_paddings": {"list": {}}, "use_cudnn_on_gpu": {"b": true}, "strides": {"list": {"i": ["1", "1", "1", "1"]}}, "T": {"type": "DT_FLOAT"}, "dilations": {"list": {"i": ["1", "1", "1", "1"]}}, "padding": {"s": "U0FNRQ=="}}}, {"name": "PartitionedCall/model_16/tf.math.add_29/Add", "op": "AddV2", "input": ["PartitionedCall/model_16/tf.nn.convolution_24/convolution", "49967"], "attr": {"T": {"type": "DT_FLOAT"}}}, {"name": "PartitionedCall/model_16/tf.nn.relu_19/Relu", "op": "Relu", "input": ["PartitionedCall/model_16/tf.math.add_29/Add"], "attr": {"T": {"type": "DT_FLOAT"}}}, {"name": "PartitionedCall/model_16/tf.compat.v1.pad_4/Pad", "op": "Pad", "input": ["PartitionedCall/model_16/tf.nn.relu_19/Relu", "49969"], "attr": {"Tpaddings": {"type": "DT_INT32"}, "T": {"type": "DT_FLOAT"}}}, {"name": "PartitionedCall/model_16/tf.nn.convolution_25/convolution", "op": "Conv2D", "input": ["PartitionedCall/model_16/tf.compat.v1.pad_4/Pad", "49971"], "device": "/device:CPU:0", "attr": {"data_format": {"s": "TkhXQw=="}, "explicit_paddings": {"list": {}}, "strides": {"list": {"i": ["1", "2", "2", "1"]}}, "use_cudnn_on_gpu": {"b": true}, "T": {"type": "DT_FLOAT"}, "dilations": {"list": {"i": ["1", "1", "1", "1"]}}, "padding": {"s": "VkFMSUQ="}}}, {"name": "PartitionedCall/model_16/tf.math.add_30/Add", "op": "AddV2", "input": ["PartitionedCall/model_16/tf.nn.convolution_25/convolution", "49973"], "attr": {"T": {"type": "DT_FLOAT"}}}, {"name": "PartitionedCall/model_16/tf.nn.relu_20/Relu", "op": "Relu", "input": ["PartitionedCall/model_16/tf.math.add_30/Add"], "attr": {"T": {"type": "DT_FLOAT"}}}, {"name": "PartitionedCall/model_16/tf.nn.convolution_26/convolution", "op": "Conv2D", "input": ["PartitionedCall/model_16/tf.nn.relu_20/Relu", "49975"], "device": "/device:CPU:0", "attr": {"strides": {"list": {"i": ["1", "1", "1", "1"]}}, "data_format": {"s": "TkhXQw=="}, "dilations": {"list": {"i": ["1", "1", "1", "1"]}}, "T": {"type": "DT_FLOAT"}, "use_cudnn_on_gpu": {"b": true}, "padding": {"s": "U0FNRQ=="}, "explicit_paddings": {"list": {}}}}, {"name": "PartitionedCall/model_16/tf.math.add_31/Add", "op": "AddV2", "input": ["PartitionedCall/model_16/tf.nn.convolution_26/convolution", "49977"], "attr": {"T": {"type": "DT_FLOAT"}}}, {"name": "PartitionedCall/model_16/tf.nn.relu_21/Relu", "op": "Relu", "input": ["PartitionedCall/model_16/tf.math.add_31/Add"], "attr": {"T": {"type": "DT_FLOAT"}}}, {"name": "PartitionedCall/model_16/tf.strided_slice_6/StridedSlice", "op": "StridedSlice", "input": ["PartitionedCall/model_16/tf.nn.relu_21/Relu", "49991", "49993", "PartitionedCall/model_16/tf.strided_slice_6/ones_like"], "attr": {"begin_mask": {"i": "15"}, "new_axis_mask": {"i": "0"}, "ellipsis_mask": {"i": "0"}, "T": {"type": "DT_FLOAT"}, "Index": {"type": "DT_INT64"}, "end_mask": {"i": "7"}, "shrink_axis_mask": {"i": "0"}}}, {"name": "PartitionedCall/model_16/tf.strided_slice_7/StridedSlice", "op": "StridedSlice", "input": ["PartitionedCall/model_16/tf.nn.relu_21/Relu", "49979", "49981", "PartitionedCall/model_16/tf.strided_slice_7/ones_like"], "attr": {"shrink_axis_mask": {"i": "0"}, "Index": {"type": "DT_INT64"}, "new_axis_mask": {"i": "0"}, "ellipsis_mask": {"i": "0"}, "begin_mask": {"i": "7"}, "T": {"type": "DT_FLOAT"}, "end_mask": {"i": "7"}}}, {"name": "PartitionedCall/model_16/tf.nn.convolution_27/convolution", "op": "Conv2D", "input": ["PartitionedCall/model_16/tf.strided_slice_7/StridedSlice", "49983"], "device": "/device:CPU:0", "attr": {"padding": {"s": "U0FNRQ=="}, "use_cudnn_on_gpu": {"b": true}, "data_format": {"s": "TkhXQw=="}, "dilations": {"list": {"i": ["1", "1", "1", "1"]}}, "strides": {"list": {"i": ["1", "1", "1", "1"]}}, "T": {"type": "DT_FLOAT"}, "explicit_paddings": {"list": {}}}}, {"name": "PartitionedCall/model_16/tf.math.add_32/Add", "op": "AddV2", "input": ["PartitionedCall/model_16/tf.nn.convolution_27/convolution", "49985"], "attr": {"T": {"type": "DT_FLOAT"}}}, {"name": "PartitionedCall/model_16/tf.nn.relu_22/Relu", "op": "Relu", "input": ["PartitionedCall/model_16/tf.math.add_32/Add"], "attr": {"T": {"type": "DT_FLOAT"}}}, {"name": "PartitionedCall/model_16/tf.nn.convolution_28/convolution", "op": "Conv2D", "input": ["PartitionedCall/model_16/tf.nn.relu_22/Relu", "49987"], "device": "/device:CPU:0", "attr": {"padding": {"s": "U0FNRQ=="}, "dilations": {"list": {"i": ["1", "1", "1", "1"]}}, "explicit_paddings": {"list": {}}, "data_format": {"s": "TkhXQw=="}, "T": {"type": "DT_FLOAT"}, "use_cudnn_on_gpu": {"b": true}, "strides": {"list": {"i": ["1", "1", "1", "1"]}}}}, {"name": "PartitionedCall/model_16/tf.math.add_33/Add", "op": "AddV2", "input": ["PartitionedCall/model_16/tf.nn.convolution_28/convolution", "49989"], "attr": {"T": {"type": "DT_FLOAT"}}}, {"name": "PartitionedCall/model_16/tf.nn.relu_23/Relu", "op": "Relu", "input": ["PartitionedCall/model_16/tf.math.add_33/Add"], "attr": {"T": {"type": "DT_FLOAT"}}}, {"name": "PartitionedCall/model_16/tf.math.add_34/Add", "op": "AddV2", "input": ["PartitionedCall/model_16/tf.strided_slice_7/StridedSlice", "PartitionedCall/model_16/tf.nn.relu_23/Relu"], "attr": {"T": {"type": "DT_FLOAT"}}}, {"name": "PartitionedCall/model_16/tf.concat_3/concat", "op": "ConcatV2", "input": ["PartitionedCall/model_16/tf.strided_slice_6/StridedSlice", "PartitionedCall/model_16/tf.strided_slice_7/StridedSlice", "PartitionedCall/model_16/tf.math.add_34/Add", "PartitionedCall/model_16/tf.concat_3/concat/axis"], "attr": {"N": {"i": "3"}, "Tidx": {"type": "DT_INT32"}, "T": {"type": "DT_FLOAT"}}}, {"name": "PartitionedCall/model_16/tf.nn.convolution_29/convolution", "op": "Conv2D", "input": ["PartitionedCall/model_16/tf.concat_3/concat", "49995"], "device": "/device:CPU:0", "attr": {"strides": {"list": {"i": ["1", "1", "1", "1"]}}, "data_format": {"s": "TkhXQw=="}, "explicit_paddings": {"list": {}}, "padding": {"s": "U0FNRQ=="}, "use_cudnn_on_gpu": {"b": true}, "dilations": {"list": {"i": ["1", "1", "1", "1"]}}, "T": {"type": "DT_FLOAT"}}}, {"name": "PartitionedCall/model_16/tf.math.add_35/Add", "op": "AddV2", "input": ["PartitionedCall/model_16/tf.nn.convolution_29/convolution", "49997"], "attr": {"T": {"type": "DT_FLOAT"}}}, {"name": "PartitionedCall/model_16/tf.nn.relu_24/Relu", "op": "Relu", "input": ["PartitionedCall/model_16/tf.math.add_35/Add"], "attr": {"T": {"type": "DT_FLOAT"}}}, {"name": "PartitionedCall/model_16/tf.nn.convolution_30/convolution", "op": "Conv2D", "input": ["PartitionedCall/model_16/tf.nn.relu_24/Relu", "49999"], "device": "/device:CPU:0", "attr": {"data_format": {"s": "TkhXQw=="}, "padding": {"s": "U0FNRQ=="}, "use_cudnn_on_gpu": {"b": true}, "dilations": {"list": {"i": ["1", "1", "1", "1"]}}, "strides": {"list": {"i": ["1", "1", "1", "1"]}}, "T": {"type": "DT_FLOAT"}, "explicit_paddings": {"list": {}}}}, {"name": "PartitionedCall/model_16/tf.math.add_36/Add", "op": "AddV2", "input": ["PartitionedCall/model_16/tf.nn.convolution_30/convolution", "50001"], "attr": {"T": {"type": "DT_FLOAT"}}}, {"name": "PartitionedCall/model_16/tf.nn.relu_25/Relu", "op": "Relu", "input": ["PartitionedCall/model_16/tf.math.add_36/Add"], "attr": {"T": {"type": "DT_FLOAT"}}}, {"name": "PartitionedCall/model_16/tf.compat.v1.nn.pool/max_pool", "op": "MaxPool", "input": ["PartitionedCall/model_16/tf.nn.relu_25/Relu"], "attr": {"T": {"type": "DT_FLOAT"}, "explicit_paddings": {"list": {}}, "strides": {"list": {"i": ["1", "1", "1", "1"]}}, "data_format": {"s": "TkhXQw=="}, "padding": {"s": "U0FNRQ=="}, "ksize": {"list": {"i": ["1", "5", "5", "1"]}}}}, {"name": "PartitionedCall/model_16/tf.compat.v1.nn.pool_1/max_pool", "op": "MaxPool", "input": ["PartitionedCall/model_16/tf.compat.v1.nn.pool/max_pool"], "attr": {"strides": {"list": {"i": ["1", "1", "1", "1"]}}, "data_format": {"s": "TkhXQw=="}, "T": {"type": "DT_FLOAT"}, "explicit_paddings": {"list": {}}, "padding": {"s": "U0FNRQ=="}, "ksize": {"list": {"i": ["1", "5", "5", "1"]}}}}, {"name": "PartitionedCall/model_16/tf.compat.v1.nn.pool_2/max_pool", "op": "MaxPool", "input": ["PartitionedCall/model_16/tf.compat.v1.nn.pool_1/max_pool"], "attr": {"T": {"type": "DT_FLOAT"}, "strides": {"list": {"i": ["1", "1", "1", "1"]}}, "padding": {"s": "U0FNRQ=="}, "data_format": {"s": "TkhXQw=="}, "explicit_paddings": {"list": {}}, "ksize": {"list": {"i": ["1", "5", "5", "1"]}}}}, {"name": "PartitionedCall/model_16/tf.concat_4/concat", "op": "ConcatV2", "input": ["PartitionedCall/model_16/tf.nn.relu_25/Relu", "PartitionedCall/model_16/tf.compat.v1.nn.pool/max_pool", "PartitionedCall/model_16/tf.compat.v1.nn.pool_1/max_pool", "PartitionedCall/model_16/tf.compat.v1.nn.pool_2/max_pool", "PartitionedCall/model_16/tf.concat_4/concat/axis"], "attr": {"T": {"type": "DT_FLOAT"}, "N": {"i": "4"}, "Tidx": {"type": "DT_INT32"}}}, {"name": "PartitionedCall/model_16/tf.nn.convolution_31/convolution", "op": "Conv2D", "input": ["PartitionedCall/model_16/tf.concat_4/concat", "50003"], "device": "/device:CPU:0", "attr": {"explicit_paddings": {"list": {}}, "use_cudnn_on_gpu": {"b": true}, "strides": {"list": {"i": ["1", "1", "1", "1"]}}, "data_format": {"s": "TkhXQw=="}, "T": {"type": "DT_FLOAT"}, "padding": {"s": "U0FNRQ=="}, "dilations": {"list": {"i": ["1", "1", "1", "1"]}}}}, {"name": "PartitionedCall/model_16/tf.math.add_37/Add", "op": "AddV2", "input": ["PartitionedCall/model_16/tf.nn.convolution_31/convolution", "50005"], "attr": {"T": {"type": "DT_FLOAT"}}}, {"name": "PartitionedCall/model_16/tf.nn.relu_26/Relu", "op": "Relu", "input": ["PartitionedCall/model_16/tf.math.add_37/Add"], "attr": {"T": {"type": "DT_FLOAT"}}}, {"name": "PartitionedCall/model_16/lambda//model.10/Resize", "op": "ResizeNearestNeighbor", "input": ["PartitionedCall/model_16/tf.nn.relu_26/Relu", "PartitionedCall/model_16/lambda//model.10/Resize/size"], "attr": {"T": {"type": "DT_FLOAT"}, "half_pixel_centers": {"b": false}, "align_corners": {"b": false}}}, {"name": "PartitionedCall/model_16/tf.concat_5/concat", "op": "ConcatV2", "input": ["PartitionedCall/model_16/lambda//model.10/Resize", "PartitionedCall/model_16/tf.nn.relu_19/Relu", "PartitionedCall/model_16/tf.concat_5/concat/axis"], "attr": {"Tidx": {"type": "DT_INT32"}, "T": {"type": "DT_FLOAT"}, "N": {"i": "2"}}}, {"name": "PartitionedCall/model_16/tf.nn.convolution_32/convolution", "op": "Conv2D", "input": ["PartitionedCall/model_16/tf.concat_5/concat", "50007"], "device": "/device:CPU:0", "attr": {"use_cudnn_on_gpu": {"b": true}, "padding": {"s": "U0FNRQ=="}, "T": {"type": "DT_FLOAT"}, "explicit_paddings": {"list": {}}, "strides": {"list": {"i": ["1", "1", "1", "1"]}}, "data_format": {"s": "TkhXQw=="}, "dilations": {"list": {"i": ["1", "1", "1", "1"]}}}}, {"name": "PartitionedCall/model_16/tf.math.add_38/Add", "op": "AddV2", "input": ["PartitionedCall/model_16/tf.nn.convolution_32/convolution", "50009"], "attr": {"T": {"type": "DT_FLOAT"}}}, {"name": "PartitionedCall/model_16/tf.nn.relu_27/Relu", "op": "Relu", "input": ["PartitionedCall/model_16/tf.math.add_38/Add"], "attr": {"T": {"type": "DT_FLOAT"}}}, {"name": "PartitionedCall/model_16/tf.strided_slice_8/StridedSlice", "op": "StridedSlice", "input": ["PartitionedCall/model_16/tf.nn.relu_27/Relu", "50023", "50025", "PartitionedCall/model_16/tf.strided_slice_8/ones_like"], "attr": {"ellipsis_mask": {"i": "0"}, "shrink_axis_mask": {"i": "0"}, "begin_mask": {"i": "15"}, "Index": {"type": "DT_INT64"}, "T": {"type": "DT_FLOAT"}, "end_mask": {"i": "7"}, "new_axis_mask": {"i": "0"}}}, {"name": "PartitionedCall/model_16/tf.strided_slice_9/StridedSlice", "op": "StridedSlice", "input": ["PartitionedCall/model_16/tf.nn.relu_27/Relu", "50011", "50013", "PartitionedCall/model_16/tf.strided_slice_9/ones_like"], "attr": {"end_mask": {"i": "7"}, "shrink_axis_mask": {"i": "0"}, "Index": {"type": "DT_INT64"}, "new_axis_mask": {"i": "0"}, "ellipsis_mask": {"i": "0"}, "begin_mask": {"i": "7"}, "T": {"type": "DT_FLOAT"}}}, {"name": "PartitionedCall/model_16/tf.nn.convolution_34/convolution", "op": "Conv2D", "input": ["PartitionedCall/model_16/tf.strided_slice_9/StridedSlice", "50015"], "device": "/device:CPU:0", "attr": {"dilations": {"list": {"i": ["1", "1", "1", "1"]}}, "data_format": {"s": "TkhXQw=="}, "strides": {"list": {"i": ["1", "1", "1", "1"]}}, "T": {"type": "DT_FLOAT"}, "explicit_paddings": {"list": {}}, "padding": {"s": "U0FNRQ=="}, "use_cudnn_on_gpu": {"b": true}}}, {"name": "PartitionedCall/model_16/tf.math.add_40/Add", "op": "AddV2", "input": ["PartitionedCall/model_16/tf.nn.convolution_34/convolution", "50017"], "attr": {"T": {"type": "DT_FLOAT"}}}, {"name": "PartitionedCall/model_16/tf.nn.relu_28/Relu", "op": "Relu", "input": ["PartitionedCall/model_16/tf.math.add_40/Add"], "attr": {"T": {"type": "DT_FLOAT"}}}, {"name": "PartitionedCall/model_16/tf.nn.convolution_36/convolution", "op": "Conv2D", "input": ["PartitionedCall/model_16/tf.nn.relu_28/Relu", "50019"], "device": "/device:CPU:0", "attr": {"strides": {"list": {"i": ["1", "1", "1", "1"]}}, "explicit_paddings": {"list": {}}, "dilations": {"list": {"i": ["1", "1", "1", "1"]}}, "use_cudnn_on_gpu": {"b": true}, "T": {"type": "DT_FLOAT"}, "data_format": {"s": "TkhXQw=="}, "padding": {"s": "U0FNRQ=="}}}, {"name": "PartitionedCall/model_16/tf.math.add_42/Add", "op": "AddV2", "input": ["PartitionedCall/model_16/tf.nn.convolution_36/convolution", "50021"], "attr": {"T": {"type": "DT_FLOAT"}}}, {"name": "PartitionedCall/model_16/tf.nn.relu_29/Relu", "op": "Relu", "input": ["PartitionedCall/model_16/tf.math.add_42/Add"], "attr": {"T": {"type": "DT_FLOAT"}}}, {"name": "PartitionedCall/model_16/tf.concat_6/concat", "op": "ConcatV2", "input": ["PartitionedCall/model_16/tf.strided_slice_8/StridedSlice", "PartitionedCall/model_16/tf.strided_slice_9/StridedSlice", "PartitionedCall/model_16/tf.nn.relu_29/Relu", "PartitionedCall/model_16/tf.concat_6/concat/axis"], "attr": {"N": {"i": "3"}, "Tidx": {"type": "DT_INT32"}, "T": {"type": "DT_FLOAT"}}}, {"name": "PartitionedCall/model_16/tf.nn.convolution_37/convolution", "op": "Conv2D", "input": ["PartitionedCall/model_16/tf.concat_6/concat", "50027"], "device": "/device:CPU:0", "attr": {"T": {"type": "DT_FLOAT"}, "explicit_paddings": {"list": {}}, "strides": {"list": {"i": ["1", "1", "1", "1"]}}, "data_format": {"s": "TkhXQw=="}, "padding": {"s": "U0FNRQ=="}, "use_cudnn_on_gpu": {"b": true}, "dilations": {"list": {"i": ["1", "1", "1", "1"]}}}}, {"name": "PartitionedCall/model_16/tf.math.add_43/Add", "op": "AddV2", "input": ["PartitionedCall/model_16/tf.nn.convolution_37/convolution", "50029"], "attr": {"T": {"type": "DT_FLOAT"}}}, {"name": "PartitionedCall/model_16/tf.nn.relu_30/Relu", "op": "Relu", "input": ["PartitionedCall/model_16/tf.math.add_43/Add"], "attr": {"T": {"type": "DT_FLOAT"}}}, {"name": "PartitionedCall/model_16/lambda_1//model.13/Resize", "op": "ResizeNearestNeighbor", "input": ["PartitionedCall/model_16/tf.nn.relu_30/Relu", "PartitionedCall/model_16/lambda_1//model.13/Resize/size"], "attr": {"half_pixel_centers": {"b": false}, "T": {"type": "DT_FLOAT"}, "align_corners": {"b": false}}}, {"name": "PartitionedCall/model_16/tf.concat_584/concat", "op": "ConcatV2", "input": ["PartitionedCall/model_16/lambda_1//model.13/Resize", "PartitionedCall/model_16/tf.nn.relu_12/Relu", "PartitionedCall/model_16/tf.concat_584/concat/axis"], "attr": {"Tidx": {"type": "DT_INT32"}, "N": {"i": "2"}, "T": {"type": "DT_FLOAT"}}}, {"name": "PartitionedCall/model_16/tf.nn.convolution_38/convolution", "op": "Conv2D", "input": ["PartitionedCall/model_16/tf.concat_584/concat", "50031"], "device": "/device:CPU:0", "attr": {"strides": {"list": {"i": ["1", "1", "1", "1"]}}, "use_cudnn_on_gpu": {"b": true}, "dilations": {"list": {"i": ["1", "1", "1", "1"]}}, "padding": {"s": "U0FNRQ=="}, "T": {"type": "DT_FLOAT"}, "explicit_paddings": {"list": {}}, "data_format": {"s": "TkhXQw=="}}}, {"name": "PartitionedCall/model_16/tf.math.add_44/Add", "op": "AddV2", "input": ["PartitionedCall/model_16/tf.nn.convolution_38/convolution", "50033"], "attr": {"T": {"type": "DT_FLOAT"}}}, {"name": "PartitionedCall/model_16/tf.nn.relu_31/Relu", "op": "Relu", "input": ["PartitionedCall/model_16/tf.math.add_44/Add"], "attr": {"T": {"type": "DT_FLOAT"}}}, {"name": "PartitionedCall/model_16/tf.strided_slice_10/StridedSlice", "op": "StridedSlice", "input": ["PartitionedCall/model_16/tf.nn.relu_31/Relu", "50047", "50049", "PartitionedCall/model_16/tf.strided_slice_10/ones_like"], "attr": {"begin_mask": {"i": "15"}, "shrink_axis_mask": {"i": "0"}, "new_axis_mask": {"i": "0"}, "T": {"type": "DT_FLOAT"}, "end_mask": {"i": "7"}, "Index": {"type": "DT_INT64"}, "ellipsis_mask": {"i": "0"}}}, {"name": "PartitionedCall/model_16/tf.strided_slice_11/StridedSlice", "op": "StridedSlice", "input": ["PartitionedCall/model_16/tf.nn.relu_31/Relu", "50035", "50037", "PartitionedCall/model_16/tf.strided_slice_11/ones_like"], "attr": {"shrink_axis_mask": {"i": "0"}, "T": {"type": "DT_FLOAT"}, "new_axis_mask": {"i": "0"}, "ellipsis_mask": {"i": "0"}, "begin_mask": {"i": "7"}, "Index": {"type": "DT_INT64"}, "end_mask": {"i": "7"}}}, {"name": "PartitionedCall/model_16/tf.nn.convolution_39/convolution", "op": "Conv2D", "input": ["PartitionedCall/model_16/tf.strided_slice_11/StridedSlice", "50039"], "device": "/device:CPU:0", "attr": {"T": {"type": "DT_FLOAT"}, "explicit_paddings": {"list": {}}, "use_cudnn_on_gpu": {"b": true}, "padding": {"s": "U0FNRQ=="}, "data_format": {"s": "TkhXQw=="}, "strides": {"list": {"i": ["1", "1", "1", "1"]}}, "dilations": {"list": {"i": ["1", "1", "1", "1"]}}}}, {"name": "PartitionedCall/model_16/tf.math.add_45/Add", "op": "AddV2", "input": ["PartitionedCall/model_16/tf.nn.convolution_39/convolution", "50041"], "attr": {"T": {"type": "DT_FLOAT"}}}, {"name": "PartitionedCall/model_16/tf.nn.relu_32/Relu", "op": "Relu", "input": ["PartitionedCall/model_16/tf.math.add_45/Add"], "attr": {"T": {"type": "DT_FLOAT"}}}, {"name": "PartitionedCall/model_16/tf.nn.convolution_40/convolution", "op": "Conv2D", "input": ["PartitionedCall/model_16/tf.nn.relu_32/Relu", "50043"], "device": "/device:CPU:0", "attr": {"use_cudnn_on_gpu": {"b": true}, "data_format": {"s": "TkhXQw=="}, "strides": {"list": {"i": ["1", "1", "1", "1"]}}, "dilations": {"list": {"i": ["1", "1", "1", "1"]}}, "padding": {"s": "U0FNRQ=="}, "explicit_paddings": {"list": {}}, "T": {"type": "DT_FLOAT"}}}, {"name": "PartitionedCall/model_16/tf.math.add_46/Add", "op": "AddV2", "input": ["PartitionedCall/model_16/tf.nn.convolution_40/convolution", "50045"], "attr": {"T": {"type": "DT_FLOAT"}}}, {"name": "PartitionedCall/model_16/tf.nn.relu_33/Relu", "op": "Relu", "input": ["PartitionedCall/model_16/tf.math.add_46/Add"], "attr": {"T": {"type": "DT_FLOAT"}}}, {"name": "PartitionedCall/model_16/tf.concat_585/concat", "op": "ConcatV2", "input": ["PartitionedCall/model_16/tf.strided_slice_10/StridedSlice", "PartitionedCall/model_16/tf.strided_slice_11/StridedSlice", "PartitionedCall/model_16/tf.nn.relu_33/Relu", "PartitionedCall/model_16/tf.concat_585/concat/axis"], "attr": {"Tidx": {"type": "DT_INT32"}, "T": {"type": "DT_FLOAT"}, "N": {"i": "3"}}}, {"name": "PartitionedCall/model_16/tf.nn.convolution_41/convolution", "op": "Conv2D", "input": ["PartitionedCall/model_16/tf.concat_585/concat", "50051"], "device": "/device:CPU:0", "attr": {"use_cudnn_on_gpu": {"b": true}, "data_format": {"s": "TkhXQw=="}, "strides": {"list": {"i": ["1", "1", "1", "1"]}}, "explicit_paddings": {"list": {}}, "dilations": {"list": {"i": ["1", "1", "1", "1"]}}, "T": {"type": "DT_FLOAT"}, "padding": {"s": "U0FNRQ=="}}}, {"name": "PartitionedCall/model_16/tf.math.add_47/Add", "op": "AddV2", "input": ["PartitionedCall/model_16/tf.nn.convolution_41/convolution", "50053"], "attr": {"T": {"type": "DT_FLOAT"}}}, {"name": "PartitionedCall/model_16/tf.nn.relu_34/Relu", "op": "Relu", "input": ["PartitionedCall/model_16/tf.math.add_47/Add"], "attr": {"T": {"type": "DT_FLOAT"}}}, {"name": "PartitionedCall/model_16/tf.nn.convolution_43/convolution", "op": "Conv2D", "input": ["PartitionedCall/model_16/tf.nn.relu_34/Relu", "50129"], "device": "/device:CPU:0", "attr": {"strides": {"list": {"i": ["1", "1", "1", "1"]}}, "dilations": {"list": {"i": ["1", "1", "1", "1"]}}, "explicit_paddings": {"list": {}}, "T": {"type": "DT_FLOAT"}, "use_cudnn_on_gpu": {"b": true}, "padding": {"s": "U0FNRQ=="}, "data_format": {"s": "TkhXQw=="}}}, {"name": "PartitionedCall/model_16/tf.nn.convolution_44/convolution", "op": "Conv2D", "input": ["PartitionedCall/model_16/tf.nn.relu_34/Relu", "50127"], "device": "/device:CPU:0", "attr": {"data_format": {"s": "TkhXQw=="}, "padding": {"s": "U0FNRQ=="}, "T": {"type": "DT_FLOAT"}, "explicit_paddings": {"list": {}}, "strides": {"list": {"i": ["1", "1", "1", "1"]}}, "use_cudnn_on_gpu": {"b": true}, "dilations": {"list": {"i": ["1", "1", "1", "1"]}}}}, {"name": "PartitionedCall/model_16/tf.compat.v1.pad_5/Pad", "op": "Pad", "input": ["PartitionedCall/model_16/tf.nn.relu_34/Relu", "50055"], "attr": {"T": {"type": "DT_FLOAT"}, "Tpaddings": {"type": "DT_INT32"}}}, {"name": "PartitionedCall/model_16/tf.math.add_49/Add", "op": "AddV2", "input": ["PartitionedCall/model_16/tf.nn.convolution_43/convolution", "50141"], "attr": {"T": {"type": "DT_FLOAT"}}}, {"name": "PartitionedCall/model_16/tf.math.add_50/Add", "op": "AddV2", "input": ["PartitionedCall/model_16/tf.nn.convolution_44/convolution", "50139"], "attr": {"T": {"type": "DT_FLOAT"}}}, {"name": "PartitionedCall/model_16/tf.nn.convolution_42/convolution", "op": "Conv2D", "input": ["PartitionedCall/model_16/tf.compat.v1.pad_5/Pad", "50057"], "device": "/device:CPU:0", "attr": {"use_cudnn_on_gpu": {"b": true}, "padding": {"s": "VkFMSUQ="}, "dilations": {"list": {"i": ["1", "1", "1", "1"]}}, "T": {"type": "DT_FLOAT"}, "data_format": {"s": "TkhXQw=="}, "explicit_paddings": {"list": {}}, "strides": {"list": {"i": ["1", "2", "2", "1"]}}}}, {"name": "PartitionedCall/model_16/tf.nn.relu_36/Relu", "op": "Relu", "input": ["PartitionedCall/model_16/tf.math.add_49/Add"], "attr": {"T": {"type": "DT_FLOAT"}}}, {"name": "PartitionedCall/model_16/tf.nn.relu_37/Relu", "op": "Relu", "input": ["PartitionedCall/model_16/tf.math.add_50/Add"], "attr": {"T": {"type": "DT_FLOAT"}}}, {"name": "PartitionedCall/model_16/tf.math.add_48/Add", "op": "AddV2", "input": ["PartitionedCall/model_16/tf.nn.convolution_42/convolution", "50059"], "attr": {"T": {"type": "DT_FLOAT"}}}, {"name": "PartitionedCall/model_16/tf.nn.convolution_45/convolution", "op": "Conv2D", "input": ["PartitionedCall/model_16/tf.nn.relu_36/Relu", "50153"], "device": "/device:CPU:0", "attr": {"explicit_paddings": {"list": {}}, "use_cudnn_on_gpu": {"b": true}, "strides": {"list": {"i": ["1", "1", "1", "1"]}}, "data_format": {"s": "TkhXQw=="}, "T": {"type": "DT_FLOAT"}, "dilations": {"list": {"i": ["1", "1", "1", "1"]}}, "padding": {"s": "U0FNRQ=="}}}, {"name": "PartitionedCall/model_16/tf.nn.convolution_46/convolution", "op": "Conv2D", "input": ["PartitionedCall/model_16/tf.nn.relu_37/Relu", "50151"], "device": "/device:CPU:0", "attr": {"strides": {"list": {"i": ["1", "1", "1", "1"]}}, "dilations": {"list": {"i": ["1", "1", "1", "1"]}}, "T": {"type": "DT_FLOAT"}, "data_format": {"s": "TkhXQw=="}, "explicit_paddings": {"list": {}}, "padding": {"s": "U0FNRQ=="}, "use_cudnn_on_gpu": {"b": true}}}, {"name": "PartitionedCall/model_16/tf.nn.relu_35/Relu", "op": "Relu", "input": ["PartitionedCall/model_16/tf.math.add_48/Add"], "attr": {"T": {"type": "DT_FLOAT"}}}, {"name": "PartitionedCall/model_16/tf.math.add_51/Add", "op": "AddV2", "input": ["PartitionedCall/model_16/tf.nn.convolution_45/convolution", "50161"], "attr": {"T": {"type": "DT_FLOAT"}}}, {"name": "PartitionedCall/model_16/tf.math.add_52/Add", "op": "AddV2", "input": ["PartitionedCall/model_16/tf.nn.convolution_46/convolution", "50159"], "attr": {"T": {"type": "DT_FLOAT"}}}, {"name": "PartitionedCall/model_16/tf.concat_1163/concat", "op": "ConcatV2", "input": ["PartitionedCall/model_16/tf.nn.relu_35/Relu", "PartitionedCall/model_16/tf.nn.relu_30/Relu", "PartitionedCall/model_16/tf.concat_1163/concat/axis"], "attr": {"T": {"type": "DT_FLOAT"}, "Tidx": {"type": "DT_INT32"}, "N": {"i": "2"}}}, {"name": "PartitionedCall/model_16/tf.nn.relu_38/Relu", "op": "Relu", "input": ["PartitionedCall/model_16/tf.math.add_51/Add"], "attr": {"T": {"type": "DT_FLOAT"}}}, {"name": "PartitionedCall/model_16/tf.nn.relu_39/Relu", "op": "Relu", "input": ["PartitionedCall/model_16/tf.math.add_52/Add"], "attr": {"T": {"type": "DT_FLOAT"}}}, {"name": "PartitionedCall/model_16/tf.nn.convolution_47/convolution", "op": "Conv2D", "input": ["PartitionedCall/model_16/tf.concat_1163/concat", "50061"], "device": "/device:CPU:0", "attr": {"T": {"type": "DT_FLOAT"}, "dilations": {"list": {"i": ["1", "1", "1", "1"]}}, "data_format": {"s": "TkhXQw=="}, "padding": {"s": "U0FNRQ=="}, "explicit_paddings": {"list": {}}, "use_cudnn_on_gpu": {"b": true}, "strides": {"list": {"i": ["1", "1", "1", "1"]}}}}, {"name": "PartitionedCall/model_16/tf.nn.convolution_48/convolution", "op": "Conv2D", "input": ["PartitionedCall/model_16/tf.nn.relu_38/Relu", "50177"], "device": "/device:CPU:0", "attr": {"use_cudnn_on_gpu": {"b": true}, "strides": {"list": {"i": ["1", "1", "1", "1"]}}, "padding": {"s": "U0FNRQ=="}, "data_format": {"s": "TkhXQw=="}, "explicit_paddings": {"list": {}}, "T": {"type": "DT_FLOAT"}, "dilations": {"list": {"i": ["1", "1", "1", "1"]}}}}, {"name": "PartitionedCall/model_16/tf.nn.convolution_49/convolution", "op": "Conv2D", "input": ["PartitionedCall/model_16/tf.nn.relu_39/Relu", "50175"], "device": "/device:CPU:0", "attr": {"strides": {"list": {"i": ["1", "1", "1", "1"]}}, "use_cudnn_on_gpu": {"b": true}, "data_format": {"s": "TkhXQw=="}, "T": {"type": "DT_FLOAT"}, "explicit_paddings": {"list": {}}, "padding": {"s": "U0FNRQ=="}, "dilations": {"list": {"i": ["1", "1", "1", "1"]}}}}, {"name": "PartitionedCall/model_16/tf.math.add_53/Add", "op": "AddV2", "input": ["PartitionedCall/model_16/tf.nn.convolution_47/convolution", "50063"], "attr": {"T": {"type": "DT_FLOAT"}}}, {"name": "PartitionedCall/model_16/tf.math.add_54/Add", "op": "AddV2", "input": ["PartitionedCall/model_16/tf.nn.convolution_48/convolution", "50183"], "attr": {"T": {"type": "DT_FLOAT"}}}, {"name": "PartitionedCall/model_16/tf.math.add_55/Add", "op": "AddV2", "input": ["PartitionedCall/model_16/tf.nn.convolution_49/convolution", "50185"], "attr": {"T": {"type": "DT_FLOAT"}}}, {"name": "PartitionedCall/model_16/tf.nn.relu_40/Relu", "op": "Relu", "input": ["PartitionedCall/model_16/tf.math.add_53/Add"], "attr": {"T": {"type": "DT_FLOAT"}}}, {"name": "PartitionedCall/model_16/tf.concat_1164/concat", "op": "ConcatV2", "input": ["PartitionedCall/model_16/tf.math.add_54/Add", "PartitionedCall/model_16/tf.math.add_55/Add", "PartitionedCall/model_16/tf.concat_1164/concat/axis"], "attr": {"Tidx": {"type": "DT_INT32"}, "T": {"type": "DT_FLOAT"}, "N": {"i": "2"}}}, {"name": "PartitionedCall/model_16/tf.strided_slice_12/StridedSlice", "op": "StridedSlice", "input": ["PartitionedCall/model_16/tf.nn.relu_40/Relu", "50077", "50079", "PartitionedCall/model_16/tf.strided_slice_12/ones_like"], "attr": {"Index": {"type": "DT_INT64"}, "T": {"type": "DT_FLOAT"}, "shrink_axis_mask": {"i": "0"}, "begin_mask": {"i": "15"}, "new_axis_mask": {"i": "0"}, "ellipsis_mask": {"i": "0"}, "end_mask": {"i": "7"}}}, {"name": "PartitionedCall/model_16/tf.strided_slice_13/StridedSlice", "op": "StridedSlice", "input": ["PartitionedCall/model_16/tf.nn.relu_40/Relu", "50065", "50067", "PartitionedCall/model_16/tf.strided_slice_13/ones_like"], "attr": {"Index": {"type": "DT_INT64"}, "ellipsis_mask": {"i": "0"}, "begin_mask": {"i": "7"}, "end_mask": {"i": "7"}, "shrink_axis_mask": {"i": "0"}, "new_axis_mask": {"i": "0"}, "T": {"type": "DT_FLOAT"}}}, {"name": "PartitionedCall/model_16/tf.compat.v1.transpose_2316/transpose", "op": "Transpose", "input": ["PartitionedCall/model_16/tf.concat_1164/concat", "PartitionedCall/model_16/tf.compat.v1.transpose_2316/transpose/perm"], "attr": {"Tperm": {"type": "DT_INT32"}, "T": {"type": "DT_FLOAT"}}}, {"name": "PartitionedCall/model_16/tf.nn.convolution_51/convolution", "op": "Conv2D", "input": ["PartitionedCall/model_16/tf.strided_slice_13/StridedSlice", "50069"], "device": "/device:CPU:0", "attr": {"use_cudnn_on_gpu": {"b": true}, "T": {"type": "DT_FLOAT"}, "explicit_paddings": {"list": {}}, "strides": {"list": {"i": ["1", "1", "1", "1"]}}, "dilations": {"list": {"i": ["1", "1", "1", "1"]}}, "padding": {"s": "U0FNRQ=="}, "data_format": {"s": "TkhXQw=="}}}, {"name": "PartitionedCall/model_16/tf.reshape/Reshape", "op": "Reshape", "input": ["PartitionedCall/model_16/tf.compat.v1.transpose_2316/transpose", "PartitionedCall/model_16/tf.reshape/Reshape/shape"], "attr": {"T": {"type": "DT_FLOAT"}, "Tshape": {"type": "DT_INT32"}}}, {"name": "PartitionedCall/model_16/tf.math.add_57/Add", "op": "AddV2", "input": ["PartitionedCall/model_16/tf.nn.convolution_51/convolution", "50071"], "attr": {"T": {"type": "DT_FLOAT"}}}, {"name": "PartitionedCall/model_16/tf.nn.relu_41/Relu", "op": "Relu", "input": ["PartitionedCall/model_16/tf.math.add_57/Add"], "attr": {"T": {"type": "DT_FLOAT"}}}, {"name": "PartitionedCall/model_16/tf.nn.convolution_53/convolution", "op": "Conv2D", "input": ["PartitionedCall/model_16/tf.nn.relu_41/Relu", "50073"], "device": "/device:CPU:0", "attr": {"dilations": {"list": {"i": ["1", "1", "1", "1"]}}, "explicit_paddings": {"list": {}}, "data_format": {"s": "TkhXQw=="}, "padding": {"s": "U0FNRQ=="}, "use_cudnn_on_gpu": {"b": true}, "T": {"type": "DT_FLOAT"}, "strides": {"list": {"i": ["1", "1", "1", "1"]}}}}, {"name": "PartitionedCall/model_16/tf.math.add_59/Add", "op": "AddV2", "input": ["PartitionedCall/model_16/tf.nn.convolution_53/convolution", "50075"], "attr": {"T": {"type": "DT_FLOAT"}}}, {"name": "PartitionedCall/model_16/tf.nn.relu_42/Relu", "op": "Relu", "input": ["PartitionedCall/model_16/tf.math.add_59/Add"], "attr": {"T": {"type": "DT_FLOAT"}}}, {"name": "PartitionedCall/model_16/tf.concat_1165/concat", "op": "ConcatV2", "input": ["PartitionedCall/model_16/tf.strided_slice_12/StridedSlice", "PartitionedCall/model_16/tf.strided_slice_13/StridedSlice", "PartitionedCall/model_16/tf.nn.relu_42/Relu", "PartitionedCall/model_16/tf.concat_1165/concat/axis"], "attr": {"T": {"type": "DT_FLOAT"}, "Tidx": {"type": "DT_INT32"}, "N": {"i": "3"}}}, {"name": "PartitionedCall/model_16/tf.nn.convolution_54/convolution", "op": "Conv2D", "input": ["PartitionedCall/model_16/tf.concat_1165/concat", "50081"], "device": "/device:CPU:0", "attr": {"explicit_paddings": {"list": {}}, "data_format": {"s": "TkhXQw=="}, "padding": {"s": "U0FNRQ=="}, "T": {"type": "DT_FLOAT"}, "strides": {"list": {"i": ["1", "1", "1", "1"]}}, "dilations": {"list": {"i": ["1", "1", "1", "1"]}}, "use_cudnn_on_gpu": {"b": true}}}, {"name": "PartitionedCall/model_16/tf.math.add_60/Add", "op": "AddV2", "input": ["PartitionedCall/model_16/tf.nn.convolution_54/convolution", "50083"], "attr": {"T": {"type": "DT_FLOAT"}}}, {"name": "PartitionedCall/model_16/tf.nn.relu_43/Relu", "op": "Relu", "input": ["PartitionedCall/model_16/tf.math.add_60/Add"], "attr": {"T": {"type": "DT_FLOAT"}}}, {"name": "PartitionedCall/model_16/tf.nn.convolution_56/convolution", "op": "Conv2D", "input": ["PartitionedCall/model_16/tf.nn.relu_43/Relu", "50115"], "device": "/device:CPU:0", "attr": {"strides": {"list": {"i": ["1", "1", "1", "1"]}}, "padding": {"s": "U0FNRQ=="}, "use_cudnn_on_gpu": {"b": true}, "explicit_paddings": {"list": {}}, "T": {"type": "DT_FLOAT"}, "data_format": {"s": "TkhXQw=="}, "dilations": {"list": {"i": ["1", "1", "1", "1"]}}}}, {"name": "PartitionedCall/model_16/tf.nn.convolution_57/convolution", "op": "Conv2D", "input": ["PartitionedCall/model_16/tf.nn.relu_43/Relu", "50113"], "device": "/device:CPU:0", "attr": {"dilations": {"list": {"i": ["1", "1", "1", "1"]}}, "data_format": {"s": "TkhXQw=="}, "strides": {"list": {"i": ["1", "1", "1", "1"]}}, "T": {"type": "DT_FLOAT"}, "padding": {"s": "U0FNRQ=="}, "use_cudnn_on_gpu": {"b": true}, "explicit_paddings": {"list": {}}}}, {"name": "PartitionedCall/model_16/tf.compat.v1.pad_6/Pad", "op": "Pad", "input": ["PartitionedCall/model_16/tf.nn.relu_43/Relu", "50085"], "attr": {"T": {"type": "DT_FLOAT"}, "Tpaddings": {"type": "DT_INT32"}}}, {"name": "PartitionedCall/model_16/tf.math.add_62/Add", "op": "AddV2", "input": ["PartitionedCall/model_16/tf.nn.convolution_56/convolution", "50121"], "attr": {"T": {"type": "DT_FLOAT"}}}, {"name": "PartitionedCall/model_16/tf.math.add_63/Add", "op": "AddV2", "input": ["PartitionedCall/model_16/tf.nn.convolution_57/convolution", "50119"], "attr": {"T": {"type": "DT_FLOAT"}}}, {"name": "PartitionedCall/model_16/tf.nn.convolution_55/convolution", "op": "Conv2D", "input": ["PartitionedCall/model_16/tf.compat.v1.pad_6/Pad", "50087"], "device": "/device:CPU:0", "attr": {"strides": {"list": {"i": ["1", "2", "2", "1"]}}, "dilations": {"list": {"i": ["1", "1", "1", "1"]}}, "data_format": {"s": "TkhXQw=="}, "padding": {"s": "VkFMSUQ="}, "T": {"type": "DT_FLOAT"}, "use_cudnn_on_gpu": {"b": true}, "explicit_paddings": {"list": {}}}}, {"name": "PartitionedCall/model_16/tf.nn.relu_45/Relu", "op": "Relu", "input": ["PartitionedCall/model_16/tf.math.add_62/Add"], "attr": {"T": {"type": "DT_FLOAT"}}}, {"name": "PartitionedCall/model_16/tf.nn.relu_46/Relu", "op": "Relu", "input": ["PartitionedCall/model_16/tf.math.add_63/Add"], "attr": {"T": {"type": "DT_FLOAT"}}}, {"name": "PartitionedCall/model_16/tf.math.add_61/Add", "op": "AddV2", "input": ["PartitionedCall/model_16/tf.nn.convolution_55/convolution", "50089"], "attr": {"T": {"type": "DT_FLOAT"}}}, {"name": "PartitionedCall/model_16/tf.nn.convolution_59/convolution", "op": "Conv2D", "input": ["PartitionedCall/model_16/tf.nn.relu_45/Relu", "50137"], "device": "/device:CPU:0", "attr": {"use_cudnn_on_gpu": {"b": true}, "dilations": {"list": {"i": ["1", "1", "1", "1"]}}, "explicit_paddings": {"list": {}}, "T": {"type": "DT_FLOAT"}, "data_format": {"s": "TkhXQw=="}, "padding": {"s": "U0FNRQ=="}, "strides": {"list": {"i": ["1", "1", "1", "1"]}}}}, {"name": "PartitionedCall/model_16/tf.nn.convolution_61/convolution", "op": "Conv2D", "input": ["PartitionedCall/model_16/tf.nn.relu_46/Relu", "50135"], "device": "/device:CPU:0", "attr": {"padding": {"s": "U0FNRQ=="}, "strides": {"list": {"i": ["1", "1", "1", "1"]}}, "dilations": {"list": {"i": ["1", "1", "1", "1"]}}, "data_format": {"s": "TkhXQw=="}, "explicit_paddings": {"list": {}}, "use_cudnn_on_gpu": {"b": true}, "T": {"type": "DT_FLOAT"}}}, {"name": "PartitionedCall/model_16/tf.nn.relu_44/Relu", "op": "Relu", "input": ["PartitionedCall/model_16/tf.math.add_61/Add"], "attr": {"T": {"type": "DT_FLOAT"}}}, {"name": "PartitionedCall/model_16/tf.math.add_65/Add", "op": "AddV2", "input": ["PartitionedCall/model_16/tf.nn.convolution_59/convolution", "50145"], "attr": {"T": {"type": "DT_FLOAT"}}}, {"name": "PartitionedCall/model_16/tf.math.add_67/Add", "op": "AddV2", "input": ["PartitionedCall/model_16/tf.nn.convolution_61/convolution", "50143"], "attr": {"T": {"type": "DT_FLOAT"}}}, {"name": "PartitionedCall/model_16/tf.concat_1166/concat", "op": "ConcatV2", "input": ["PartitionedCall/model_16/tf.nn.relu_44/Relu", "PartitionedCall/model_16/tf.nn.relu_26/Relu", "PartitionedCall/model_16/tf.concat_1166/concat/axis"], "attr": {"N": {"i": "2"}, "T": {"type": "DT_FLOAT"}, "Tidx": {"type": "DT_INT32"}}}, {"name": "PartitionedCall/model_16/tf.nn.relu_47/Relu", "op": "Relu", "input": ["PartitionedCall/model_16/tf.math.add_65/Add"], "attr": {"T": {"type": "DT_FLOAT"}}}, {"name": "PartitionedCall/model_16/tf.nn.relu_48/Relu", "op": "Relu", "input": ["PartitionedCall/model_16/tf.math.add_67/Add"], "attr": {"T": {"type": "DT_FLOAT"}}}, {"name": "PartitionedCall/model_16/tf.nn.convolution_62/convolution", "op": "Conv2D", "input": ["PartitionedCall/model_16/tf.concat_1166/concat", "50091"], "device": "/device:CPU:0", "attr": {"T": {"type": "DT_FLOAT"}, "padding": {"s": "U0FNRQ=="}, "explicit_paddings": {"list": {}}, "strides": {"list": {"i": ["1", "1", "1", "1"]}}, "data_format": {"s": "TkhXQw=="}, "dilations": {"list": {"i": ["1", "1", "1", "1"]}}, "use_cudnn_on_gpu": {"b": true}}}, {"name": "PartitionedCall/model_16/tf.nn.convolution_64/convolution", "op": "Conv2D", "input": ["PartitionedCall/model_16/tf.nn.relu_47/Relu", "50165"], "device": "/device:CPU:0", "attr": {"use_cudnn_on_gpu": {"b": true}, "padding": {"s": "U0FNRQ=="}, "explicit_paddings": {"list": {}}, "strides": {"list": {"i": ["1", "1", "1", "1"]}}, "T": {"type": "DT_FLOAT"}, "data_format": {"s": "TkhXQw=="}, "dilations": {"list": {"i": ["1", "1", "1", "1"]}}}}, {"name": "PartitionedCall/model_16/tf.nn.convolution_66/convolution", "op": "Conv2D", "input": ["PartitionedCall/model_16/tf.nn.relu_48/Relu", "50163"], "device": "/device:CPU:0", "attr": {"dilations": {"list": {"i": ["1", "1", "1", "1"]}}, "data_format": {"s": "TkhXQw=="}, "padding": {"s": "U0FNRQ=="}, "T": {"type": "DT_FLOAT"}, "strides": {"list": {"i": ["1", "1", "1", "1"]}}, "explicit_paddings": {"list": {}}, "use_cudnn_on_gpu": {"b": true}}}, {"name": "PartitionedCall/model_16/tf.math.add_68/Add", "op": "AddV2", "input": ["PartitionedCall/model_16/tf.nn.convolution_62/convolution", "50093"], "attr": {"T": {"type": "DT_FLOAT"}}}, {"name": "PartitionedCall/model_16/tf.math.add_70/Add", "op": "AddV2", "input": ["PartitionedCall/model_16/tf.nn.convolution_64/convolution", "50173"], "attr": {"T": {"type": "DT_FLOAT"}}}, {"name": "PartitionedCall/model_16/tf.math.add_72/Add", "op": "AddV2", "input": ["PartitionedCall/model_16/tf.nn.convolution_66/convolution", "50171"], "attr": {"T": {"type": "DT_FLOAT"}}}, {"name": "PartitionedCall/model_16/tf.nn.relu_49/Relu", "op": "Relu", "input": ["PartitionedCall/model_16/tf.math.add_68/Add"], "attr": {"T": {"type": "DT_FLOAT"}}}, {"name": "PartitionedCall/model_16/tf.concat_1744/concat", "op": "ConcatV2", "input": ["PartitionedCall/model_16/tf.math.add_70/Add", "PartitionedCall/model_16/tf.math.add_72/Add", "PartitionedCall/model_16/tf.concat_1744/concat/axis"], "attr": {"T": {"type": "DT_FLOAT"}, "Tidx": {"type": "DT_INT32"}, "N": {"i": "2"}}}, {"name": "PartitionedCall/model_16/tf.strided_slice_14/StridedSlice", "op": "StridedSlice", "input": ["PartitionedCall/model_16/tf.nn.relu_49/Relu", "50107", "50109", "PartitionedCall/model_16/tf.strided_slice_14/ones_like"], "attr": {"Index": {"type": "DT_INT64"}, "begin_mask": {"i": "15"}, "ellipsis_mask": {"i": "0"}, "T": {"type": "DT_FLOAT"}, "new_axis_mask": {"i": "0"}, "shrink_axis_mask": {"i": "0"}, "end_mask": {"i": "7"}}}, {"name": "PartitionedCall/model_16/tf.strided_slice_15/StridedSlice", "op": "StridedSlice", "input": ["PartitionedCall/model_16/tf.nn.relu_49/Relu", "50095", "50097", "PartitionedCall/model_16/tf.strided_slice_15/ones_like"], "attr": {"Index": {"type": "DT_INT64"}, "shrink_axis_mask": {"i": "0"}, "end_mask": {"i": "7"}, "T": {"type": "DT_FLOAT"}, "ellipsis_mask": {"i": "0"}, "new_axis_mask": {"i": "0"}, "begin_mask": {"i": "7"}}}, {"name": "PartitionedCall/model_16/tf.compat.v1.transpose_3476/transpose", "op": "Transpose", "input": ["PartitionedCall/model_16/tf.concat_1744/concat", "PartitionedCall/model_16/tf.compat.v1.transpose_3476/transpose/perm"], "attr": {"Tperm": {"type": "DT_INT32"}, "T": {"type": "DT_FLOAT"}}}, {"name": "PartitionedCall/model_16/tf.nn.convolution_67/convolution", "op": "Conv2D", "input": ["PartitionedCall/model_16/tf.strided_slice_15/StridedSlice", "50099"], "device": "/device:CPU:0", "attr": {"explicit_paddings": {"list": {}}, "data_format": {"s": "TkhXQw=="}, "dilations": {"list": {"i": ["1", "1", "1", "1"]}}, "use_cudnn_on_gpu": {"b": true}, "padding": {"s": "U0FNRQ=="}, "strides": {"list": {"i": ["1", "1", "1", "1"]}}, "T": {"type": "DT_FLOAT"}}}, {"name": "PartitionedCall/model_16/tf.reshape_1/Reshape", "op": "Reshape", "input": ["PartitionedCall/model_16/tf.compat.v1.transpose_3476/transpose", "PartitionedCall/model_16/tf.reshape_1/Reshape/shape"], "attr": {"Tshape": {"type": "DT_INT32"}, "T": {"type": "DT_FLOAT"}}}, {"name": "PartitionedCall/model_16/tf.math.add_73/Add", "op": "AddV2", "input": ["PartitionedCall/model_16/tf.nn.convolution_67/convolution", "50101"], "attr": {"T": {"type": "DT_FLOAT"}}}, {"name": "PartitionedCall/model_16/tf.nn.relu_50/Relu", "op": "Relu", "input": ["PartitionedCall/model_16/tf.math.add_73/Add"], "attr": {"T": {"type": "DT_FLOAT"}}}, {"name": "PartitionedCall/model_16/tf.nn.convolution_68/convolution", "op": "Conv2D", "input": ["PartitionedCall/model_16/tf.nn.relu_50/Relu", "50103"], "device": "/device:CPU:0", "attr": {"padding": {"s": "U0FNRQ=="}, "dilations": {"list": {"i": ["1", "1", "1", "1"]}}, "T": {"type": "DT_FLOAT"}, "explicit_paddings": {"list": {}}, "strides": {"list": {"i": ["1", "1", "1", "1"]}}, "use_cudnn_on_gpu": {"b": true}, "data_format": {"s": "TkhXQw=="}}}, {"name": "PartitionedCall/model_16/tf.math.add_74/Add", "op": "AddV2", "input": ["PartitionedCall/model_16/tf.nn.convolution_68/convolution", "50105"], "attr": {"T": {"type": "DT_FLOAT"}}}, {"name": "PartitionedCall/model_16/tf.nn.relu_51/Relu", "op": "Relu", "input": ["PartitionedCall/model_16/tf.math.add_74/Add"], "attr": {"T": {"type": "DT_FLOAT"}}}, {"name": "PartitionedCall/model_16/tf.concat_1745/concat", "op": "ConcatV2", "input": ["PartitionedCall/model_16/tf.strided_slice_14/StridedSlice", "PartitionedCall/model_16/tf.strided_slice_15/StridedSlice", "PartitionedCall/model_16/tf.nn.relu_51/Relu", "PartitionedCall/model_16/tf.concat_1745/concat/axis"], "attr": {"N": {"i": "3"}, "T": {"type": "DT_FLOAT"}, "Tidx": {"type": "DT_INT32"}}}, {"name": "PartitionedCall/model_16/tf.nn.convolution_69/convolution", "op": "Conv2D", "input": ["PartitionedCall/model_16/tf.concat_1745/concat", "50111"], "device": "/device:CPU:0", "attr": {"data_format": {"s": "TkhXQw=="}, "padding": {"s": "U0FNRQ=="}, "use_cudnn_on_gpu": {"b": true}, "T": {"type": "DT_FLOAT"}, "dilations": {"list": {"i": ["1", "1", "1", "1"]}}, "strides": {"list": {"i": ["1", "1", "1", "1"]}}, "explicit_paddings": {"list": {}}}}, {"name": "PartitionedCall/model_16/tf.math.add_75/Add", "op": "AddV2", "input": ["PartitionedCall/model_16/tf.nn.convolution_69/convolution", "50117"], "attr": {"T": {"type": "DT_FLOAT"}}}, {"name": "PartitionedCall/model_16/tf.nn.relu_52/Relu", "op": "Relu", "input": ["PartitionedCall/model_16/tf.math.add_75/Add"], "attr": {"T": {"type": "DT_FLOAT"}}}, {"name": "PartitionedCall/model_16/tf.nn.convolution_70/convolution", "op": "Conv2D", "input": ["PartitionedCall/model_16/tf.nn.relu_52/Relu", "50125"], "device": "/device:CPU:0", "attr": {"padding": {"s": "U0FNRQ=="}, "dilations": {"list": {"i": ["1", "1", "1", "1"]}}, "explicit_paddings": {"list": {}}, "data_format": {"s": "TkhXQw=="}, "use_cudnn_on_gpu": {"b": true}, "strides": {"list": {"i": ["1", "1", "1", "1"]}}, "T": {"type": "DT_FLOAT"}}}, {"name": "PartitionedCall/model_16/tf.nn.convolution_71/convolution", "op": "Conv2D", "input": ["PartitionedCall/model_16/tf.nn.relu_52/Relu", "50123"], "device": "/device:CPU:0", "attr": {"dilations": {"list": {"i": ["1", "1", "1", "1"]}}, "data_format": {"s": "TkhXQw=="}, "use_cudnn_on_gpu": {"b": true}, "padding": {"s": "U0FNRQ=="}, "T": {"type": "DT_FLOAT"}, "explicit_paddings": {"list": {}}, "strides": {"list": {"i": ["1", "1", "1", "1"]}}}}, {"name": "PartitionedCall/model_16/tf.math.add_76/Add", "op": "AddV2", "input": ["PartitionedCall/model_16/tf.nn.convolution_70/convolution", "50133"], "attr": {"T": {"type": "DT_FLOAT"}}}, {"name": "PartitionedCall/model_16/tf.math.add_77/Add", "op": "AddV2", "input": ["PartitionedCall/model_16/tf.nn.convolution_71/convolution", "50131"], "attr": {"T": {"type": "DT_FLOAT"}}}, {"name": "PartitionedCall/model_16/tf.nn.relu_53/Relu", "op": "Relu", "input": ["PartitionedCall/model_16/tf.math.add_76/Add"], "attr": {"T": {"type": "DT_FLOAT"}}}, {"name": "PartitionedCall/model_16/tf.nn.relu_54/Relu", "op": "Relu", "input": ["PartitionedCall/model_16/tf.math.add_77/Add"], "attr": {"T": {"type": "DT_FLOAT"}}}, {"name": "PartitionedCall/model_16/tf.nn.convolution_72/convolution", "op": "Conv2D", "input": ["PartitionedCall/model_16/tf.nn.relu_53/Relu", "50149"], "device": "/device:CPU:0", "attr": {"use_cudnn_on_gpu": {"b": true}, "padding": {"s": "U0FNRQ=="}, "explicit_paddings": {"list": {}}, "strides": {"list": {"i": ["1", "1", "1", "1"]}}, "data_format": {"s": "TkhXQw=="}, "T": {"type": "DT_FLOAT"}, "dilations": {"list": {"i": ["1", "1", "1", "1"]}}}}, {"name": "PartitionedCall/model_16/tf.nn.convolution_73/convolution", "op": "Conv2D", "input": ["PartitionedCall/model_16/tf.nn.relu_54/Relu", "50147"], "device": "/device:CPU:0", "attr": {"explicit_paddings": {"list": {}}, "use_cudnn_on_gpu": {"b": true}, "strides": {"list": {"i": ["1", "1", "1", "1"]}}, "data_format": {"s": "TkhXQw=="}, "dilations": {"list": {"i": ["1", "1", "1", "1"]}}, "padding": {"s": "U0FNRQ=="}, "T": {"type": "DT_FLOAT"}}}, {"name": "PartitionedCall/model_16/tf.math.add_78/Add", "op": "AddV2", "input": ["PartitionedCall/model_16/tf.nn.convolution_72/convolution", "50157"], "attr": {"T": {"type": "DT_FLOAT"}}}, {"name": "PartitionedCall/model_16/tf.math.add_79/Add", "op": "AddV2", "input": ["PartitionedCall/model_16/tf.nn.convolution_73/convolution", "50155"], "attr": {"T": {"type": "DT_FLOAT"}}}, {"name": "PartitionedCall/model_16/tf.nn.relu_55/Relu", "op": "Relu", "input": ["PartitionedCall/model_16/tf.math.add_78/Add"], "attr": {"T": {"type": "DT_FLOAT"}}}, {"name": "PartitionedCall/model_16/tf.nn.relu_56/Relu", "op": "Relu", "input": ["PartitionedCall/model_16/tf.math.add_79/Add"], "attr": {"T": {"type": "DT_FLOAT"}}}, {"name": "PartitionedCall/model_16/tf.nn.convolution_74/convolution", "op": "Conv2D", "input": ["PartitionedCall/model_16/tf.nn.relu_55/Relu", "50169"], "device": "/device:CPU:0", "attr": {"dilations": {"list": {"i": ["1", "1", "1", "1"]}}, "T": {"type": "DT_FLOAT"}, "explicit_paddings": {"list": {}}, "padding": {"s": "U0FNRQ=="}, "use_cudnn_on_gpu": {"b": true}, "strides": {"list": {"i": ["1", "1", "1", "1"]}}, "data_format": {"s": "TkhXQw=="}}}, {"name": "PartitionedCall/model_16/tf.nn.convolution_75/convolution", "op": "Conv2D", "input": ["PartitionedCall/model_16/tf.nn.relu_56/Relu", "50167"], "device": "/device:CPU:0", "attr": {"strides": {"list": {"i": ["1", "1", "1", "1"]}}, "padding": {"s": "U0FNRQ=="}, "T": {"type": "DT_FLOAT"}, "dilations": {"list": {"i": ["1", "1", "1", "1"]}}, "data_format": {"s": "TkhXQw=="}, "explicit_paddings": {"list": {}}, "use_cudnn_on_gpu": {"b": true}}}, {"name": "PartitionedCall/model_16/tf.math.add_80/Add", "op": "AddV2", "input": ["PartitionedCall/model_16/tf.nn.convolution_74/convolution", "50179"], "attr": {"T": {"type": "DT_FLOAT"}}}, {"name": "PartitionedCall/model_16/tf.math.add_81/Add", "op": "AddV2", "input": ["PartitionedCall/model_16/tf.nn.convolution_75/convolution", "50181"], "attr": {"T": {"type": "DT_FLOAT"}}}, {"name": "PartitionedCall/model_16/tf.concat_1746/concat", "op": "ConcatV2", "input": ["PartitionedCall/model_16/tf.math.add_80/Add", "PartitionedCall/model_16/tf.math.add_81/Add", "PartitionedCall/model_16/tf.concat_1746/concat/axis"], "attr": {"N": {"i": "2"}, "Tidx": {"type": "DT_INT32"}, "T": {"type": "DT_FLOAT"}}}, {"name": "PartitionedCall/model_16/tf.compat.v1.transpose_3477/transpose", "op": "Transpose", "input": ["PartitionedCall/model_16/tf.concat_1746/concat", "PartitionedCall/model_16/tf.compat.v1.transpose_3477/transpose/perm"], "attr": {"T": {"type": "DT_FLOAT"}, "Tperm": {"type": "DT_INT32"}}}, {"name": "PartitionedCall/model_16/tf.reshape_2/Reshape", "op": "Reshape", "input": ["PartitionedCall/model_16/tf.compat.v1.transpose_3477/transpose", "PartitionedCall/model_16/tf.reshape_2/Reshape/shape"], "attr": {"Tshape": {"type": "DT_INT32"}, "T": {"type": "DT_FLOAT"}}}, {"name": "PartitionedCall/model_16/tf.concat_1747/concat", "op": "ConcatV2", "input": ["PartitionedCall/model_16/tf.reshape/Reshape", "PartitionedCall/model_16/tf.reshape_1/Reshape", "PartitionedCall/model_16/tf.reshape_2/Reshape", "PartitionedCall/model_16/tf.concat_1747/concat/axis"], "attr": {"N": {"i": "3"}, "Tidx": {"type": "DT_INT32"}, "T": {"type": "DT_FLOAT"}}}, {"name": "PartitionedCall/model_16/tf.strided_slice_16/StridedSlice", "op": "StridedSlice", "input": ["PartitionedCall/model_16/tf.concat_1747/concat", "50187", "50189", "PartitionedCall/model_16/tf.strided_slice_16/StridedSlice/strides"], "attr": {"shrink_axis_mask": {"i": "0"}, "ellipsis_mask": {"i": "0"}, "end_mask": {"i": "5"}, "Index": {"type": "DT_INT64"}, "T": {"type": "DT_FLOAT"}, "begin_mask": {"i": "7"}, "new_axis_mask": {"i": "0"}}}, {"name": "PartitionedCall/model_16/tf.strided_slice_17/StridedSlice", "op": "StridedSlice", "input": ["PartitionedCall/model_16/tf.concat_1747/concat", "50207", "50209", "PartitionedCall/model_16/tf.strided_slice_17/StridedSlice/strides"], "attr": {"Index": {"type": "DT_INT64"}, "shrink_axis_mask": {"i": "0"}, "T": {"type": "DT_FLOAT"}, "begin_mask": {"i": "5"}, "end_mask": {"i": "5"}, "ellipsis_mask": {"i": "0"}, "new_axis_mask": {"i": "0"}}}, {"name": "PartitionedCall/model_16/tf.reshape_3/Reshape", "op": "Reshape", "input": ["PartitionedCall/model_16/tf.strided_slice_16/StridedSlice", "PartitionedCall/model_16/tf.reshape_3/Reshape/shape"], "attr": {"T": {"type": "DT_FLOAT"}, "Tshape": {"type": "DT_INT32"}}}, {"name": "PartitionedCall/model_16/tf.math.sigmoid/Sigmoid", "op": "Sigmoid", "input": ["PartitionedCall/model_16/tf.strided_slice_17/StridedSlice"], "attr": {"T": {"type": "DT_FLOAT"}}}, {"name": "PartitionedCall/model_16/tf.compat.v1.transpose_3479/transpose", "op": "Transpose", "input": ["PartitionedCall/model_16/tf.reshape_3/Reshape", "PartitionedCall/model_16/tf.compat.v1.transpose_3479/transpose/perm"], "attr": {"T": {"type": "DT_FLOAT"}, "Tperm": {"type": "DT_INT32"}}}, {"name": "PartitionedCall/model_16/tf.compat.v1.transpose_3480/transpose", "op": "Transpose", "input": ["PartitionedCall/model_16/tf.compat.v1.transpose_3479/transpose", "PartitionedCall/model_16/tf.compat.v1.transpose_3480/transpose/perm"], "attr": {"T": {"type": "DT_FLOAT"}, "Tperm": {"type": "DT_INT32"}}}, {"name": "PartitionedCall/model_16/tf.nn.softmax//model.22/dfl/Softmax", "op": "Softmax", "input": ["PartitionedCall/model_16/tf.compat.v1.transpose_3480/transpose"], "attr": {"T": {"type": "DT_FLOAT"}}}, {"name": "PartitionedCall/model_16/tf.nn.convolution_76/convolution", "op": "Conv2D", "input": ["PartitionedCall/model_16/tf.nn.softmax//model.22/dfl/Softmax", "50191"], "device": "/device:CPU:0", "attr": {"use_cudnn_on_gpu": {"b": true}, "padding": {"s": "U0FNRQ=="}, "explicit_paddings": {"list": {}}, "T": {"type": "DT_FLOAT"}, "data_format": {"s": "TkhXQw=="}, "dilations": {"list": {"i": ["1", "1", "1", "1"]}}, "strides": {"list": {"i": ["1", "1", "1", "1"]}}}}, {"name": "PartitionedCall/model_16/tf.compat.v1.transpose_3483/transpose", "op": "Transpose", "input": ["PartitionedCall/model_16/tf.nn.convolution_76/convolution", "PartitionedCall/model_16/tf.compat.v1.transpose_3483/transpose/perm"], "attr": {"T": {"type": "DT_FLOAT"}, "Tperm": {"type": "DT_INT32"}}}, {"name": "PartitionedCall/model_16/tf.reshape_4/Reshape", "op": "Reshape", "input": ["PartitionedCall/model_16/tf.compat.v1.transpose_3483/transpose", "PartitionedCall/model_16/tf.reshape_4/Reshape/shape"], "attr": {"Tshape": {"type": "DT_INT32"}, "T": {"type": "DT_FLOAT"}}}, {"name": "PartitionedCall/model_16/tf.strided_slice_19/StridedSlice", "op": "StridedSlice", "input": ["PartitionedCall/model_16/tf.reshape_4/Reshape", "50193", "50195", "PartitionedCall/model_16/tf.strided_slice_19/ones_like"], "attr": {"end_mask": {"i": "5"}, "shrink_axis_mask": {"i": "0"}, "T": {"type": "DT_FLOAT"}, "begin_mask": {"i": "5"}, "ellipsis_mask": {"i": "0"}, "new_axis_mask": {"i": "0"}, "Index": {"type": "DT_INT64"}}}, {"name": "PartitionedCall/model_16/tf.strided_slice_18/StridedSlice", "op": "StridedSlice", "input": ["PartitionedCall/model_16/tf.reshape_4/Reshape", "50197", "50199", "PartitionedCall/model_16/tf.strided_slice_18/ones_like"], "attr": {"begin_mask": {"i": "7"}, "T": {"type": "DT_FLOAT"}, "ellipsis_mask": {"i": "0"}, "Index": {"type": "DT_INT64"}, "new_axis_mask": {"i": "0"}, "shrink_axis_mask": {"i": "0"}, "end_mask": {"i": "5"}}}, {"name": "PartitionedCall/model_16/tf.math.add_82/Add", "op": "AddV2", "input": ["50201", "PartitionedCall/model_16/tf.strided_slice_19/StridedSlice"], "attr": {"T": {"type": "DT_FLOAT"}}}, {"name": "PartitionedCall/model_16/tf.math.subtract/Sub", "op": "Sub", "input": ["50203", "PartitionedCall/model_16/tf.strided_slice_18/StridedSlice"], "attr": {"T": {"type": "DT_FLOAT"}}}, {"name": "PartitionedCall/model_16/tf.math.add_83/Add", "op": "AddV2", "input": ["PartitionedCall/model_16/tf.math.subtract/Sub", "PartitionedCall/model_16/tf.math.add_82/Add"], "attr": {"T": {"type": "DT_FLOAT"}}}, {"name": "PartitionedCall/model_16/tf.math.subtract_1/Sub", "op": "Sub", "input": ["PartitionedCall/model_16/tf.math.add_82/Add", "PartitionedCall/model_16/tf.math.subtract/Sub"], "attr": {"T": {"type": "DT_FLOAT"}}}, {"name": "PartitionedCall/model_16/tf.math.divide/truediv", "op": "Mul", "input": ["PartitionedCall/model_16/tf.math.add_83/Add", "ConstantFolding/PartitionedCall/model_16/tf.math.divide/truediv_recip"], "attr": {"T": {"type": "DT_FLOAT"}}}, {"name": "PartitionedCall/model_16/tf.concat_1748/concat", "op": "ConcatV2", "input": ["PartitionedCall/model_16/tf.math.divide/truediv", "PartitionedCall/model_16/tf.math.subtract_1/Sub", "PartitionedCall/model_16/tf.concat_1748/concat/axis"], "attr": {"N": {"i": "2"}, "Tidx": {"type": "DT_INT32"}, "T": {"type": "DT_FLOAT"}}}, {"name": "PartitionedCall/model_16/tf.math.multiply_24/Mul", "op": "Mul", "input": ["PartitionedCall/model_16/tf.concat_1748/concat", "PartitionedCall/model_16/tf.math.multiply_24/Mul/y"], "attr": {"T": {"type": "DT_FLOAT"}}}, {"name": "PartitionedCall/model_16/output0/concat", "op": "ConcatV2", "input": ["PartitionedCall/model_16/tf.math.multiply_24/Mul", "PartitionedCall/model_16/tf.math.sigmoid/Sigmoid", "PartitionedCall/model_16/output0/concat/axis"], "attr": {"T": {"type": "DT_FLOAT"}, "N": {"i": "2"}, "Tidx": {"type": "DT_INT32"}}}, {"name": "Identity", "op": "Identity", "input": ["PartitionedCall/model_16/output0/concat"], "attr": {"T": {"type": "DT_FLOAT"}}}], "library": {}, "versions": {"producer": 1482}}, "weightsManifest": [{"paths": ["group1-shard1of3.bin", "group1-shard2of3.bin", "group1-shard3of3.bin"], "weights": [{"name": "ConstantFolding/PartitionedCall/model_16/tf.math.divide/truediv_recip", "shape": [1, 1, 1], "dtype": "float32"}, {"name": "50201", "shape": [1, 2, 21504], "dtype": "float32"}, {"name": "50193", "shape": [3], "dtype": "int32"}, {"name": "50195", "shape": [3], "dtype": "int32"}, {"name": "PartitionedCall/model_16/tf.strided_slice_19/ones_like", "shape": [3], "dtype": "int32"}, {"name": "50203", "shape": [1, 2, 21504], "dtype": "float32"}, {"name": "50187", "shape": [3], "dtype": "int32"}, {"name": "50189", "shape": [3], "dtype": "int32"}, {"name": "PartitionedCall/model_16/tf.strided_slice_16/StridedSlice/strides", "shape": [3], "dtype": "int32"}, {"name": "PartitionedCall/model_16/tf.reshape_3/Reshape/shape", "shape": [4], "dtype": "int32"}, {"name": "PartitionedCall/model_16/tf.compat.v1.transpose_3479/transpose/perm", "shape": [4], "dtype": "int32"}, {"name": "PartitionedCall/model_16/tf.compat.v1.transpose_3480/transpose/perm", "shape": [4], "dtype": "int32"}, {"name": "50191", "shape": [1, 1, 16, 1], "dtype": "float32"}, {"name": "PartitionedCall/model_16/tf.compat.v1.transpose_3483/transpose/perm", "shape": [4], "dtype": "int32"}, {"name": "PartitionedCall/model_16/tf.reshape_4/Reshape/shape", "shape": [3], "dtype": "int32"}, {"name": "50197", "shape": [3], "dtype": "int32"}, {"name": "50199", "shape": [3], "dtype": "int32"}, {"name": "PartitionedCall/model_16/tf.strided_slice_18/ones_like", "shape": [3], "dtype": "int32"}, {"name": "PartitionedCall/model_16/tf.concat_1748/concat/axis", "shape": [], "dtype": "int32"}, {"name": "PartitionedCall/model_16/tf.math.multiply_24/Mul/y", "shape": [1, 1, 21504], "dtype": "float32"}, {"name": "50129", "shape": [3, 3, 64, 64], "dtype": "float32"}, {"name": "50141", "shape": [64], "dtype": "float32"}, {"name": "50153", "shape": [3, 3, 64, 64], "dtype": "float32"}, {"name": "50161", "shape": [64], "dtype": "float32"}, {"name": "50177", "shape": [1, 1, 64, 64], "dtype": "float32"}, {"name": "50183", "shape": [64], "dtype": "float32"}, {"name": "50127", "shape": [3, 3, 64, 64], "dtype": "float32"}, {"name": "50139", "shape": [64], "dtype": "float32"}, {"name": "50151", "shape": [3, 3, 64, 64], "dtype": "float32"}, {"name": "50159", "shape": [64], "dtype": "float32"}, {"name": "50175", "shape": [1, 1, 64, 2], "dtype": "float32"}, {"name": "50185", "shape": [2], "dtype": "float32"}, {"name": "PartitionedCall/model_16/tf.concat_1164/concat/axis", "shape": [], "dtype": "int32"}, {"name": "PartitionedCall/model_16/tf.compat.v1.transpose_2316/transpose/perm", "shape": [4], "dtype": "int32"}, {"name": "PartitionedCall/model_16/tf.reshape/Reshape/shape", "shape": [3], "dtype": "int32"}, {"name": "50115", "shape": [3, 3, 128, 64], "dtype": "float32"}, {"name": "50121", "shape": [64], "dtype": "float32"}, {"name": "50137", "shape": [3, 3, 64, 64], "dtype": "float32"}, {"name": "50145", "shape": [64], "dtype": "float32"}, {"name": "50165", "shape": [1, 1, 64, 64], "dtype": "float32"}, {"name": "50173", "shape": [64], "dtype": "float32"}, {"name": "50113", "shape": [3, 3, 128, 64], "dtype": "float32"}, {"name": "50119", "shape": [64], "dtype": "float32"}, {"name": "50135", "shape": [3, 3, 64, 64], "dtype": "float32"}, {"name": "50143", "shape": [64], "dtype": "float32"}, {"name": "50163", "shape": [1, 1, 64, 2], "dtype": "float32"}, {"name": "50171", "shape": [2], "dtype": "float32"}, {"name": "PartitionedCall/model_16/tf.concat_1744/concat/axis", "shape": [], "dtype": "int32"}, {"name": "PartitionedCall/model_16/tf.compat.v1.transpose_3476/transpose/perm", "shape": [4], "dtype": "int32"}, {"name": "PartitionedCall/model_16/tf.reshape_1/Reshape/shape", "shape": [3], "dtype": "int32"}, {"name": "50125", "shape": [3, 3, 256, 64], "dtype": "float32"}, {"name": "50133", "shape": [64], "dtype": "float32"}, {"name": "50149", "shape": [3, 3, 64, 64], "dtype": "float32"}, {"name": "50157", "shape": [64], "dtype": "float32"}, {"name": "50169", "shape": [1, 1, 64, 64], "dtype": "float32"}, {"name": "50179", "shape": [64], "dtype": "float32"}, {"name": "50107", "shape": [4], "dtype": "int32"}, {"name": "50109", "shape": [4], "dtype": "int32"}, {"name": "PartitionedCall/model_16/tf.strided_slice_14/ones_like", "shape": [4], "dtype": "int32"}, {"name": "50077", "shape": [4], "dtype": "int32"}, {"name": "50079", "shape": [4], "dtype": "int32"}, {"name": "PartitionedCall/model_16/tf.strided_slice_12/ones_like", "shape": [4], "dtype": "int32"}, {"name": "50047", "shape": [4], "dtype": "int32"}, {"name": "50049", "shape": [4], "dtype": "int32"}, {"name": "PartitionedCall/model_16/tf.strided_slice_10/ones_like", "shape": [4], "dtype": "int32"}, {"name": "PartitionedCall/model_16/lambda_1//model.13/Resize/size", "shape": [2], "dtype": "int32"}, {"name": "PartitionedCall/model_16/tf.concat_584/concat/axis", "shape": [], "dtype": "int32"}, {"name": "50031", "shape": [1, 1, 192, 64], "dtype": "float32"}, {"name": "50033", "shape": [64], "dtype": "float32"}, {"name": "50035", "shape": [4], "dtype": "int32"}, {"name": "50037", "shape": [4], "dtype": "int32"}, {"name": "PartitionedCall/model_16/tf.strided_slice_11/ones_like", "shape": [4], "dtype": "int32"}, {"name": "50039", "shape": [3, 3, 32, 32], "dtype": "float32"}, {"name": "50041", "shape": [32], "dtype": "float32"}, {"name": "50043", "shape": [3, 3, 32, 32], "dtype": "float32"}, {"name": "50045", "shape": [32], "dtype": "float32"}, {"name": "PartitionedCall/model_16/tf.concat_585/concat/axis", "shape": [], "dtype": "int32"}, {"name": "50051", "shape": [1, 1, 96, 64], "dtype": "float32"}, {"name": "50053", "shape": [64], "dtype": "float32"}, {"name": "50055", "shape": [4, 2], "dtype": "int32"}, {"name": "50057", "shape": [3, 3, 64, 64], "dtype": "float32"}, {"name": "50059", "shape": [64], "dtype": "float32"}, {"name": "50023", "shape": [4], "dtype": "int32"}, {"name": "50025", "shape": [4], "dtype": "int32"}, {"name": "PartitionedCall/model_16/tf.strided_slice_8/ones_like", "shape": [4], "dtype": "int32"}, {"name": "PartitionedCall/model_16/lambda//model.10/Resize/size", "shape": [2], "dtype": "int32"}, {"name": "PartitionedCall/model_16/tf.concat_5/concat/axis", "shape": [], "dtype": "int32"}, {"name": "50007", "shape": [1, 1, 384, 128], "dtype": "float32"}, {"name": "50009", "shape": [128], "dtype": "float32"}, {"name": "50011", "shape": [4], "dtype": "int32"}, {"name": "50013", "shape": [4], "dtype": "int32"}, {"name": "PartitionedCall/model_16/tf.strided_slice_9/ones_like", "shape": [4], "dtype": "int32"}, {"name": "50015", "shape": [3, 3, 64, 64], "dtype": "float32"}, {"name": "50017", "shape": [64], "dtype": "float32"}, {"name": "50019", "shape": [3, 3, 64, 64], "dtype": "float32"}, {"name": "50021", "shape": [64], "dtype": "float32"}, {"name": "PartitionedCall/model_16/tf.concat_6/concat/axis", "shape": [], "dtype": "int32"}, {"name": "50027", "shape": [1, 1, 192, 128], "dtype": "float32"}, {"name": "50029", "shape": [128], "dtype": "float32"}, {"name": "PartitionedCall/model_16/tf.concat_1163/concat/axis", "shape": [], "dtype": "int32"}, {"name": "50061", "shape": [1, 1, 192, 128], "dtype": "float32"}, {"name": "50063", "shape": [128], "dtype": "float32"}, {"name": "50065", "shape": [4], "dtype": "int32"}, {"name": "50067", "shape": [4], "dtype": "int32"}, {"name": "PartitionedCall/model_16/tf.strided_slice_13/ones_like", "shape": [4], "dtype": "int32"}, {"name": "50069", "shape": [3, 3, 64, 64], "dtype": "float32"}, {"name": "50071", "shape": [64], "dtype": "float32"}, {"name": "50073", "shape": [3, 3, 64, 64], "dtype": "float32"}, {"name": "50075", "shape": [64], "dtype": "float32"}, {"name": "PartitionedCall/model_16/tf.concat_1165/concat/axis", "shape": [], "dtype": "int32"}, {"name": "50081", "shape": [1, 1, 192, 128], "dtype": "float32"}, {"name": "50083", "shape": [128], "dtype": "float32"}, {"name": "50085", "shape": [4, 2], "dtype": "int32"}, {"name": "50087", "shape": [3, 3, 128, 128], "dtype": "float32"}, {"name": "50089", "shape": [128], "dtype": "float32"}, {"name": "49991", "shape": [4], "dtype": "int32"}, {"name": "49993", "shape": [4], "dtype": "int32"}, {"name": "PartitionedCall/model_16/tf.strided_slice_6/ones_like", "shape": [4], "dtype": "int32"}, {"name": "49961", "shape": [4], "dtype": "int32"}, {"name": "49963", "shape": [4], "dtype": "int32"}, {"name": "PartitionedCall/model_16/tf.strided_slice_4/ones_like", "shape": [4], "dtype": "int32"}, {"name": "49923", "shape": [4], "dtype": "int32"}, {"name": "49925", "shape": [4], "dtype": "int32"}, {"name": "PartitionedCall/model_16/tf.strided_slice_2/ones_like", "shape": [4], "dtype": "int32"}, {"name": "49885", "shape": [4], "dtype": "int32"}, {"name": "49887", "shape": [4], "dtype": "int32"}, {"name": "PartitionedCall/model_16/tf.strided_slice/ones_like", "shape": [4], "dtype": "int32"}, {"name": "49857", "shape": [4, 2], "dtype": "int32"}, {"name": "49859", "shape": [3, 3, 3, 16], "dtype": "float32"}, {"name": "49861", "shape": [16], "dtype": "float32"}, {"name": "49863", "shape": [4, 2], "dtype": "int32"}, {"name": "49865", "shape": [3, 3, 16, 32], "dtype": "float32"}, {"name": "49867", "shape": [32], "dtype": "float32"}, {"name": "49869", "shape": [1, 1, 32, 32], "dtype": "float32"}, {"name": "49871", "shape": [32], "dtype": "float32"}, {"name": "49873", "shape": [4], "dtype": "int32"}, {"name": "49875", "shape": [4], "dtype": "int32"}, {"name": "PartitionedCall/model_16/tf.strided_slice_1/ones_like", "shape": [4], "dtype": "int32"}, {"name": "49877", "shape": [3, 3, 16, 16], "dtype": "float32"}, {"name": "49879", "shape": [16], "dtype": "float32"}, {"name": "49881", "shape": [3, 3, 16, 16], "dtype": "float32"}, {"name": "49883", "shape": [16], "dtype": "float32"}, {"name": "PartitionedCall/model_16/tf.concat/concat/axis", "shape": [], "dtype": "int32"}, {"name": "49889", "shape": [1, 1, 48, 32], "dtype": "float32"}, {"name": "49891", "shape": [32], "dtype": "float32"}, {"name": "49893", "shape": [4, 2], "dtype": "int32"}, {"name": "49895", "shape": [3, 3, 32, 64], "dtype": "float32"}, {"name": "49897", "shape": [64], "dtype": "float32"}, {"name": "49899", "shape": [1, 1, 64, 64], "dtype": "float32"}, {"name": "49901", "shape": [64], "dtype": "float32"}, {"name": "49903", "shape": [4], "dtype": "int32"}, {"name": "49905", "shape": [4], "dtype": "int32"}, {"name": "PartitionedCall/model_16/tf.strided_slice_3/ones_like", "shape": [4], "dtype": "int32"}, {"name": "49907", "shape": [3, 3, 32, 32], "dtype": "float32"}, {"name": "49909", "shape": [32], "dtype": "float32"}, {"name": "49911", "shape": [3, 3, 32, 32], "dtype": "float32"}, {"name": "49913", "shape": [32], "dtype": "float32"}, {"name": "49915", "shape": [3, 3, 32, 32], "dtype": "float32"}, {"name": "49917", "shape": [32], "dtype": "float32"}, {"name": "49919", "shape": [3, 3, 32, 32], "dtype": "float32"}, {"name": "49921", "shape": [32], "dtype": "float32"}, {"name": "PartitionedCall/model_16/tf.concat_1/concat/axis", "shape": [], "dtype": "int32"}, {"name": "49927", "shape": [1, 1, 128, 64], "dtype": "float32"}, {"name": "49929", "shape": [64], "dtype": "float32"}, {"name": "49931", "shape": [4, 2], "dtype": "int32"}, {"name": "49933", "shape": [3, 3, 64, 128], "dtype": "float32"}, {"name": "49935", "shape": [128], "dtype": "float32"}, {"name": "49937", "shape": [1, 1, 128, 128], "dtype": "float32"}, {"name": "49939", "shape": [128], "dtype": "float32"}, {"name": "49941", "shape": [4], "dtype": "int32"}, {"name": "49943", "shape": [4], "dtype": "int32"}, {"name": "PartitionedCall/model_16/tf.strided_slice_5/ones_like", "shape": [4], "dtype": "int32"}, {"name": "49945", "shape": [3, 3, 64, 64], "dtype": "float32"}, {"name": "49947", "shape": [64], "dtype": "float32"}, {"name": "49949", "shape": [3, 3, 64, 64], "dtype": "float32"}, {"name": "49951", "shape": [64], "dtype": "float32"}, {"name": "49953", "shape": [3, 3, 64, 64], "dtype": "float32"}, {"name": "49955", "shape": [64], "dtype": "float32"}, {"name": "49957", "shape": [3, 3, 64, 64], "dtype": "float32"}, {"name": "49959", "shape": [64], "dtype": "float32"}, {"name": "PartitionedCall/model_16/tf.concat_2/concat/axis", "shape": [], "dtype": "int32"}, {"name": "49965", "shape": [1, 1, 256, 128], "dtype": "float32"}, {"name": "49967", "shape": [128], "dtype": "float32"}, {"name": "49969", "shape": [4, 2], "dtype": "int32"}, {"name": "49971", "shape": [3, 3, 128, 256], "dtype": "float32"}, {"name": "49973", "shape": [256], "dtype": "float32"}, {"name": "49975", "shape": [1, 1, 256, 256], "dtype": "float32"}, {"name": "49977", "shape": [256], "dtype": "float32"}, {"name": "49979", "shape": [4], "dtype": "int32"}, {"name": "49981", "shape": [4], "dtype": "int32"}, {"name": "PartitionedCall/model_16/tf.strided_slice_7/ones_like", "shape": [4], "dtype": "int32"}, {"name": "49983", "shape": [3, 3, 128, 128], "dtype": "float32"}, {"name": "49985", "shape": [128], "dtype": "float32"}, {"name": "49987", "shape": [3, 3, 128, 128], "dtype": "float32"}, {"name": "49989", "shape": [128], "dtype": "float32"}, {"name": "PartitionedCall/model_16/tf.concat_3/concat/axis", "shape": [], "dtype": "int32"}, {"name": "49995", "shape": [1, 1, 384, 256], "dtype": "float32"}, {"name": "49997", "shape": [256], "dtype": "float32"}, {"name": "49999", "shape": [1, 1, 256, 128], "dtype": "float32"}, {"name": "50001", "shape": [128], "dtype": "float32"}, {"name": "PartitionedCall/model_16/tf.concat_4/concat/axis", "shape": [], "dtype": "int32"}, {"name": "50003", "shape": [1, 1, 512, 256], "dtype": "float32"}, {"name": "50005", "shape": [256], "dtype": "float32"}, {"name": "PartitionedCall/model_16/tf.concat_1166/concat/axis", "shape": [], "dtype": "int32"}, {"name": "50091", "shape": [1, 1, 384, 256], "dtype": "float32"}, {"name": "50093", "shape": [256], "dtype": "float32"}, {"name": "50095", "shape": [4], "dtype": "int32"}, {"name": "50097", "shape": [4], "dtype": "int32"}, {"name": "PartitionedCall/model_16/tf.strided_slice_15/ones_like", "shape": [4], "dtype": "int32"}, {"name": "50099", "shape": [3, 3, 128, 128], "dtype": "float32"}, {"name": "50101", "shape": [128], "dtype": "float32"}, {"name": "50103", "shape": [3, 3, 128, 128], "dtype": "float32"}, {"name": "50105", "shape": [128], "dtype": "float32"}, {"name": "PartitionedCall/model_16/tf.concat_1745/concat/axis", "shape": [], "dtype": "int32"}, {"name": "50111", "shape": [1, 1, 384, 256], "dtype": "float32"}, {"name": "50117", "shape": [256], "dtype": "float32"}, {"name": "50123", "shape": [3, 3, 256, 64], "dtype": "float32"}, {"name": "50131", "shape": [64], "dtype": "float32"}, {"name": "50147", "shape": [3, 3, 64, 64], "dtype": "float32"}, {"name": "50155", "shape": [64], "dtype": "float32"}, {"name": "50167", "shape": [1, 1, 64, 2], "dtype": "float32"}, {"name": "50181", "shape": [2], "dtype": "float32"}, {"name": "PartitionedCall/model_16/tf.concat_1746/concat/axis", "shape": [], "dtype": "int32"}, {"name": "PartitionedCall/model_16/tf.compat.v1.transpose_3477/transpose/perm", "shape": [4], "dtype": "int32"}, {"name": "PartitionedCall/model_16/tf.reshape_2/Reshape/shape", "shape": [3], "dtype": "int32"}, {"name": "PartitionedCall/model_16/tf.concat_1747/concat/axis", "shape": [], "dtype": "int32"}, {"name": "50207", "shape": [3], "dtype": "int32"}, {"name": "50209", "shape": [3], "dtype": "int32"}, {"name": "PartitionedCall/model_16/tf.strided_slice_17/StridedSlice/strides", "shape": [3], "dtype": "int32"}, {"name": "PartitionedCall/model_16/output0/concat/axis", "shape": [], "dtype": "int32"}]}]}