{"format": "graph-model", "generatedBy": "2.13.1", "convertedBy": "TensorFlow.js Converter v3.9.0", "signature": {"outputs": {"Identity:0": {"name": "Identity:0"}}}, "modelTopology": {"node": [{"name": "ConstantFolding/PartitionedCall/model/tf.math.divide/truediv_recip", "op": "Const", "attr": {"dtype": {"type": "DT_FLOAT"}, "value": {"tensor": {"dtype": "DT_FLOAT", "tensorShape": {"dim": [{"size": "1"}, {"size": "1"}, {"size": "1"}]}}}}}, {"name": "6782", "op": "Const", "attr": {"value": {"tensor": {"dtype": "DT_FLOAT", "tensorShape": {"dim": [{"size": "1"}, {"size": "2"}, {"size": "3024"}]}}}, "dtype": {"type": "DT_FLOAT"}}}, {"name": "6774", "op": "Const", "attr": {"value": {"tensor": {"dtype": "DT_INT64", "tensorShape": {"dim": [{"size": "3"}]}}}, "dtype": {"type": "DT_INT64"}}}, {"name": "6776", "op": "Const", "attr": {"dtype": {"type": "DT_INT64"}, "value": {"tensor": {"dtype": "DT_INT64", "tensorShape": {"dim": [{"size": "3"}]}}}}}, {"name": "PartitionedCall/model/tf.strided_slice_19/ones_like", "op": "Const", "attr": {"dtype": {"type": "DT_INT64"}, "value": {"tensor": {"dtype": "DT_INT64", "tensorShape": {"dim": [{"size": "3"}]}}}}}, {"name": "6784", "op": "Const", "attr": {"dtype": {"type": "DT_FLOAT"}, "value": {"tensor": {"dtype": "DT_FLOAT", "tensorShape": {"dim": [{"size": "1"}, {"size": "2"}, {"size": "3024"}]}}}}}, {"name": "6768", "op": "Const", "attr": {"value": {"tensor": {"dtype": "DT_INT64", "tensorShape": {"dim": [{"size": "3"}]}}}, "dtype": {"type": "DT_INT64"}}}, {"name": "6770", "op": "Const", "attr": {"value": {"tensor": {"dtype": "DT_INT64", "tensorShape": {"dim": [{"size": "3"}]}}}, "dtype": {"type": "DT_INT64"}}}, {"name": "PartitionedCall/model/tf.strided_slice_16/StridedSlice/strides", "op": "Const", "attr": {"value": {"tensor": {"dtype": "DT_INT64", "tensorShape": {"dim": [{"size": "3"}]}}}, "dtype": {"type": "DT_INT64"}}}, {"name": "PartitionedCall/model/tf.reshape_3/Reshape/shape", "op": "Const", "attr": {"dtype": {"type": "DT_INT32"}, "value": {"tensor": {"dtype": "DT_INT32", "tensorShape": {"dim": [{"size": "4"}]}}}}}, {"name": "PartitionedCall/model/tf.compat.v1.transpose_4/transpose/perm", "op": "Const", "attr": {"dtype": {"type": "DT_INT32"}, "value": {"tensor": {"dtype": "DT_INT32", "tensorShape": {"dim": [{"size": "4"}]}}}}}, {"name": "PartitionedCall/model/tf.compat.v1.transpose_5/transpose/perm", "op": "Const", "attr": {"value": {"tensor": {"dtype": "DT_INT32", "tensorShape": {"dim": [{"size": "4"}]}}}, "dtype": {"type": "DT_INT32"}}}, {"name": "6772", "op": "Const", "attr": {"value": {"tensor": {"dtype": "DT_FLOAT", "tensorShape": {"dim": [{"size": "1"}, {"size": "1"}, {"size": "16"}, {"size": "1"}]}}}, "dtype": {"type": "DT_FLOAT"}}}, {"name": "PartitionedCall/model/tf.compat.v1.transpose_8/transpose/perm", "op": "Const", "attr": {"dtype": {"type": "DT_INT32"}, "value": {"tensor": {"dtype": "DT_INT32", "tensorShape": {"dim": [{"size": "4"}]}}}}}, {"name": "PartitionedCall/model/tf.reshape_4/Reshape/shape", "op": "Const", "attr": {"value": {"tensor": {"dtype": "DT_INT32", "tensorShape": {"dim": [{"size": "3"}]}}}, "dtype": {"type": "DT_INT32"}}}, {"name": "6778", "op": "Const", "attr": {"value": {"tensor": {"dtype": "DT_INT64", "tensorShape": {"dim": [{"size": "3"}]}}}, "dtype": {"type": "DT_INT64"}}}, {"name": "6780", "op": "Const", "attr": {"value": {"tensor": {"dtype": "DT_INT64", "tensorShape": {"dim": [{"size": "3"}]}}}, "dtype": {"type": "DT_INT64"}}}, {"name": "PartitionedCall/model/tf.strided_slice_18/ones_like", "op": "Const", "attr": {"dtype": {"type": "DT_INT64"}, "value": {"tensor": {"dtype": "DT_INT64", "tensorShape": {"dim": [{"size": "3"}]}}}}}, {"name": "PartitionedCall/model/tf.concat_17/concat/axis", "op": "Const", "attr": {"value": {"tensor": {"dtype": "DT_INT32", "tensorShape": {}}}, "dtype": {"type": "DT_INT32"}}}, {"name": "PartitionedCall/model/tf.math.multiply_24/Mul/y", "op": "Const", "attr": {"dtype": {"type": "DT_FLOAT"}, "value": {"tensor": {"dtype": "DT_FLOAT", "tensorShape": {"dim": [{"size": "1"}, {"size": "1"}, {"size": "3024"}]}}}}}, {"name": "6706", "op": "Const", "attr": {"value": {"tensor": {"dtype": "DT_FLOAT", "tensorShape": {"dim": [{"size": "3"}, {"size": "3"}, {"size": "64"}, {"size": "64"}]}}}, "dtype": {"type": "DT_FLOAT"}}}, {"name": "6718", "op": "Const", "attr": {"value": {"tensor": {"dtype": "DT_FLOAT", "tensorShape": {"dim": [{"size": "64"}]}}}, "dtype": {"type": "DT_FLOAT"}}}, {"name": "6730", "op": "Const", "attr": {"value": {"tensor": {"dtype": "DT_FLOAT", "tensorShape": {"dim": [{"size": "3"}, {"size": "3"}, {"size": "64"}, {"size": "64"}]}}}, "dtype": {"type": "DT_FLOAT"}}}, {"name": "6742", "op": "Const", "attr": {"value": {"tensor": {"dtype": "DT_FLOAT", "tensorShape": {"dim": [{"size": "64"}]}}}, "dtype": {"type": "DT_FLOAT"}}}, {"name": "6754", "op": "Const", "attr": {"dtype": {"type": "DT_FLOAT"}, "value": {"tensor": {"dtype": "DT_FLOAT", "tensorShape": {"dim": [{"size": "1"}, {"size": "1"}, {"size": "64"}, {"size": "64"}]}}}}}, {"name": "6764", "op": "Const", "attr": {"value": {"tensor": {"dtype": "DT_FLOAT", "tensorShape": {"dim": [{"size": "64"}]}}}, "dtype": {"type": "DT_FLOAT"}}}, {"name": "6704", "op": "Const", "attr": {"value": {"tensor": {"dtype": "DT_FLOAT", "tensorShape": {"dim": [{"size": "3"}, {"size": "3"}, {"size": "64"}, {"size": "64"}]}}}, "dtype": {"type": "DT_FLOAT"}}}, {"name": "6716", "op": "Const", "attr": {"value": {"tensor": {"dtype": "DT_FLOAT", "tensorShape": {"dim": [{"size": "64"}]}}}, "dtype": {"type": "DT_FLOAT"}}}, {"name": "6728", "op": "Const", "attr": {"value": {"tensor": {"dtype": "DT_FLOAT", "tensorShape": {"dim": [{"size": "3"}, {"size": "3"}, {"size": "64"}, {"size": "64"}]}}}, "dtype": {"type": "DT_FLOAT"}}}, {"name": "6740", "op": "Const", "attr": {"value": {"tensor": {"dtype": "DT_FLOAT", "tensorShape": {"dim": [{"size": "64"}]}}}, "dtype": {"type": "DT_FLOAT"}}}, {"name": "6752", "op": "Const", "attr": {"value": {"tensor": {"dtype": "DT_FLOAT", "tensorShape": {"dim": [{"size": "1"}, {"size": "1"}, {"size": "64"}, {"size": "2"}]}}}, "dtype": {"type": "DT_FLOAT"}}}, {"name": "6766", "op": "Const", "attr": {"value": {"tensor": {"dtype": "DT_FLOAT", "tensorShape": {"dim": [{"size": "2"}]}}}, "dtype": {"type": "DT_FLOAT"}}}, {"name": "PartitionedCall/model/tf.concat_10/concat/axis", "op": "Const", "attr": {"value": {"tensor": {"dtype": "DT_INT32", "tensorShape": {}}}, "dtype": {"type": "DT_INT32"}}}, {"name": "PartitionedCall/model/tf.compat.v1.transpose/transpose/perm", "op": "Const", "attr": {"value": {"tensor": {"dtype": "DT_INT32", "tensorShape": {"dim": [{"size": "4"}]}}}, "dtype": {"type": "DT_INT32"}}}, {"name": "PartitionedCall/model/tf.reshape/Reshape/shape", "op": "Const", "attr": {"value": {"tensor": {"dtype": "DT_INT32", "tensorShape": {"dim": [{"size": "3"}]}}}, "dtype": {"type": "DT_INT32"}}}, {"name": "6702", "op": "Const", "attr": {"dtype": {"type": "DT_FLOAT"}, "value": {"tensor": {"dtype": "DT_FLOAT", "tensorShape": {"dim": [{"size": "3"}, {"size": "3"}, {"size": "128"}, {"size": "64"}]}}}}}, {"name": "6714", "op": "Const", "attr": {"value": {"tensor": {"dtype": "DT_FLOAT", "tensorShape": {"dim": [{"size": "64"}]}}}, "dtype": {"type": "DT_FLOAT"}}}, {"name": "6726", "op": "Const", "attr": {"value": {"tensor": {"dtype": "DT_FLOAT", "tensorShape": {"dim": [{"size": "3"}, {"size": "3"}, {"size": "64"}, {"size": "64"}]}}}, "dtype": {"type": "DT_FLOAT"}}}, {"name": "6738", "op": "Const", "attr": {"value": {"tensor": {"dtype": "DT_FLOAT", "tensorShape": {"dim": [{"size": "64"}]}}}, "dtype": {"type": "DT_FLOAT"}}}, {"name": "6750", "op": "Const", "attr": {"dtype": {"type": "DT_FLOAT"}, "value": {"tensor": {"dtype": "DT_FLOAT", "tensorShape": {"dim": [{"size": "1"}, {"size": "1"}, {"size": "64"}, {"size": "64"}]}}}}}, {"name": "6760", "op": "Const", "attr": {"dtype": {"type": "DT_FLOAT"}, "value": {"tensor": {"dtype": "DT_FLOAT", "tensorShape": {"dim": [{"size": "64"}]}}}}}, {"name": "6700", "op": "Const", "attr": {"value": {"tensor": {"dtype": "DT_FLOAT", "tensorShape": {"dim": [{"size": "3"}, {"size": "3"}, {"size": "128"}, {"size": "64"}]}}}, "dtype": {"type": "DT_FLOAT"}}}, {"name": "6712", "op": "Const", "attr": {"value": {"tensor": {"dtype": "DT_FLOAT", "tensorShape": {"dim": [{"size": "64"}]}}}, "dtype": {"type": "DT_FLOAT"}}}, {"name": "6724", "op": "Const", "attr": {"dtype": {"type": "DT_FLOAT"}, "value": {"tensor": {"dtype": "DT_FLOAT", "tensorShape": {"dim": [{"size": "3"}, {"size": "3"}, {"size": "64"}, {"size": "64"}]}}}}}, {"name": "6736", "op": "Const", "attr": {"dtype": {"type": "DT_FLOAT"}, "value": {"tensor": {"dtype": "DT_FLOAT", "tensorShape": {"dim": [{"size": "64"}]}}}}}, {"name": "6748", "op": "Const", "attr": {"dtype": {"type": "DT_FLOAT"}, "value": {"tensor": {"dtype": "DT_FLOAT", "tensorShape": {"dim": [{"size": "1"}, {"size": "1"}, {"size": "64"}, {"size": "2"}]}}}}}, {"name": "6762", "op": "Const", "attr": {"value": {"tensor": {"dtype": "DT_FLOAT", "tensorShape": {"dim": [{"size": "2"}]}}}, "dtype": {"type": "DT_FLOAT"}}}, {"name": "PartitionedCall/model/tf.concat_13/concat/axis", "op": "Const", "attr": {"value": {"tensor": {"dtype": "DT_INT32", "tensorShape": {}}}, "dtype": {"type": "DT_INT32"}}}, {"name": "PartitionedCall/model/tf.compat.v1.transpose_1/transpose/perm", "op": "Const", "attr": {"dtype": {"type": "DT_INT32"}, "value": {"tensor": {"dtype": "DT_INT32", "tensorShape": {"dim": [{"size": "4"}]}}}}}, {"name": "PartitionedCall/model/tf.reshape_1/Reshape/shape", "op": "Const", "attr": {"dtype": {"type": "DT_INT32"}, "value": {"tensor": {"dtype": "DT_INT32", "tensorShape": {"dim": [{"size": "3"}]}}}}}, {"name": "6698", "op": "Const", "attr": {"dtype": {"type": "DT_FLOAT"}, "value": {"tensor": {"dtype": "DT_FLOAT", "tensorShape": {"dim": [{"size": "3"}, {"size": "3"}, {"size": "256"}, {"size": "64"}]}}}}}, {"name": "6710", "op": "Const", "attr": {"value": {"tensor": {"dtype": "DT_FLOAT", "tensorShape": {"dim": [{"size": "64"}]}}}, "dtype": {"type": "DT_FLOAT"}}}, {"name": "6722", "op": "Const", "attr": {"dtype": {"type": "DT_FLOAT"}, "value": {"tensor": {"dtype": "DT_FLOAT", "tensorShape": {"dim": [{"size": "3"}, {"size": "3"}, {"size": "64"}, {"size": "64"}]}}}}}, {"name": "6734", "op": "Const", "attr": {"value": {"tensor": {"dtype": "DT_FLOAT", "tensorShape": {"dim": [{"size": "64"}]}}}, "dtype": {"type": "DT_FLOAT"}}}, {"name": "6746", "op": "Const", "attr": {"dtype": {"type": "DT_FLOAT"}, "value": {"tensor": {"dtype": "DT_FLOAT", "tensorShape": {"dim": [{"size": "1"}, {"size": "1"}, {"size": "64"}, {"size": "64"}]}}}}}, {"name": "6756", "op": "Const", "attr": {"value": {"tensor": {"dtype": "DT_FLOAT", "tensorShape": {"dim": [{"size": "64"}]}}}, "dtype": {"type": "DT_FLOAT"}}}, {"name": "6688", "op": "Const", "attr": {"value": {"tensor": {"dtype": "DT_INT64", "tensorShape": {"dim": [{"size": "4"}]}}}, "dtype": {"type": "DT_INT64"}}}, {"name": "6690", "op": "Const", "attr": {"value": {"tensor": {"dtype": "DT_INT64", "tensorShape": {"dim": [{"size": "4"}]}}}, "dtype": {"type": "DT_INT64"}}}, {"name": "PartitionedCall/model/tf.strided_slice_14/ones_like", "op": "Const", "attr": {"value": {"tensor": {"dtype": "DT_INT64", "tensorShape": {"dim": [{"size": "4"}]}}}, "dtype": {"type": "DT_INT64"}}}, {"name": "6658", "op": "Const", "attr": {"value": {"tensor": {"dtype": "DT_INT64", "tensorShape": {"dim": [{"size": "4"}]}}}, "dtype": {"type": "DT_INT64"}}}, {"name": "6660", "op": "Const", "attr": {"value": {"tensor": {"dtype": "DT_INT64", "tensorShape": {"dim": [{"size": "4"}]}}}, "dtype": {"type": "DT_INT64"}}}, {"name": "PartitionedCall/model/tf.strided_slice_12/ones_like", "op": "Const", "attr": {"value": {"tensor": {"dtype": "DT_INT64", "tensorShape": {"dim": [{"size": "4"}]}}}, "dtype": {"type": "DT_INT64"}}}, {"name": "6628", "op": "Const", "attr": {"dtype": {"type": "DT_INT64"}, "value": {"tensor": {"dtype": "DT_INT64", "tensorShape": {"dim": [{"size": "4"}]}}}}}, {"name": "6630", "op": "Const", "attr": {"dtype": {"type": "DT_INT64"}, "value": {"tensor": {"dtype": "DT_INT64", "tensorShape": {"dim": [{"size": "4"}]}}}}}, {"name": "PartitionedCall/model/tf.strided_slice_10/ones_like", "op": "Const", "attr": {"value": {"tensor": {"dtype": "DT_INT64", "tensorShape": {"dim": [{"size": "4"}]}}}, "dtype": {"type": "DT_INT64"}}}, {"name": "PartitionedCall/model/lambda_1//model.13/Resize/size", "op": "Const", "attr": {"value": {"tensor": {"dtype": "DT_INT32", "tensorShape": {"dim": [{"size": "2"}]}}}, "dtype": {"type": "DT_INT32"}}}, {"name": "PartitionedCall/model/tf.concat_7/concat/axis", "op": "Const", "attr": {"value": {"tensor": {"dtype": "DT_INT32", "tensorShape": {}}}, "dtype": {"type": "DT_INT32"}}}, {"name": "6612", "op": "Const", "attr": {"dtype": {"type": "DT_FLOAT"}, "value": {"tensor": {"dtype": "DT_FLOAT", "tensorShape": {"dim": [{"size": "1"}, {"size": "1"}, {"size": "192"}, {"size": "64"}]}}}}}, {"name": "6614", "op": "Const", "attr": {"value": {"tensor": {"dtype": "DT_FLOAT", "tensorShape": {"dim": [{"size": "64"}]}}}, "dtype": {"type": "DT_FLOAT"}}}, {"name": "6616", "op": "Const", "attr": {"dtype": {"type": "DT_INT64"}, "value": {"tensor": {"dtype": "DT_INT64", "tensorShape": {"dim": [{"size": "4"}]}}}}}, {"name": "6618", "op": "Const", "attr": {"value": {"tensor": {"dtype": "DT_INT64", "tensorShape": {"dim": [{"size": "4"}]}}}, "dtype": {"type": "DT_INT64"}}}, {"name": "PartitionedCall/model/tf.strided_slice_11/ones_like", "op": "Const", "attr": {"dtype": {"type": "DT_INT64"}, "value": {"tensor": {"dtype": "DT_INT64", "tensorShape": {"dim": [{"size": "4"}]}}}}}, {"name": "6620", "op": "Const", "attr": {"dtype": {"type": "DT_FLOAT"}, "value": {"tensor": {"dtype": "DT_FLOAT", "tensorShape": {"dim": [{"size": "3"}, {"size": "3"}, {"size": "32"}, {"size": "32"}]}}}}}, {"name": "6622", "op": "Const", "attr": {"dtype": {"type": "DT_FLOAT"}, "value": {"tensor": {"dtype": "DT_FLOAT", "tensorShape": {"dim": [{"size": "32"}]}}}}}, {"name": "6624", "op": "Const", "attr": {"dtype": {"type": "DT_FLOAT"}, "value": {"tensor": {"dtype": "DT_FLOAT", "tensorShape": {"dim": [{"size": "3"}, {"size": "3"}, {"size": "32"}, {"size": "32"}]}}}}}, {"name": "6626", "op": "Const", "attr": {"dtype": {"type": "DT_FLOAT"}, "value": {"tensor": {"dtype": "DT_FLOAT", "tensorShape": {"dim": [{"size": "32"}]}}}}}, {"name": "PartitionedCall/model/tf.concat_8/concat/axis", "op": "Const", "attr": {"value": {"tensor": {"dtype": "DT_INT32", "tensorShape": {}}}, "dtype": {"type": "DT_INT32"}}}, {"name": "6632", "op": "Const", "attr": {"value": {"tensor": {"dtype": "DT_FLOAT", "tensorShape": {"dim": [{"size": "1"}, {"size": "1"}, {"size": "96"}, {"size": "64"}]}}}, "dtype": {"type": "DT_FLOAT"}}}, {"name": "6634", "op": "Const", "attr": {"value": {"tensor": {"dtype": "DT_FLOAT", "tensorShape": {"dim": [{"size": "64"}]}}}, "dtype": {"type": "DT_FLOAT"}}}, {"name": "6636", "op": "Const", "attr": {"value": {"tensor": {"dtype": "DT_INT32", "tensorShape": {"dim": [{"size": "4"}, {"size": "2"}]}}}, "dtype": {"type": "DT_INT32"}}}, {"name": "6638", "op": "Const", "attr": {"value": {"tensor": {"dtype": "DT_FLOAT", "tensorShape": {"dim": [{"size": "3"}, {"size": "3"}, {"size": "64"}, {"size": "64"}]}}}, "dtype": {"type": "DT_FLOAT"}}}, {"name": "6640", "op": "Const", "attr": {"dtype": {"type": "DT_FLOAT"}, "value": {"tensor": {"dtype": "DT_FLOAT", "tensorShape": {"dim": [{"size": "64"}]}}}}}, {"name": "6604", "op": "Const", "attr": {"value": {"tensor": {"dtype": "DT_INT64", "tensorShape": {"dim": [{"size": "4"}]}}}, "dtype": {"type": "DT_INT64"}}}, {"name": "6606", "op": "Const", "attr": {"value": {"tensor": {"dtype": "DT_INT64", "tensorShape": {"dim": [{"size": "4"}]}}}, "dtype": {"type": "DT_INT64"}}}, {"name": "PartitionedCall/model/tf.strided_slice_8/ones_like", "op": "Const", "attr": {"value": {"tensor": {"dtype": "DT_INT64", "tensorShape": {"dim": [{"size": "4"}]}}}, "dtype": {"type": "DT_INT64"}}}, {"name": "PartitionedCall/model/lambda//model.10/Resize/size", "op": "Const", "attr": {"value": {"tensor": {"dtype": "DT_INT32", "tensorShape": {"dim": [{"size": "2"}]}}}, "dtype": {"type": "DT_INT32"}}}, {"name": "PartitionedCall/model/tf.concat_5/concat/axis", "op": "Const", "attr": {"dtype": {"type": "DT_INT32"}, "value": {"tensor": {"dtype": "DT_INT32", "tensorShape": {}}}}}, {"name": "6588", "op": "Const", "attr": {"value": {"tensor": {"dtype": "DT_FLOAT", "tensorShape": {"dim": [{"size": "1"}, {"size": "1"}, {"size": "384"}, {"size": "128"}]}}}, "dtype": {"type": "DT_FLOAT"}}}, {"name": "6590", "op": "Const", "attr": {"dtype": {"type": "DT_FLOAT"}, "value": {"tensor": {"dtype": "DT_FLOAT", "tensorShape": {"dim": [{"size": "128"}]}}}}}, {"name": "6592", "op": "Const", "attr": {"value": {"tensor": {"dtype": "DT_INT64", "tensorShape": {"dim": [{"size": "4"}]}}}, "dtype": {"type": "DT_INT64"}}}, {"name": "6594", "op": "Const", "attr": {"value": {"tensor": {"dtype": "DT_INT64", "tensorShape": {"dim": [{"size": "4"}]}}}, "dtype": {"type": "DT_INT64"}}}, {"name": "PartitionedCall/model/tf.strided_slice_9/ones_like", "op": "Const", "attr": {"dtype": {"type": "DT_INT64"}, "value": {"tensor": {"dtype": "DT_INT64", "tensorShape": {"dim": [{"size": "4"}]}}}}}, {"name": "6596", "op": "Const", "attr": {"dtype": {"type": "DT_FLOAT"}, "value": {"tensor": {"dtype": "DT_FLOAT", "tensorShape": {"dim": [{"size": "3"}, {"size": "3"}, {"size": "64"}, {"size": "64"}]}}}}}, {"name": "6598", "op": "Const", "attr": {"dtype": {"type": "DT_FLOAT"}, "value": {"tensor": {"dtype": "DT_FLOAT", "tensorShape": {"dim": [{"size": "64"}]}}}}}, {"name": "6600", "op": "Const", "attr": {"value": {"tensor": {"dtype": "DT_FLOAT", "tensorShape": {"dim": [{"size": "3"}, {"size": "3"}, {"size": "64"}, {"size": "64"}]}}}, "dtype": {"type": "DT_FLOAT"}}}, {"name": "6602", "op": "Const", "attr": {"value": {"tensor": {"dtype": "DT_FLOAT", "tensorShape": {"dim": [{"size": "64"}]}}}, "dtype": {"type": "DT_FLOAT"}}}, {"name": "PartitionedCall/model/tf.concat_6/concat/axis", "op": "Const", "attr": {"dtype": {"type": "DT_INT32"}, "value": {"tensor": {"dtype": "DT_INT32", "tensorShape": {}}}}}, {"name": "6608", "op": "Const", "attr": {"dtype": {"type": "DT_FLOAT"}, "value": {"tensor": {"dtype": "DT_FLOAT", "tensorShape": {"dim": [{"size": "1"}, {"size": "1"}, {"size": "192"}, {"size": "128"}]}}}}}, {"name": "6610", "op": "Const", "attr": {"value": {"tensor": {"dtype": "DT_FLOAT", "tensorShape": {"dim": [{"size": "128"}]}}}, "dtype": {"type": "DT_FLOAT"}}}, {"name": "PartitionedCall/model/tf.concat_9/concat/axis", "op": "Const", "attr": {"dtype": {"type": "DT_INT32"}, "value": {"tensor": {"dtype": "DT_INT32", "tensorShape": {}}}}}, {"name": "6642", "op": "Const", "attr": {"value": {"tensor": {"dtype": "DT_FLOAT", "tensorShape": {"dim": [{"size": "1"}, {"size": "1"}, {"size": "192"}, {"size": "128"}]}}}, "dtype": {"type": "DT_FLOAT"}}}, {"name": "6644", "op": "Const", "attr": {"value": {"tensor": {"dtype": "DT_FLOAT", "tensorShape": {"dim": [{"size": "128"}]}}}, "dtype": {"type": "DT_FLOAT"}}}, {"name": "6646", "op": "Const", "attr": {"value": {"tensor": {"dtype": "DT_INT64", "tensorShape": {"dim": [{"size": "4"}]}}}, "dtype": {"type": "DT_INT64"}}}, {"name": "6648", "op": "Const", "attr": {"value": {"tensor": {"dtype": "DT_INT64", "tensorShape": {"dim": [{"size": "4"}]}}}, "dtype": {"type": "DT_INT64"}}}, {"name": "PartitionedCall/model/tf.strided_slice_13/ones_like", "op": "Const", "attr": {"value": {"tensor": {"dtype": "DT_INT64", "tensorShape": {"dim": [{"size": "4"}]}}}, "dtype": {"type": "DT_INT64"}}}, {"name": "6650", "op": "Const", "attr": {"dtype": {"type": "DT_FLOAT"}, "value": {"tensor": {"dtype": "DT_FLOAT", "tensorShape": {"dim": [{"size": "3"}, {"size": "3"}, {"size": "64"}, {"size": "64"}]}}}}}, {"name": "6652", "op": "Const", "attr": {"dtype": {"type": "DT_FLOAT"}, "value": {"tensor": {"dtype": "DT_FLOAT", "tensorShape": {"dim": [{"size": "64"}]}}}}}, {"name": "6654", "op": "Const", "attr": {"value": {"tensor": {"dtype": "DT_FLOAT", "tensorShape": {"dim": [{"size": "3"}, {"size": "3"}, {"size": "64"}, {"size": "64"}]}}}, "dtype": {"type": "DT_FLOAT"}}}, {"name": "6656", "op": "Const", "attr": {"value": {"tensor": {"dtype": "DT_FLOAT", "tensorShape": {"dim": [{"size": "64"}]}}}, "dtype": {"type": "DT_FLOAT"}}}, {"name": "PartitionedCall/model/tf.concat_11/concat/axis", "op": "Const", "attr": {"dtype": {"type": "DT_INT32"}, "value": {"tensor": {"dtype": "DT_INT32", "tensorShape": {}}}}}, {"name": "6662", "op": "Const", "attr": {"dtype": {"type": "DT_FLOAT"}, "value": {"tensor": {"dtype": "DT_FLOAT", "tensorShape": {"dim": [{"size": "1"}, {"size": "1"}, {"size": "192"}, {"size": "128"}]}}}}}, {"name": "6664", "op": "Const", "attr": {"dtype": {"type": "DT_FLOAT"}, "value": {"tensor": {"dtype": "DT_FLOAT", "tensorShape": {"dim": [{"size": "128"}]}}}}}, {"name": "6666", "op": "Const", "attr": {"dtype": {"type": "DT_INT32"}, "value": {"tensor": {"dtype": "DT_INT32", "tensorShape": {"dim": [{"size": "4"}, {"size": "2"}]}}}}}, {"name": "6668", "op": "Const", "attr": {"value": {"tensor": {"dtype": "DT_FLOAT", "tensorShape": {"dim": [{"size": "3"}, {"size": "3"}, {"size": "128"}, {"size": "128"}]}}}, "dtype": {"type": "DT_FLOAT"}}}, {"name": "6670", "op": "Const", "attr": {"dtype": {"type": "DT_FLOAT"}, "value": {"tensor": {"dtype": "DT_FLOAT", "tensorShape": {"dim": [{"size": "128"}]}}}}}, {"name": "6572", "op": "Const", "attr": {"value": {"tensor": {"dtype": "DT_INT64", "tensorShape": {"dim": [{"size": "4"}]}}}, "dtype": {"type": "DT_INT64"}}}, {"name": "6574", "op": "Const", "attr": {"dtype": {"type": "DT_INT64"}, "value": {"tensor": {"dtype": "DT_INT64", "tensorShape": {"dim": [{"size": "4"}]}}}}}, {"name": "PartitionedCall/model/tf.strided_slice_6/ones_like", "op": "Const", "attr": {"dtype": {"type": "DT_INT64"}, "value": {"tensor": {"dtype": "DT_INT64", "tensorShape": {"dim": [{"size": "4"}]}}}}}, {"name": "6542", "op": "Const", "attr": {"value": {"tensor": {"dtype": "DT_INT64", "tensorShape": {"dim": [{"size": "4"}]}}}, "dtype": {"type": "DT_INT64"}}}, {"name": "6544", "op": "Const", "attr": {"value": {"tensor": {"dtype": "DT_INT64", "tensorShape": {"dim": [{"size": "4"}]}}}, "dtype": {"type": "DT_INT64"}}}, {"name": "PartitionedCall/model/tf.strided_slice_4/ones_like", "op": "Const", "attr": {"dtype": {"type": "DT_INT64"}, "value": {"tensor": {"dtype": "DT_INT64", "tensorShape": {"dim": [{"size": "4"}]}}}}}, {"name": "6504", "op": "Const", "attr": {"value": {"tensor": {"dtype": "DT_INT64", "tensorShape": {"dim": [{"size": "4"}]}}}, "dtype": {"type": "DT_INT64"}}}, {"name": "6506", "op": "Const", "attr": {"dtype": {"type": "DT_INT64"}, "value": {"tensor": {"dtype": "DT_INT64", "tensorShape": {"dim": [{"size": "4"}]}}}}}, {"name": "PartitionedCall/model/tf.strided_slice_2/ones_like", "op": "Const", "attr": {"dtype": {"type": "DT_INT64"}, "value": {"tensor": {"dtype": "DT_INT64", "tensorShape": {"dim": [{"size": "4"}]}}}}}, {"name": "6466", "op": "Const", "attr": {"dtype": {"type": "DT_INT64"}, "value": {"tensor": {"dtype": "DT_INT64", "tensorShape": {"dim": [{"size": "4"}]}}}}}, {"name": "6468", "op": "Const", "attr": {"value": {"tensor": {"dtype": "DT_INT64", "tensorShape": {"dim": [{"size": "4"}]}}}, "dtype": {"type": "DT_INT64"}}}, {"name": "PartitionedCall/model/tf.strided_slice/ones_like", "op": "Const", "attr": {"value": {"tensor": {"dtype": "DT_INT64", "tensorShape": {"dim": [{"size": "4"}]}}}, "dtype": {"type": "DT_INT64"}}}, {"name": "6438", "op": "Const", "attr": {"dtype": {"type": "DT_INT32"}, "value": {"tensor": {"dtype": "DT_INT32", "tensorShape": {"dim": [{"size": "4"}, {"size": "2"}]}}}}}, {"name": "6440", "op": "Const", "attr": {"dtype": {"type": "DT_FLOAT"}, "value": {"tensor": {"dtype": "DT_FLOAT", "tensorShape": {"dim": [{"size": "3"}, {"size": "3"}, {"size": "3"}, {"size": "16"}]}}}}}, {"name": "6442", "op": "Const", "attr": {"dtype": {"type": "DT_FLOAT"}, "value": {"tensor": {"dtype": "DT_FLOAT", "tensorShape": {"dim": [{"size": "16"}]}}}}}, {"name": "6444", "op": "Const", "attr": {"value": {"tensor": {"dtype": "DT_INT32", "tensorShape": {"dim": [{"size": "4"}, {"size": "2"}]}}}, "dtype": {"type": "DT_INT32"}}}, {"name": "6446", "op": "Const", "attr": {"value": {"tensor": {"dtype": "DT_FLOAT", "tensorShape": {"dim": [{"size": "3"}, {"size": "3"}, {"size": "16"}, {"size": "32"}]}}}, "dtype": {"type": "DT_FLOAT"}}}, {"name": "6448", "op": "Const", "attr": {"dtype": {"type": "DT_FLOAT"}, "value": {"tensor": {"dtype": "DT_FLOAT", "tensorShape": {"dim": [{"size": "32"}]}}}}}, {"name": "6450", "op": "Const", "attr": {"dtype": {"type": "DT_FLOAT"}, "value": {"tensor": {"dtype": "DT_FLOAT", "tensorShape": {"dim": [{"size": "1"}, {"size": "1"}, {"size": "32"}, {"size": "32"}]}}}}}, {"name": "6452", "op": "Const", "attr": {"value": {"tensor": {"dtype": "DT_FLOAT", "tensorShape": {"dim": [{"size": "32"}]}}}, "dtype": {"type": "DT_FLOAT"}}}, {"name": "6454", "op": "Const", "attr": {"value": {"tensor": {"dtype": "DT_INT64", "tensorShape": {"dim": [{"size": "4"}]}}}, "dtype": {"type": "DT_INT64"}}}, {"name": "6456", "op": "Const", "attr": {"value": {"tensor": {"dtype": "DT_INT64", "tensorShape": {"dim": [{"size": "4"}]}}}, "dtype": {"type": "DT_INT64"}}}, {"name": "PartitionedCall/model/tf.strided_slice_1/ones_like", "op": "Const", "attr": {"dtype": {"type": "DT_INT64"}, "value": {"tensor": {"dtype": "DT_INT64", "tensorShape": {"dim": [{"size": "4"}]}}}}}, {"name": "6458", "op": "Const", "attr": {"value": {"tensor": {"dtype": "DT_FLOAT", "tensorShape": {"dim": [{"size": "3"}, {"size": "3"}, {"size": "16"}, {"size": "16"}]}}}, "dtype": {"type": "DT_FLOAT"}}}, {"name": "6460", "op": "Const", "attr": {"dtype": {"type": "DT_FLOAT"}, "value": {"tensor": {"dtype": "DT_FLOAT", "tensorShape": {"dim": [{"size": "16"}]}}}}}, {"name": "6462", "op": "Const", "attr": {"dtype": {"type": "DT_FLOAT"}, "value": {"tensor": {"dtype": "DT_FLOAT", "tensorShape": {"dim": [{"size": "3"}, {"size": "3"}, {"size": "16"}, {"size": "16"}]}}}}}, {"name": "6464", "op": "Const", "attr": {"value": {"tensor": {"dtype": "DT_FLOAT", "tensorShape": {"dim": [{"size": "16"}]}}}, "dtype": {"type": "DT_FLOAT"}}}, {"name": "PartitionedCall/model/tf.concat/concat/axis", "op": "Const", "attr": {"value": {"tensor": {"dtype": "DT_INT32", "tensorShape": {}}}, "dtype": {"type": "DT_INT32"}}}, {"name": "6470", "op": "Const", "attr": {"value": {"tensor": {"dtype": "DT_FLOAT", "tensorShape": {"dim": [{"size": "1"}, {"size": "1"}, {"size": "48"}, {"size": "32"}]}}}, "dtype": {"type": "DT_FLOAT"}}}, {"name": "6472", "op": "Const", "attr": {"value": {"tensor": {"dtype": "DT_FLOAT", "tensorShape": {"dim": [{"size": "32"}]}}}, "dtype": {"type": "DT_FLOAT"}}}, {"name": "6474", "op": "Const", "attr": {"dtype": {"type": "DT_INT32"}, "value": {"tensor": {"dtype": "DT_INT32", "tensorShape": {"dim": [{"size": "4"}, {"size": "2"}]}}}}}, {"name": "6476", "op": "Const", "attr": {"dtype": {"type": "DT_FLOAT"}, "value": {"tensor": {"dtype": "DT_FLOAT", "tensorShape": {"dim": [{"size": "3"}, {"size": "3"}, {"size": "32"}, {"size": "64"}]}}}}}, {"name": "6478", "op": "Const", "attr": {"value": {"tensor": {"dtype": "DT_FLOAT", "tensorShape": {"dim": [{"size": "64"}]}}}, "dtype": {"type": "DT_FLOAT"}}}, {"name": "6480", "op": "Const", "attr": {"dtype": {"type": "DT_FLOAT"}, "value": {"tensor": {"dtype": "DT_FLOAT", "tensorShape": {"dim": [{"size": "1"}, {"size": "1"}, {"size": "64"}, {"size": "64"}]}}}}}, {"name": "6482", "op": "Const", "attr": {"value": {"tensor": {"dtype": "DT_FLOAT", "tensorShape": {"dim": [{"size": "64"}]}}}, "dtype": {"type": "DT_FLOAT"}}}, {"name": "6484", "op": "Const", "attr": {"dtype": {"type": "DT_INT64"}, "value": {"tensor": {"dtype": "DT_INT64", "tensorShape": {"dim": [{"size": "4"}]}}}}}, {"name": "6486", "op": "Const", "attr": {"value": {"tensor": {"dtype": "DT_INT64", "tensorShape": {"dim": [{"size": "4"}]}}}, "dtype": {"type": "DT_INT64"}}}, {"name": "PartitionedCall/model/tf.strided_slice_3/ones_like", "op": "Const", "attr": {"value": {"tensor": {"dtype": "DT_INT64", "tensorShape": {"dim": [{"size": "4"}]}}}, "dtype": {"type": "DT_INT64"}}}, {"name": "6488", "op": "Const", "attr": {"dtype": {"type": "DT_FLOAT"}, "value": {"tensor": {"dtype": "DT_FLOAT", "tensorShape": {"dim": [{"size": "3"}, {"size": "3"}, {"size": "32"}, {"size": "32"}]}}}}}, {"name": "6490", "op": "Const", "attr": {"dtype": {"type": "DT_FLOAT"}, "value": {"tensor": {"dtype": "DT_FLOAT", "tensorShape": {"dim": [{"size": "32"}]}}}}}, {"name": "6492", "op": "Const", "attr": {"value": {"tensor": {"dtype": "DT_FLOAT", "tensorShape": {"dim": [{"size": "3"}, {"size": "3"}, {"size": "32"}, {"size": "32"}]}}}, "dtype": {"type": "DT_FLOAT"}}}, {"name": "6494", "op": "Const", "attr": {"value": {"tensor": {"dtype": "DT_FLOAT", "tensorShape": {"dim": [{"size": "32"}]}}}, "dtype": {"type": "DT_FLOAT"}}}, {"name": "6496", "op": "Const", "attr": {"value": {"tensor": {"dtype": "DT_FLOAT", "tensorShape": {"dim": [{"size": "3"}, {"size": "3"}, {"size": "32"}, {"size": "32"}]}}}, "dtype": {"type": "DT_FLOAT"}}}, {"name": "6498", "op": "Const", "attr": {"dtype": {"type": "DT_FLOAT"}, "value": {"tensor": {"dtype": "DT_FLOAT", "tensorShape": {"dim": [{"size": "32"}]}}}}}, {"name": "6500", "op": "Const", "attr": {"value": {"tensor": {"dtype": "DT_FLOAT", "tensorShape": {"dim": [{"size": "3"}, {"size": "3"}, {"size": "32"}, {"size": "32"}]}}}, "dtype": {"type": "DT_FLOAT"}}}, {"name": "6502", "op": "Const", "attr": {"dtype": {"type": "DT_FLOAT"}, "value": {"tensor": {"dtype": "DT_FLOAT", "tensorShape": {"dim": [{"size": "32"}]}}}}}, {"name": "PartitionedCall/model/tf.concat_1/concat/axis", "op": "Const", "attr": {"dtype": {"type": "DT_INT32"}, "value": {"tensor": {"dtype": "DT_INT32", "tensorShape": {}}}}}, {"name": "6508", "op": "Const", "attr": {"dtype": {"type": "DT_FLOAT"}, "value": {"tensor": {"dtype": "DT_FLOAT", "tensorShape": {"dim": [{"size": "1"}, {"size": "1"}, {"size": "128"}, {"size": "64"}]}}}}}, {"name": "6510", "op": "Const", "attr": {"value": {"tensor": {"dtype": "DT_FLOAT", "tensorShape": {"dim": [{"size": "64"}]}}}, "dtype": {"type": "DT_FLOAT"}}}, {"name": "6512", "op": "Const", "attr": {"value": {"tensor": {"dtype": "DT_INT32", "tensorShape": {"dim": [{"size": "4"}, {"size": "2"}]}}}, "dtype": {"type": "DT_INT32"}}}, {"name": "6514", "op": "Const", "attr": {"dtype": {"type": "DT_FLOAT"}, "value": {"tensor": {"dtype": "DT_FLOAT", "tensorShape": {"dim": [{"size": "3"}, {"size": "3"}, {"size": "64"}, {"size": "128"}]}}}}}, {"name": "6516", "op": "Const", "attr": {"value": {"tensor": {"dtype": "DT_FLOAT", "tensorShape": {"dim": [{"size": "128"}]}}}, "dtype": {"type": "DT_FLOAT"}}}, {"name": "6518", "op": "Const", "attr": {"value": {"tensor": {"dtype": "DT_FLOAT", "tensorShape": {"dim": [{"size": "1"}, {"size": "1"}, {"size": "128"}, {"size": "128"}]}}}, "dtype": {"type": "DT_FLOAT"}}}, {"name": "6520", "op": "Const", "attr": {"dtype": {"type": "DT_FLOAT"}, "value": {"tensor": {"dtype": "DT_FLOAT", "tensorShape": {"dim": [{"size": "128"}]}}}}}, {"name": "6522", "op": "Const", "attr": {"dtype": {"type": "DT_INT64"}, "value": {"tensor": {"dtype": "DT_INT64", "tensorShape": {"dim": [{"size": "4"}]}}}}}, {"name": "6524", "op": "Const", "attr": {"dtype": {"type": "DT_INT64"}, "value": {"tensor": {"dtype": "DT_INT64", "tensorShape": {"dim": [{"size": "4"}]}}}}}, {"name": "PartitionedCall/model/tf.strided_slice_5/ones_like", "op": "Const", "attr": {"dtype": {"type": "DT_INT64"}, "value": {"tensor": {"dtype": "DT_INT64", "tensorShape": {"dim": [{"size": "4"}]}}}}}, {"name": "6526", "op": "Const", "attr": {"dtype": {"type": "DT_FLOAT"}, "value": {"tensor": {"dtype": "DT_FLOAT", "tensorShape": {"dim": [{"size": "3"}, {"size": "3"}, {"size": "64"}, {"size": "64"}]}}}}}, {"name": "6528", "op": "Const", "attr": {"value": {"tensor": {"dtype": "DT_FLOAT", "tensorShape": {"dim": [{"size": "64"}]}}}, "dtype": {"type": "DT_FLOAT"}}}, {"name": "6530", "op": "Const", "attr": {"dtype": {"type": "DT_FLOAT"}, "value": {"tensor": {"dtype": "DT_FLOAT", "tensorShape": {"dim": [{"size": "3"}, {"size": "3"}, {"size": "64"}, {"size": "64"}]}}}}}, {"name": "6532", "op": "Const", "attr": {"value": {"tensor": {"dtype": "DT_FLOAT", "tensorShape": {"dim": [{"size": "64"}]}}}, "dtype": {"type": "DT_FLOAT"}}}, {"name": "6534", "op": "Const", "attr": {"dtype": {"type": "DT_FLOAT"}, "value": {"tensor": {"dtype": "DT_FLOAT", "tensorShape": {"dim": [{"size": "3"}, {"size": "3"}, {"size": "64"}, {"size": "64"}]}}}}}, {"name": "6536", "op": "Const", "attr": {"value": {"tensor": {"dtype": "DT_FLOAT", "tensorShape": {"dim": [{"size": "64"}]}}}, "dtype": {"type": "DT_FLOAT"}}}, {"name": "6538", "op": "Const", "attr": {"dtype": {"type": "DT_FLOAT"}, "value": {"tensor": {"dtype": "DT_FLOAT", "tensorShape": {"dim": [{"size": "3"}, {"size": "3"}, {"size": "64"}, {"size": "64"}]}}}}}, {"name": "6540", "op": "Const", "attr": {"dtype": {"type": "DT_FLOAT"}, "value": {"tensor": {"dtype": "DT_FLOAT", "tensorShape": {"dim": [{"size": "64"}]}}}}}, {"name": "PartitionedCall/model/tf.concat_2/concat/axis", "op": "Const", "attr": {"dtype": {"type": "DT_INT32"}, "value": {"tensor": {"dtype": "DT_INT32", "tensorShape": {}}}}}, {"name": "6546", "op": "Const", "attr": {"value": {"tensor": {"dtype": "DT_FLOAT", "tensorShape": {"dim": [{"size": "1"}, {"size": "1"}, {"size": "256"}, {"size": "128"}]}}}, "dtype": {"type": "DT_FLOAT"}}}, {"name": "6548", "op": "Const", "attr": {"value": {"tensor": {"dtype": "DT_FLOAT", "tensorShape": {"dim": [{"size": "128"}]}}}, "dtype": {"type": "DT_FLOAT"}}}, {"name": "6550", "op": "Const", "attr": {"value": {"tensor": {"dtype": "DT_INT32", "tensorShape": {"dim": [{"size": "4"}, {"size": "2"}]}}}, "dtype": {"type": "DT_INT32"}}}, {"name": "6552", "op": "Const", "attr": {"value": {"tensor": {"dtype": "DT_FLOAT", "tensorShape": {"dim": [{"size": "3"}, {"size": "3"}, {"size": "128"}, {"size": "256"}]}}}, "dtype": {"type": "DT_FLOAT"}}}, {"name": "6554", "op": "Const", "attr": {"value": {"tensor": {"dtype": "DT_FLOAT", "tensorShape": {"dim": [{"size": "256"}]}}}, "dtype": {"type": "DT_FLOAT"}}}, {"name": "6556", "op": "Const", "attr": {"dtype": {"type": "DT_FLOAT"}, "value": {"tensor": {"dtype": "DT_FLOAT", "tensorShape": {"dim": [{"size": "1"}, {"size": "1"}, {"size": "256"}, {"size": "256"}]}}}}}, {"name": "6558", "op": "Const", "attr": {"value": {"tensor": {"dtype": "DT_FLOAT", "tensorShape": {"dim": [{"size": "256"}]}}}, "dtype": {"type": "DT_FLOAT"}}}, {"name": "6560", "op": "Const", "attr": {"dtype": {"type": "DT_INT64"}, "value": {"tensor": {"dtype": "DT_INT64", "tensorShape": {"dim": [{"size": "4"}]}}}}}, {"name": "6562", "op": "Const", "attr": {"value": {"tensor": {"dtype": "DT_INT64", "tensorShape": {"dim": [{"size": "4"}]}}}, "dtype": {"type": "DT_INT64"}}}, {"name": "PartitionedCall/model/tf.strided_slice_7/ones_like", "op": "Const", "attr": {"dtype": {"type": "DT_INT64"}, "value": {"tensor": {"dtype": "DT_INT64", "tensorShape": {"dim": [{"size": "4"}]}}}}}, {"name": "6564", "op": "Const", "attr": {"dtype": {"type": "DT_FLOAT"}, "value": {"tensor": {"dtype": "DT_FLOAT", "tensorShape": {"dim": [{"size": "3"}, {"size": "3"}, {"size": "128"}, {"size": "128"}]}}}}}, {"name": "6566", "op": "Const", "attr": {"dtype": {"type": "DT_FLOAT"}, "value": {"tensor": {"dtype": "DT_FLOAT", "tensorShape": {"dim": [{"size": "128"}]}}}}}, {"name": "6568", "op": "Const", "attr": {"dtype": {"type": "DT_FLOAT"}, "value": {"tensor": {"dtype": "DT_FLOAT", "tensorShape": {"dim": [{"size": "3"}, {"size": "3"}, {"size": "128"}, {"size": "128"}]}}}}}, {"name": "6570", "op": "Const", "attr": {"value": {"tensor": {"dtype": "DT_FLOAT", "tensorShape": {"dim": [{"size": "128"}]}}}, "dtype": {"type": "DT_FLOAT"}}}, {"name": "PartitionedCall/model/tf.concat_3/concat/axis", "op": "Const", "attr": {"dtype": {"type": "DT_INT32"}, "value": {"tensor": {"dtype": "DT_INT32", "tensorShape": {}}}}}, {"name": "6576", "op": "Const", "attr": {"dtype": {"type": "DT_FLOAT"}, "value": {"tensor": {"dtype": "DT_FLOAT", "tensorShape": {"dim": [{"size": "1"}, {"size": "1"}, {"size": "384"}, {"size": "256"}]}}}}}, {"name": "6578", "op": "Const", "attr": {"dtype": {"type": "DT_FLOAT"}, "value": {"tensor": {"dtype": "DT_FLOAT", "tensorShape": {"dim": [{"size": "256"}]}}}}}, {"name": "6580", "op": "Const", "attr": {"dtype": {"type": "DT_FLOAT"}, "value": {"tensor": {"dtype": "DT_FLOAT", "tensorShape": {"dim": [{"size": "1"}, {"size": "1"}, {"size": "256"}, {"size": "128"}]}}}}}, {"name": "6582", "op": "Const", "attr": {"value": {"tensor": {"dtype": "DT_FLOAT", "tensorShape": {"dim": [{"size": "128"}]}}}, "dtype": {"type": "DT_FLOAT"}}}, {"name": "PartitionedCall/model/tf.concat_4/concat/axis", "op": "Const", "attr": {"value": {"tensor": {"dtype": "DT_INT32", "tensorShape": {}}}, "dtype": {"type": "DT_INT32"}}}, {"name": "6584", "op": "Const", "attr": {"dtype": {"type": "DT_FLOAT"}, "value": {"tensor": {"dtype": "DT_FLOAT", "tensorShape": {"dim": [{"size": "1"}, {"size": "1"}, {"size": "512"}, {"size": "256"}]}}}}}, {"name": "6586", "op": "Const", "attr": {"value": {"tensor": {"dtype": "DT_FLOAT", "tensorShape": {"dim": [{"size": "256"}]}}}, "dtype": {"type": "DT_FLOAT"}}}, {"name": "PartitionedCall/model/tf.concat_12/concat/axis", "op": "Const", "attr": {"value": {"tensor": {"dtype": "DT_INT32", "tensorShape": {}}}, "dtype": {"type": "DT_INT32"}}}, {"name": "6672", "op": "Const", "attr": {"dtype": {"type": "DT_FLOAT"}, "value": {"tensor": {"dtype": "DT_FLOAT", "tensorShape": {"dim": [{"size": "1"}, {"size": "1"}, {"size": "384"}, {"size": "256"}]}}}}}, {"name": "6674", "op": "Const", "attr": {"dtype": {"type": "DT_FLOAT"}, "value": {"tensor": {"dtype": "DT_FLOAT", "tensorShape": {"dim": [{"size": "256"}]}}}}}, {"name": "6676", "op": "Const", "attr": {"value": {"tensor": {"dtype": "DT_INT64", "tensorShape": {"dim": [{"size": "4"}]}}}, "dtype": {"type": "DT_INT64"}}}, {"name": "6678", "op": "Const", "attr": {"value": {"tensor": {"dtype": "DT_INT64", "tensorShape": {"dim": [{"size": "4"}]}}}, "dtype": {"type": "DT_INT64"}}}, {"name": "PartitionedCall/model/tf.strided_slice_15/ones_like", "op": "Const", "attr": {"dtype": {"type": "DT_INT64"}, "value": {"tensor": {"dtype": "DT_INT64", "tensorShape": {"dim": [{"size": "4"}]}}}}}, {"name": "6680", "op": "Const", "attr": {"value": {"tensor": {"dtype": "DT_FLOAT", "tensorShape": {"dim": [{"size": "3"}, {"size": "3"}, {"size": "128"}, {"size": "128"}]}}}, "dtype": {"type": "DT_FLOAT"}}}, {"name": "6682", "op": "Const", "attr": {"value": {"tensor": {"dtype": "DT_FLOAT", "tensorShape": {"dim": [{"size": "128"}]}}}, "dtype": {"type": "DT_FLOAT"}}}, {"name": "6684", "op": "Const", "attr": {"dtype": {"type": "DT_FLOAT"}, "value": {"tensor": {"dtype": "DT_FLOAT", "tensorShape": {"dim": [{"size": "3"}, {"size": "3"}, {"size": "128"}, {"size": "128"}]}}}}}, {"name": "6686", "op": "Const", "attr": {"value": {"tensor": {"dtype": "DT_FLOAT", "tensorShape": {"dim": [{"size": "128"}]}}}, "dtype": {"type": "DT_FLOAT"}}}, {"name": "PartitionedCall/model/tf.concat_14/concat/axis", "op": "Const", "attr": {"dtype": {"type": "DT_INT32"}, "value": {"tensor": {"dtype": "DT_INT32", "tensorShape": {}}}}}, {"name": "6692", "op": "Const", "attr": {"value": {"tensor": {"dtype": "DT_FLOAT", "tensorShape": {"dim": [{"size": "1"}, {"size": "1"}, {"size": "384"}, {"size": "256"}]}}}, "dtype": {"type": "DT_FLOAT"}}}, {"name": "6694", "op": "Const", "attr": {"dtype": {"type": "DT_FLOAT"}, "value": {"tensor": {"dtype": "DT_FLOAT", "tensorShape": {"dim": [{"size": "256"}]}}}}}, {"name": "6696", "op": "Const", "attr": {"value": {"tensor": {"dtype": "DT_FLOAT", "tensorShape": {"dim": [{"size": "3"}, {"size": "3"}, {"size": "256"}, {"size": "64"}]}}}, "dtype": {"type": "DT_FLOAT"}}}, {"name": "6708", "op": "Const", "attr": {"value": {"tensor": {"dtype": "DT_FLOAT", "tensorShape": {"dim": [{"size": "64"}]}}}, "dtype": {"type": "DT_FLOAT"}}}, {"name": "6720", "op": "Const", "attr": {"dtype": {"type": "DT_FLOAT"}, "value": {"tensor": {"dtype": "DT_FLOAT", "tensorShape": {"dim": [{"size": "3"}, {"size": "3"}, {"size": "64"}, {"size": "64"}]}}}}}, {"name": "6732", "op": "Const", "attr": {"value": {"tensor": {"dtype": "DT_FLOAT", "tensorShape": {"dim": [{"size": "64"}]}}}, "dtype": {"type": "DT_FLOAT"}}}, {"name": "6744", "op": "Const", "attr": {"value": {"tensor": {"dtype": "DT_FLOAT", "tensorShape": {"dim": [{"size": "1"}, {"size": "1"}, {"size": "64"}, {"size": "2"}]}}}, "dtype": {"type": "DT_FLOAT"}}}, {"name": "6758", "op": "Const", "attr": {"value": {"tensor": {"dtype": "DT_FLOAT", "tensorShape": {"dim": [{"size": "2"}]}}}, "dtype": {"type": "DT_FLOAT"}}}, {"name": "PartitionedCall/model/tf.concat_15/concat/axis", "op": "Const", "attr": {"value": {"tensor": {"dtype": "DT_INT32", "tensorShape": {}}}, "dtype": {"type": "DT_INT32"}}}, {"name": "PartitionedCall/model/tf.compat.v1.transpose_2/transpose/perm", "op": "Const", "attr": {"dtype": {"type": "DT_INT32"}, "value": {"tensor": {"dtype": "DT_INT32", "tensorShape": {"dim": [{"size": "4"}]}}}}}, {"name": "PartitionedCall/model/tf.reshape_2/Reshape/shape", "op": "Const", "attr": {"value": {"tensor": {"dtype": "DT_INT32", "tensorShape": {"dim": [{"size": "3"}]}}}, "dtype": {"type": "DT_INT32"}}}, {"name": "PartitionedCall/model/tf.concat_16/concat/axis", "op": "Const", "attr": {"value": {"tensor": {"dtype": "DT_INT32", "tensorShape": {}}}, "dtype": {"type": "DT_INT32"}}}, {"name": "6788", "op": "Const", "attr": {"dtype": {"type": "DT_INT64"}, "value": {"tensor": {"dtype": "DT_INT64", "tensorShape": {"dim": [{"size": "3"}]}}}}}, {"name": "6790", "op": "Const", "attr": {"dtype": {"type": "DT_INT64"}, "value": {"tensor": {"dtype": "DT_INT64", "tensorShape": {"dim": [{"size": "3"}]}}}}}, {"name": "PartitionedCall/model/tf.strided_slice_17/StridedSlice/strides", "op": "Const", "attr": {"dtype": {"type": "DT_INT64"}, "value": {"tensor": {"dtype": "DT_INT64", "tensorShape": {"dim": [{"size": "3"}]}}}}}, {"name": "PartitionedCall/model/output0/concat/axis", "op": "Const", "attr": {"dtype": {"type": "DT_INT32"}, "value": {"tensor": {"dtype": "DT_INT32", "tensorShape": {}}}}}, {"name": "x", "op": "Placeholder", "attr": {"dtype": {"type": "DT_FLOAT"}, "shape": {"shape": {"dim": [{"size": "1"}, {"size": "288"}, {"size": "512"}, {"size": "3"}]}}}}, {"name": "PartitionedCall/model/tf.compat.v1.pad/Pad", "op": "Pad", "input": ["x", "6438"], "attr": {"T": {"type": "DT_FLOAT"}, "Tpaddings": {"type": "DT_INT32"}}}, {"name": "PartitionedCall/model/tf.nn.convolution/convolution", "op": "Conv2D", "input": ["PartitionedCall/model/tf.compat.v1.pad/Pad", "6440"], "device": "/device:CPU:0", "attr": {"dilations": {"list": {"i": ["1", "1", "1", "1"]}}, "padding": {"s": "VkFMSUQ="}, "use_cudnn_on_gpu": {"b": true}, "explicit_paddings": {"list": {}}, "T": {"type": "DT_FLOAT"}, "strides": {"list": {"i": ["1", "2", "2", "1"]}}, "data_format": {"s": "TkhXQw=="}}}, {"name": "PartitionedCall/model/tf.math.add/Add", "op": "AddV2", "input": ["PartitionedCall/model/tf.nn.convolution/convolution", "6442"], "attr": {"T": {"type": "DT_FLOAT"}}}, {"name": "PartitionedCall/model/tf.nn.relu/Relu", "op": "Relu", "input": ["PartitionedCall/model/tf.math.add/Add"], "attr": {"T": {"type": "DT_FLOAT"}}}, {"name": "PartitionedCall/model/tf.compat.v1.pad_1/Pad", "op": "Pad", "input": ["PartitionedCall/model/tf.nn.relu/Relu", "6444"], "attr": {"Tpaddings": {"type": "DT_INT32"}, "T": {"type": "DT_FLOAT"}}}, {"name": "PartitionedCall/model/tf.nn.convolution_1/convolution", "op": "Conv2D", "input": ["PartitionedCall/model/tf.compat.v1.pad_1/Pad", "6446"], "device": "/device:CPU:0", "attr": {"use_cudnn_on_gpu": {"b": true}, "padding": {"s": "VkFMSUQ="}, "T": {"type": "DT_FLOAT"}, "strides": {"list": {"i": ["1", "2", "2", "1"]}}, "dilations": {"list": {"i": ["1", "1", "1", "1"]}}, "data_format": {"s": "TkhXQw=="}, "explicit_paddings": {"list": {}}}}, {"name": "PartitionedCall/model/tf.math.add_1/Add", "op": "AddV2", "input": ["PartitionedCall/model/tf.nn.convolution_1/convolution", "6448"], "attr": {"T": {"type": "DT_FLOAT"}}}, {"name": "PartitionedCall/model/tf.nn.relu_1/Relu", "op": "Relu", "input": ["PartitionedCall/model/tf.math.add_1/Add"], "attr": {"T": {"type": "DT_FLOAT"}}}, {"name": "PartitionedCall/model/tf.nn.convolution_2/convolution", "op": "Conv2D", "input": ["PartitionedCall/model/tf.nn.relu_1/Relu", "6450"], "device": "/device:CPU:0", "attr": {"padding": {"s": "U0FNRQ=="}, "data_format": {"s": "TkhXQw=="}, "T": {"type": "DT_FLOAT"}, "dilations": {"list": {"i": ["1", "1", "1", "1"]}}, "explicit_paddings": {"list": {}}, "use_cudnn_on_gpu": {"b": true}, "strides": {"list": {"i": ["1", "1", "1", "1"]}}}}, {"name": "PartitionedCall/model/tf.math.add_2/Add", "op": "AddV2", "input": ["PartitionedCall/model/tf.nn.convolution_2/convolution", "6452"], "attr": {"T": {"type": "DT_FLOAT"}}}, {"name": "PartitionedCall/model/tf.nn.relu_2/Relu", "op": "Relu", "input": ["PartitionedCall/model/tf.math.add_2/Add"], "attr": {"T": {"type": "DT_FLOAT"}}}, {"name": "PartitionedCall/model/tf.strided_slice/StridedSlice", "op": "StridedSlice", "input": ["PartitionedCall/model/tf.nn.relu_2/Relu", "6466", "6468", "PartitionedCall/model/tf.strided_slice/ones_like"], "attr": {"T": {"type": "DT_FLOAT"}, "new_axis_mask": {"i": "0"}, "ellipsis_mask": {"i": "0"}, "begin_mask": {"i": "15"}, "end_mask": {"i": "7"}, "shrink_axis_mask": {"i": "0"}, "Index": {"type": "DT_INT64"}}}, {"name": "PartitionedCall/model/tf.strided_slice_1/StridedSlice", "op": "StridedSlice", "input": ["PartitionedCall/model/tf.nn.relu_2/Relu", "6454", "6456", "PartitionedCall/model/tf.strided_slice_1/ones_like"], "attr": {"T": {"type": "DT_FLOAT"}, "ellipsis_mask": {"i": "0"}, "new_axis_mask": {"i": "0"}, "Index": {"type": "DT_INT64"}, "end_mask": {"i": "7"}, "shrink_axis_mask": {"i": "0"}, "begin_mask": {"i": "7"}}}, {"name": "PartitionedCall/model/tf.nn.convolution_3/convolution", "op": "Conv2D", "input": ["PartitionedCall/model/tf.strided_slice_1/StridedSlice", "6458"], "device": "/device:CPU:0", "attr": {"padding": {"s": "U0FNRQ=="}, "dilations": {"list": {"i": ["1", "1", "1", "1"]}}, "use_cudnn_on_gpu": {"b": true}, "data_format": {"s": "TkhXQw=="}, "T": {"type": "DT_FLOAT"}, "explicit_paddings": {"list": {}}, "strides": {"list": {"i": ["1", "1", "1", "1"]}}}}, {"name": "PartitionedCall/model/tf.math.add_3/Add", "op": "AddV2", "input": ["PartitionedCall/model/tf.nn.convolution_3/convolution", "6460"], "attr": {"T": {"type": "DT_FLOAT"}}}, {"name": "PartitionedCall/model/tf.nn.relu_3/Relu", "op": "Relu", "input": ["PartitionedCall/model/tf.math.add_3/Add"], "attr": {"T": {"type": "DT_FLOAT"}}}, {"name": "PartitionedCall/model/tf.nn.convolution_4/convolution", "op": "Conv2D", "input": ["PartitionedCall/model/tf.nn.relu_3/Relu", "6462"], "device": "/device:CPU:0", "attr": {"strides": {"list": {"i": ["1", "1", "1", "1"]}}, "T": {"type": "DT_FLOAT"}, "explicit_paddings": {"list": {}}, "padding": {"s": "U0FNRQ=="}, "data_format": {"s": "TkhXQw=="}, "dilations": {"list": {"i": ["1", "1", "1", "1"]}}, "use_cudnn_on_gpu": {"b": true}}}, {"name": "PartitionedCall/model/tf.math.add_4/Add", "op": "AddV2", "input": ["PartitionedCall/model/tf.nn.convolution_4/convolution", "6464"], "attr": {"T": {"type": "DT_FLOAT"}}}, {"name": "PartitionedCall/model/tf.nn.relu_4/Relu", "op": "Relu", "input": ["PartitionedCall/model/tf.math.add_4/Add"], "attr": {"T": {"type": "DT_FLOAT"}}}, {"name": "PartitionedCall/model/tf.math.add_5/Add", "op": "AddV2", "input": ["PartitionedCall/model/tf.strided_slice_1/StridedSlice", "PartitionedCall/model/tf.nn.relu_4/Relu"], "attr": {"T": {"type": "DT_FLOAT"}}}, {"name": "PartitionedCall/model/tf.concat/concat", "op": "ConcatV2", "input": ["PartitionedCall/model/tf.strided_slice/StridedSlice", "PartitionedCall/model/tf.strided_slice_1/StridedSlice", "PartitionedCall/model/tf.math.add_5/Add", "PartitionedCall/model/tf.concat/concat/axis"], "attr": {"Tidx": {"type": "DT_INT32"}, "T": {"type": "DT_FLOAT"}, "N": {"i": "3"}}}, {"name": "PartitionedCall/model/tf.nn.convolution_5/convolution", "op": "Conv2D", "input": ["PartitionedCall/model/tf.concat/concat", "6470"], "device": "/device:CPU:0", "attr": {"explicit_paddings": {"list": {}}, "data_format": {"s": "TkhXQw=="}, "padding": {"s": "U0FNRQ=="}, "strides": {"list": {"i": ["1", "1", "1", "1"]}}, "dilations": {"list": {"i": ["1", "1", "1", "1"]}}, "T": {"type": "DT_FLOAT"}, "use_cudnn_on_gpu": {"b": true}}}, {"name": "PartitionedCall/model/tf.math.add_6/Add", "op": "AddV2", "input": ["PartitionedCall/model/tf.nn.convolution_5/convolution", "6472"], "attr": {"T": {"type": "DT_FLOAT"}}}, {"name": "PartitionedCall/model/tf.nn.relu_5/Relu", "op": "Relu", "input": ["PartitionedCall/model/tf.math.add_6/Add"], "attr": {"T": {"type": "DT_FLOAT"}}}, {"name": "PartitionedCall/model/tf.compat.v1.pad_2/Pad", "op": "Pad", "input": ["PartitionedCall/model/tf.nn.relu_5/Relu", "6474"], "attr": {"Tpaddings": {"type": "DT_INT32"}, "T": {"type": "DT_FLOAT"}}}, {"name": "PartitionedCall/model/tf.nn.convolution_6/convolution", "op": "Conv2D", "input": ["PartitionedCall/model/tf.compat.v1.pad_2/Pad", "6476"], "device": "/device:CPU:0", "attr": {"padding": {"s": "VkFMSUQ="}, "strides": {"list": {"i": ["1", "2", "2", "1"]}}, "dilations": {"list": {"i": ["1", "1", "1", "1"]}}, "T": {"type": "DT_FLOAT"}, "use_cudnn_on_gpu": {"b": true}, "explicit_paddings": {"list": {}}, "data_format": {"s": "TkhXQw=="}}}, {"name": "PartitionedCall/model/tf.math.add_7/Add", "op": "AddV2", "input": ["PartitionedCall/model/tf.nn.convolution_6/convolution", "6478"], "attr": {"T": {"type": "DT_FLOAT"}}}, {"name": "PartitionedCall/model/tf.nn.relu_6/Relu", "op": "Relu", "input": ["PartitionedCall/model/tf.math.add_7/Add"], "attr": {"T": {"type": "DT_FLOAT"}}}, {"name": "PartitionedCall/model/tf.nn.convolution_7/convolution", "op": "Conv2D", "input": ["PartitionedCall/model/tf.nn.relu_6/Relu", "6480"], "device": "/device:CPU:0", "attr": {"dilations": {"list": {"i": ["1", "1", "1", "1"]}}, "use_cudnn_on_gpu": {"b": true}, "T": {"type": "DT_FLOAT"}, "explicit_paddings": {"list": {}}, "data_format": {"s": "TkhXQw=="}, "padding": {"s": "U0FNRQ=="}, "strides": {"list": {"i": ["1", "1", "1", "1"]}}}}, {"name": "PartitionedCall/model/tf.math.add_8/Add", "op": "AddV2", "input": ["PartitionedCall/model/tf.nn.convolution_7/convolution", "6482"], "attr": {"T": {"type": "DT_FLOAT"}}}, {"name": "PartitionedCall/model/tf.nn.relu_7/Relu", "op": "Relu", "input": ["PartitionedCall/model/tf.math.add_8/Add"], "attr": {"T": {"type": "DT_FLOAT"}}}, {"name": "PartitionedCall/model/tf.strided_slice_2/StridedSlice", "op": "StridedSlice", "input": ["PartitionedCall/model/tf.nn.relu_7/Relu", "6504", "6506", "PartitionedCall/model/tf.strided_slice_2/ones_like"], "attr": {"new_axis_mask": {"i": "0"}, "T": {"type": "DT_FLOAT"}, "shrink_axis_mask": {"i": "0"}, "Index": {"type": "DT_INT64"}, "ellipsis_mask": {"i": "0"}, "end_mask": {"i": "7"}, "begin_mask": {"i": "15"}}}, {"name": "PartitionedCall/model/tf.strided_slice_3/StridedSlice", "op": "StridedSlice", "input": ["PartitionedCall/model/tf.nn.relu_7/Relu", "6484", "6486", "PartitionedCall/model/tf.strided_slice_3/ones_like"], "attr": {"new_axis_mask": {"i": "0"}, "end_mask": {"i": "7"}, "begin_mask": {"i": "7"}, "Index": {"type": "DT_INT64"}, "shrink_axis_mask": {"i": "0"}, "T": {"type": "DT_FLOAT"}, "ellipsis_mask": {"i": "0"}}}, {"name": "PartitionedCall/model/tf.nn.convolution_8/convolution", "op": "Conv2D", "input": ["PartitionedCall/model/tf.strided_slice_3/StridedSlice", "6488"], "device": "/device:CPU:0", "attr": {"explicit_paddings": {"list": {}}, "dilations": {"list": {"i": ["1", "1", "1", "1"]}}, "padding": {"s": "U0FNRQ=="}, "use_cudnn_on_gpu": {"b": true}, "T": {"type": "DT_FLOAT"}, "data_format": {"s": "TkhXQw=="}, "strides": {"list": {"i": ["1", "1", "1", "1"]}}}}, {"name": "PartitionedCall/model/tf.math.add_9/Add", "op": "AddV2", "input": ["PartitionedCall/model/tf.nn.convolution_8/convolution", "6490"], "attr": {"T": {"type": "DT_FLOAT"}}}, {"name": "PartitionedCall/model/tf.nn.relu_8/Relu", "op": "Relu", "input": ["PartitionedCall/model/tf.math.add_9/Add"], "attr": {"T": {"type": "DT_FLOAT"}}}, {"name": "PartitionedCall/model/tf.nn.convolution_9/convolution", "op": "Conv2D", "input": ["PartitionedCall/model/tf.nn.relu_8/Relu", "6492"], "device": "/device:CPU:0", "attr": {"T": {"type": "DT_FLOAT"}, "use_cudnn_on_gpu": {"b": true}, "dilations": {"list": {"i": ["1", "1", "1", "1"]}}, "data_format": {"s": "TkhXQw=="}, "strides": {"list": {"i": ["1", "1", "1", "1"]}}, "padding": {"s": "U0FNRQ=="}, "explicit_paddings": {"list": {}}}}, {"name": "PartitionedCall/model/tf.math.add_10/Add", "op": "AddV2", "input": ["PartitionedCall/model/tf.nn.convolution_9/convolution", "6494"], "attr": {"T": {"type": "DT_FLOAT"}}}, {"name": "PartitionedCall/model/tf.nn.relu_9/Relu", "op": "Relu", "input": ["PartitionedCall/model/tf.math.add_10/Add"], "attr": {"T": {"type": "DT_FLOAT"}}}, {"name": "PartitionedCall/model/tf.math.add_11/Add", "op": "AddV2", "input": ["PartitionedCall/model/tf.strided_slice_3/StridedSlice", "PartitionedCall/model/tf.nn.relu_9/Relu"], "attr": {"T": {"type": "DT_FLOAT"}}}, {"name": "PartitionedCall/model/tf.nn.convolution_10/convolution", "op": "Conv2D", "input": ["PartitionedCall/model/tf.math.add_11/Add", "6496"], "device": "/device:CPU:0", "attr": {"explicit_paddings": {"list": {}}, "data_format": {"s": "TkhXQw=="}, "use_cudnn_on_gpu": {"b": true}, "padding": {"s": "U0FNRQ=="}, "strides": {"list": {"i": ["1", "1", "1", "1"]}}, "dilations": {"list": {"i": ["1", "1", "1", "1"]}}, "T": {"type": "DT_FLOAT"}}}, {"name": "PartitionedCall/model/tf.math.add_12/Add", "op": "AddV2", "input": ["PartitionedCall/model/tf.nn.convolution_10/convolution", "6498"], "attr": {"T": {"type": "DT_FLOAT"}}}, {"name": "PartitionedCall/model/tf.nn.relu_10/Relu", "op": "Relu", "input": ["PartitionedCall/model/tf.math.add_12/Add"], "attr": {"T": {"type": "DT_FLOAT"}}}, {"name": "PartitionedCall/model/tf.nn.convolution_11/convolution", "op": "Conv2D", "input": ["PartitionedCall/model/tf.nn.relu_10/Relu", "6500"], "device": "/device:CPU:0", "attr": {"explicit_paddings": {"list": {}}, "T": {"type": "DT_FLOAT"}, "strides": {"list": {"i": ["1", "1", "1", "1"]}}, "data_format": {"s": "TkhXQw=="}, "dilations": {"list": {"i": ["1", "1", "1", "1"]}}, "use_cudnn_on_gpu": {"b": true}, "padding": {"s": "U0FNRQ=="}}}, {"name": "PartitionedCall/model/tf.math.add_13/Add", "op": "AddV2", "input": ["PartitionedCall/model/tf.nn.convolution_11/convolution", "6502"], "attr": {"T": {"type": "DT_FLOAT"}}}, {"name": "PartitionedCall/model/tf.nn.relu_11/Relu", "op": "Relu", "input": ["PartitionedCall/model/tf.math.add_13/Add"], "attr": {"T": {"type": "DT_FLOAT"}}}, {"name": "PartitionedCall/model/tf.math.add_14/Add", "op": "AddV2", "input": ["PartitionedCall/model/tf.math.add_11/Add", "PartitionedCall/model/tf.nn.relu_11/Relu"], "attr": {"T": {"type": "DT_FLOAT"}}}, {"name": "PartitionedCall/model/tf.concat_1/concat", "op": "ConcatV2", "input": ["PartitionedCall/model/tf.strided_slice_2/StridedSlice", "PartitionedCall/model/tf.strided_slice_3/StridedSlice", "PartitionedCall/model/tf.math.add_11/Add", "PartitionedCall/model/tf.math.add_14/Add", "PartitionedCall/model/tf.concat_1/concat/axis"], "attr": {"Tidx": {"type": "DT_INT32"}, "T": {"type": "DT_FLOAT"}, "N": {"i": "4"}}}, {"name": "PartitionedCall/model/tf.nn.convolution_12/convolution", "op": "Conv2D", "input": ["PartitionedCall/model/tf.concat_1/concat", "6508"], "device": "/device:CPU:0", "attr": {"use_cudnn_on_gpu": {"b": true}, "T": {"type": "DT_FLOAT"}, "explicit_paddings": {"list": {}}, "data_format": {"s": "TkhXQw=="}, "padding": {"s": "U0FNRQ=="}, "strides": {"list": {"i": ["1", "1", "1", "1"]}}, "dilations": {"list": {"i": ["1", "1", "1", "1"]}}}}, {"name": "PartitionedCall/model/tf.math.add_15/Add", "op": "AddV2", "input": ["PartitionedCall/model/tf.nn.convolution_12/convolution", "6510"], "attr": {"T": {"type": "DT_FLOAT"}}}, {"name": "PartitionedCall/model/tf.nn.relu_12/Relu", "op": "Relu", "input": ["PartitionedCall/model/tf.math.add_15/Add"], "attr": {"T": {"type": "DT_FLOAT"}}}, {"name": "PartitionedCall/model/tf.compat.v1.pad_3/Pad", "op": "Pad", "input": ["PartitionedCall/model/tf.nn.relu_12/Relu", "6512"], "attr": {"Tpaddings": {"type": "DT_INT32"}, "T": {"type": "DT_FLOAT"}}}, {"name": "PartitionedCall/model/tf.nn.convolution_13/convolution", "op": "Conv2D", "input": ["PartitionedCall/model/tf.compat.v1.pad_3/Pad", "6514"], "device": "/device:CPU:0", "attr": {"padding": {"s": "VkFMSUQ="}, "strides": {"list": {"i": ["1", "2", "2", "1"]}}, "dilations": {"list": {"i": ["1", "1", "1", "1"]}}, "explicit_paddings": {"list": {}}, "use_cudnn_on_gpu": {"b": true}, "data_format": {"s": "TkhXQw=="}, "T": {"type": "DT_FLOAT"}}}, {"name": "PartitionedCall/model/tf.math.add_16/Add", "op": "AddV2", "input": ["PartitionedCall/model/tf.nn.convolution_13/convolution", "6516"], "attr": {"T": {"type": "DT_FLOAT"}}}, {"name": "PartitionedCall/model/tf.nn.relu_13/Relu", "op": "Relu", "input": ["PartitionedCall/model/tf.math.add_16/Add"], "attr": {"T": {"type": "DT_FLOAT"}}}, {"name": "PartitionedCall/model/tf.nn.convolution_14/convolution", "op": "Conv2D", "input": ["PartitionedCall/model/tf.nn.relu_13/Relu", "6518"], "device": "/device:CPU:0", "attr": {"dilations": {"list": {"i": ["1", "1", "1", "1"]}}, "T": {"type": "DT_FLOAT"}, "padding": {"s": "U0FNRQ=="}, "strides": {"list": {"i": ["1", "1", "1", "1"]}}, "data_format": {"s": "TkhXQw=="}, "use_cudnn_on_gpu": {"b": true}, "explicit_paddings": {"list": {}}}}, {"name": "PartitionedCall/model/tf.math.add_17/Add", "op": "AddV2", "input": ["PartitionedCall/model/tf.nn.convolution_14/convolution", "6520"], "attr": {"T": {"type": "DT_FLOAT"}}}, {"name": "PartitionedCall/model/tf.nn.relu_14/Relu", "op": "Relu", "input": ["PartitionedCall/model/tf.math.add_17/Add"], "attr": {"T": {"type": "DT_FLOAT"}}}, {"name": "PartitionedCall/model/tf.strided_slice_4/StridedSlice", "op": "StridedSlice", "input": ["PartitionedCall/model/tf.nn.relu_14/Relu", "6542", "6544", "PartitionedCall/model/tf.strided_slice_4/ones_like"], "attr": {"T": {"type": "DT_FLOAT"}, "begin_mask": {"i": "15"}, "shrink_axis_mask": {"i": "0"}, "end_mask": {"i": "7"}, "ellipsis_mask": {"i": "0"}, "Index": {"type": "DT_INT64"}, "new_axis_mask": {"i": "0"}}}, {"name": "PartitionedCall/model/tf.strided_slice_5/StridedSlice", "op": "StridedSlice", "input": ["PartitionedCall/model/tf.nn.relu_14/Relu", "6522", "6524", "PartitionedCall/model/tf.strided_slice_5/ones_like"], "attr": {"begin_mask": {"i": "7"}, "ellipsis_mask": {"i": "0"}, "end_mask": {"i": "7"}, "shrink_axis_mask": {"i": "0"}, "Index": {"type": "DT_INT64"}, "T": {"type": "DT_FLOAT"}, "new_axis_mask": {"i": "0"}}}, {"name": "PartitionedCall/model/tf.nn.convolution_15/convolution", "op": "Conv2D", "input": ["PartitionedCall/model/tf.strided_slice_5/StridedSlice", "6526"], "device": "/device:CPU:0", "attr": {"use_cudnn_on_gpu": {"b": true}, "strides": {"list": {"i": ["1", "1", "1", "1"]}}, "dilations": {"list": {"i": ["1", "1", "1", "1"]}}, "padding": {"s": "U0FNRQ=="}, "data_format": {"s": "TkhXQw=="}, "T": {"type": "DT_FLOAT"}, "explicit_paddings": {"list": {}}}}, {"name": "PartitionedCall/model/tf.math.add_18/Add", "op": "AddV2", "input": ["PartitionedCall/model/tf.nn.convolution_15/convolution", "6528"], "attr": {"T": {"type": "DT_FLOAT"}}}, {"name": "PartitionedCall/model/tf.nn.relu_15/Relu", "op": "Relu", "input": ["PartitionedCall/model/tf.math.add_18/Add"], "attr": {"T": {"type": "DT_FLOAT"}}}, {"name": "PartitionedCall/model/tf.nn.convolution_16/convolution", "op": "Conv2D", "input": ["PartitionedCall/model/tf.nn.relu_15/Relu", "6530"], "device": "/device:CPU:0", "attr": {"data_format": {"s": "TkhXQw=="}, "dilations": {"list": {"i": ["1", "1", "1", "1"]}}, "use_cudnn_on_gpu": {"b": true}, "explicit_paddings": {"list": {}}, "strides": {"list": {"i": ["1", "1", "1", "1"]}}, "T": {"type": "DT_FLOAT"}, "padding": {"s": "U0FNRQ=="}}}, {"name": "PartitionedCall/model/tf.math.add_19/Add", "op": "AddV2", "input": ["PartitionedCall/model/tf.nn.convolution_16/convolution", "6532"], "attr": {"T": {"type": "DT_FLOAT"}}}, {"name": "PartitionedCall/model/tf.nn.relu_16/Relu", "op": "Relu", "input": ["PartitionedCall/model/tf.math.add_19/Add"], "attr": {"T": {"type": "DT_FLOAT"}}}, {"name": "PartitionedCall/model/tf.math.add_20/Add", "op": "AddV2", "input": ["PartitionedCall/model/tf.strided_slice_5/StridedSlice", "PartitionedCall/model/tf.nn.relu_16/Relu"], "attr": {"T": {"type": "DT_FLOAT"}}}, {"name": "PartitionedCall/model/tf.nn.convolution_17/convolution", "op": "Conv2D", "input": ["PartitionedCall/model/tf.math.add_20/Add", "6534"], "device": "/device:CPU:0", "attr": {"explicit_paddings": {"list": {}}, "data_format": {"s": "TkhXQw=="}, "T": {"type": "DT_FLOAT"}, "strides": {"list": {"i": ["1", "1", "1", "1"]}}, "dilations": {"list": {"i": ["1", "1", "1", "1"]}}, "use_cudnn_on_gpu": {"b": true}, "padding": {"s": "U0FNRQ=="}}}, {"name": "PartitionedCall/model/tf.math.add_21/Add", "op": "AddV2", "input": ["PartitionedCall/model/tf.nn.convolution_17/convolution", "6536"], "attr": {"T": {"type": "DT_FLOAT"}}}, {"name": "PartitionedCall/model/tf.nn.relu_17/Relu", "op": "Relu", "input": ["PartitionedCall/model/tf.math.add_21/Add"], "attr": {"T": {"type": "DT_FLOAT"}}}, {"name": "PartitionedCall/model/tf.nn.convolution_18/convolution", "op": "Conv2D", "input": ["PartitionedCall/model/tf.nn.relu_17/Relu", "6538"], "device": "/device:CPU:0", "attr": {"data_format": {"s": "TkhXQw=="}, "T": {"type": "DT_FLOAT"}, "strides": {"list": {"i": ["1", "1", "1", "1"]}}, "padding": {"s": "U0FNRQ=="}, "use_cudnn_on_gpu": {"b": true}, "dilations": {"list": {"i": ["1", "1", "1", "1"]}}, "explicit_paddings": {"list": {}}}}, {"name": "PartitionedCall/model/tf.math.add_22/Add", "op": "AddV2", "input": ["PartitionedCall/model/tf.nn.convolution_18/convolution", "6540"], "attr": {"T": {"type": "DT_FLOAT"}}}, {"name": "PartitionedCall/model/tf.nn.relu_18/Relu", "op": "Relu", "input": ["PartitionedCall/model/tf.math.add_22/Add"], "attr": {"T": {"type": "DT_FLOAT"}}}, {"name": "PartitionedCall/model/tf.math.add_23/Add", "op": "AddV2", "input": ["PartitionedCall/model/tf.math.add_20/Add", "PartitionedCall/model/tf.nn.relu_18/Relu"], "attr": {"T": {"type": "DT_FLOAT"}}}, {"name": "PartitionedCall/model/tf.concat_2/concat", "op": "ConcatV2", "input": ["PartitionedCall/model/tf.strided_slice_4/StridedSlice", "PartitionedCall/model/tf.strided_slice_5/StridedSlice", "PartitionedCall/model/tf.math.add_20/Add", "PartitionedCall/model/tf.math.add_23/Add", "PartitionedCall/model/tf.concat_2/concat/axis"], "attr": {"T": {"type": "DT_FLOAT"}, "N": {"i": "4"}, "Tidx": {"type": "DT_INT32"}}}, {"name": "PartitionedCall/model/tf.nn.convolution_19/convolution", "op": "Conv2D", "input": ["PartitionedCall/model/tf.concat_2/concat", "6546"], "device": "/device:CPU:0", "attr": {"dilations": {"list": {"i": ["1", "1", "1", "1"]}}, "use_cudnn_on_gpu": {"b": true}, "padding": {"s": "U0FNRQ=="}, "T": {"type": "DT_FLOAT"}, "data_format": {"s": "TkhXQw=="}, "strides": {"list": {"i": ["1", "1", "1", "1"]}}, "explicit_paddings": {"list": {}}}}, {"name": "PartitionedCall/model/tf.math.add_24/Add", "op": "AddV2", "input": ["PartitionedCall/model/tf.nn.convolution_19/convolution", "6548"], "attr": {"T": {"type": "DT_FLOAT"}}}, {"name": "PartitionedCall/model/tf.nn.relu_19/Relu", "op": "Relu", "input": ["PartitionedCall/model/tf.math.add_24/Add"], "attr": {"T": {"type": "DT_FLOAT"}}}, {"name": "PartitionedCall/model/tf.compat.v1.pad_4/Pad", "op": "Pad", "input": ["PartitionedCall/model/tf.nn.relu_19/Relu", "6550"], "attr": {"Tpaddings": {"type": "DT_INT32"}, "T": {"type": "DT_FLOAT"}}}, {"name": "PartitionedCall/model/tf.nn.convolution_20/convolution", "op": "Conv2D", "input": ["PartitionedCall/model/tf.compat.v1.pad_4/Pad", "6552"], "device": "/device:CPU:0", "attr": {"data_format": {"s": "TkhXQw=="}, "dilations": {"list": {"i": ["1", "1", "1", "1"]}}, "T": {"type": "DT_FLOAT"}, "use_cudnn_on_gpu": {"b": true}, "padding": {"s": "VkFMSUQ="}, "strides": {"list": {"i": ["1", "2", "2", "1"]}}, "explicit_paddings": {"list": {}}}}, {"name": "PartitionedCall/model/tf.math.add_25/Add", "op": "AddV2", "input": ["PartitionedCall/model/tf.nn.convolution_20/convolution", "6554"], "attr": {"T": {"type": "DT_FLOAT"}}}, {"name": "PartitionedCall/model/tf.nn.relu_20/Relu", "op": "Relu", "input": ["PartitionedCall/model/tf.math.add_25/Add"], "attr": {"T": {"type": "DT_FLOAT"}}}, {"name": "PartitionedCall/model/tf.nn.convolution_21/convolution", "op": "Conv2D", "input": ["PartitionedCall/model/tf.nn.relu_20/Relu", "6556"], "device": "/device:CPU:0", "attr": {"padding": {"s": "U0FNRQ=="}, "dilations": {"list": {"i": ["1", "1", "1", "1"]}}, "strides": {"list": {"i": ["1", "1", "1", "1"]}}, "data_format": {"s": "TkhXQw=="}, "T": {"type": "DT_FLOAT"}, "use_cudnn_on_gpu": {"b": true}, "explicit_paddings": {"list": {}}}}, {"name": "PartitionedCall/model/tf.math.add_26/Add", "op": "AddV2", "input": ["PartitionedCall/model/tf.nn.convolution_21/convolution", "6558"], "attr": {"T": {"type": "DT_FLOAT"}}}, {"name": "PartitionedCall/model/tf.nn.relu_21/Relu", "op": "Relu", "input": ["PartitionedCall/model/tf.math.add_26/Add"], "attr": {"T": {"type": "DT_FLOAT"}}}, {"name": "PartitionedCall/model/tf.strided_slice_6/StridedSlice", "op": "StridedSlice", "input": ["PartitionedCall/model/tf.nn.relu_21/Relu", "6572", "6574", "PartitionedCall/model/tf.strided_slice_6/ones_like"], "attr": {"shrink_axis_mask": {"i": "0"}, "ellipsis_mask": {"i": "0"}, "Index": {"type": "DT_INT64"}, "begin_mask": {"i": "15"}, "new_axis_mask": {"i": "0"}, "end_mask": {"i": "7"}, "T": {"type": "DT_FLOAT"}}}, {"name": "PartitionedCall/model/tf.strided_slice_7/StridedSlice", "op": "StridedSlice", "input": ["PartitionedCall/model/tf.nn.relu_21/Relu", "6560", "6562", "PartitionedCall/model/tf.strided_slice_7/ones_like"], "attr": {"shrink_axis_mask": {"i": "0"}, "end_mask": {"i": "7"}, "new_axis_mask": {"i": "0"}, "T": {"type": "DT_FLOAT"}, "Index": {"type": "DT_INT64"}, "ellipsis_mask": {"i": "0"}, "begin_mask": {"i": "7"}}}, {"name": "PartitionedCall/model/tf.nn.convolution_22/convolution", "op": "Conv2D", "input": ["PartitionedCall/model/tf.strided_slice_7/StridedSlice", "6564"], "device": "/device:CPU:0", "attr": {"padding": {"s": "U0FNRQ=="}, "T": {"type": "DT_FLOAT"}, "data_format": {"s": "TkhXQw=="}, "strides": {"list": {"i": ["1", "1", "1", "1"]}}, "dilations": {"list": {"i": ["1", "1", "1", "1"]}}, "explicit_paddings": {"list": {}}, "use_cudnn_on_gpu": {"b": true}}}, {"name": "PartitionedCall/model/tf.math.add_27/Add", "op": "AddV2", "input": ["PartitionedCall/model/tf.nn.convolution_22/convolution", "6566"], "attr": {"T": {"type": "DT_FLOAT"}}}, {"name": "PartitionedCall/model/tf.nn.relu_22/Relu", "op": "Relu", "input": ["PartitionedCall/model/tf.math.add_27/Add"], "attr": {"T": {"type": "DT_FLOAT"}}}, {"name": "PartitionedCall/model/tf.nn.convolution_23/convolution", "op": "Conv2D", "input": ["PartitionedCall/model/tf.nn.relu_22/Relu", "6568"], "device": "/device:CPU:0", "attr": {"strides": {"list": {"i": ["1", "1", "1", "1"]}}, "T": {"type": "DT_FLOAT"}, "data_format": {"s": "TkhXQw=="}, "padding": {"s": "U0FNRQ=="}, "dilations": {"list": {"i": ["1", "1", "1", "1"]}}, "use_cudnn_on_gpu": {"b": true}, "explicit_paddings": {"list": {}}}}, {"name": "PartitionedCall/model/tf.math.add_28/Add", "op": "AddV2", "input": ["PartitionedCall/model/tf.nn.convolution_23/convolution", "6570"], "attr": {"T": {"type": "DT_FLOAT"}}}, {"name": "PartitionedCall/model/tf.nn.relu_23/Relu", "op": "Relu", "input": ["PartitionedCall/model/tf.math.add_28/Add"], "attr": {"T": {"type": "DT_FLOAT"}}}, {"name": "PartitionedCall/model/tf.math.add_29/Add", "op": "AddV2", "input": ["PartitionedCall/model/tf.strided_slice_7/StridedSlice", "PartitionedCall/model/tf.nn.relu_23/Relu"], "attr": {"T": {"type": "DT_FLOAT"}}}, {"name": "PartitionedCall/model/tf.concat_3/concat", "op": "ConcatV2", "input": ["PartitionedCall/model/tf.strided_slice_6/StridedSlice", "PartitionedCall/model/tf.strided_slice_7/StridedSlice", "PartitionedCall/model/tf.math.add_29/Add", "PartitionedCall/model/tf.concat_3/concat/axis"], "attr": {"Tidx": {"type": "DT_INT32"}, "N": {"i": "3"}, "T": {"type": "DT_FLOAT"}}}, {"name": "PartitionedCall/model/tf.nn.convolution_24/convolution", "op": "Conv2D", "input": ["PartitionedCall/model/tf.concat_3/concat", "6576"], "device": "/device:CPU:0", "attr": {"T": {"type": "DT_FLOAT"}, "padding": {"s": "U0FNRQ=="}, "use_cudnn_on_gpu": {"b": true}, "strides": {"list": {"i": ["1", "1", "1", "1"]}}, "explicit_paddings": {"list": {}}, "data_format": {"s": "TkhXQw=="}, "dilations": {"list": {"i": ["1", "1", "1", "1"]}}}}, {"name": "PartitionedCall/model/tf.math.add_30/Add", "op": "AddV2", "input": ["PartitionedCall/model/tf.nn.convolution_24/convolution", "6578"], "attr": {"T": {"type": "DT_FLOAT"}}}, {"name": "PartitionedCall/model/tf.nn.relu_24/Relu", "op": "Relu", "input": ["PartitionedCall/model/tf.math.add_30/Add"], "attr": {"T": {"type": "DT_FLOAT"}}}, {"name": "PartitionedCall/model/tf.nn.convolution_25/convolution", "op": "Conv2D", "input": ["PartitionedCall/model/tf.nn.relu_24/Relu", "6580"], "device": "/device:CPU:0", "attr": {"explicit_paddings": {"list": {}}, "padding": {"s": "U0FNRQ=="}, "T": {"type": "DT_FLOAT"}, "strides": {"list": {"i": ["1", "1", "1", "1"]}}, "data_format": {"s": "TkhXQw=="}, "use_cudnn_on_gpu": {"b": true}, "dilations": {"list": {"i": ["1", "1", "1", "1"]}}}}, {"name": "PartitionedCall/model/tf.math.add_31/Add", "op": "AddV2", "input": ["PartitionedCall/model/tf.nn.convolution_25/convolution", "6582"], "attr": {"T": {"type": "DT_FLOAT"}}}, {"name": "PartitionedCall/model/tf.nn.relu_25/Relu", "op": "Relu", "input": ["PartitionedCall/model/tf.math.add_31/Add"], "attr": {"T": {"type": "DT_FLOAT"}}}, {"name": "PartitionedCall/model/tf.compat.v1.nn.pool/max_pool", "op": "MaxPool", "input": ["PartitionedCall/model/tf.nn.relu_25/Relu"], "attr": {"padding": {"s": "U0FNRQ=="}, "T": {"type": "DT_FLOAT"}, "ksize": {"list": {"i": ["1", "5", "5", "1"]}}, "strides": {"list": {"i": ["1", "1", "1", "1"]}}, "explicit_paddings": {"list": {}}, "data_format": {"s": "TkhXQw=="}}}, {"name": "PartitionedCall/model/tf.compat.v1.nn.pool_1/max_pool", "op": "MaxPool", "input": ["PartitionedCall/model/tf.compat.v1.nn.pool/max_pool"], "attr": {"data_format": {"s": "TkhXQw=="}, "T": {"type": "DT_FLOAT"}, "ksize": {"list": {"i": ["1", "5", "5", "1"]}}, "explicit_paddings": {"list": {}}, "padding": {"s": "U0FNRQ=="}, "strides": {"list": {"i": ["1", "1", "1", "1"]}}}}, {"name": "PartitionedCall/model/tf.compat.v1.nn.pool_2/max_pool", "op": "MaxPool", "input": ["PartitionedCall/model/tf.compat.v1.nn.pool_1/max_pool"], "attr": {"padding": {"s": "U0FNRQ=="}, "explicit_paddings": {"list": {}}, "ksize": {"list": {"i": ["1", "5", "5", "1"]}}, "T": {"type": "DT_FLOAT"}, "data_format": {"s": "TkhXQw=="}, "strides": {"list": {"i": ["1", "1", "1", "1"]}}}}, {"name": "PartitionedCall/model/tf.concat_4/concat", "op": "ConcatV2", "input": ["PartitionedCall/model/tf.nn.relu_25/Relu", "PartitionedCall/model/tf.compat.v1.nn.pool/max_pool", "PartitionedCall/model/tf.compat.v1.nn.pool_1/max_pool", "PartitionedCall/model/tf.compat.v1.nn.pool_2/max_pool", "PartitionedCall/model/tf.concat_4/concat/axis"], "attr": {"N": {"i": "4"}, "Tidx": {"type": "DT_INT32"}, "T": {"type": "DT_FLOAT"}}}, {"name": "PartitionedCall/model/tf.nn.convolution_26/convolution", "op": "Conv2D", "input": ["PartitionedCall/model/tf.concat_4/concat", "6584"], "device": "/device:CPU:0", "attr": {"strides": {"list": {"i": ["1", "1", "1", "1"]}}, "explicit_paddings": {"list": {}}, "padding": {"s": "U0FNRQ=="}, "T": {"type": "DT_FLOAT"}, "dilations": {"list": {"i": ["1", "1", "1", "1"]}}, "use_cudnn_on_gpu": {"b": true}, "data_format": {"s": "TkhXQw=="}}}, {"name": "PartitionedCall/model/tf.math.add_32/Add", "op": "AddV2", "input": ["PartitionedCall/model/tf.nn.convolution_26/convolution", "6586"], "attr": {"T": {"type": "DT_FLOAT"}}}, {"name": "PartitionedCall/model/tf.nn.relu_26/Relu", "op": "Relu", "input": ["PartitionedCall/model/tf.math.add_32/Add"], "attr": {"T": {"type": "DT_FLOAT"}}}, {"name": "PartitionedCall/model/lambda//model.10/Resize", "op": "ResizeNearestNeighbor", "input": ["PartitionedCall/model/tf.nn.relu_26/Relu", "PartitionedCall/model/lambda//model.10/Resize/size"], "attr": {"T": {"type": "DT_FLOAT"}, "align_corners": {"b": false}, "half_pixel_centers": {"b": false}}}, {"name": "PartitionedCall/model/tf.concat_5/concat", "op": "ConcatV2", "input": ["PartitionedCall/model/lambda//model.10/Resize", "PartitionedCall/model/tf.nn.relu_19/Relu", "PartitionedCall/model/tf.concat_5/concat/axis"], "attr": {"Tidx": {"type": "DT_INT32"}, "T": {"type": "DT_FLOAT"}, "N": {"i": "2"}}}, {"name": "PartitionedCall/model/tf.nn.convolution_27/convolution", "op": "Conv2D", "input": ["PartitionedCall/model/tf.concat_5/concat", "6588"], "device": "/device:CPU:0", "attr": {"dilations": {"list": {"i": ["1", "1", "1", "1"]}}, "explicit_paddings": {"list": {}}, "T": {"type": "DT_FLOAT"}, "data_format": {"s": "TkhXQw=="}, "strides": {"list": {"i": ["1", "1", "1", "1"]}}, "padding": {"s": "U0FNRQ=="}, "use_cudnn_on_gpu": {"b": true}}}, {"name": "PartitionedCall/model/tf.math.add_33/Add", "op": "AddV2", "input": ["PartitionedCall/model/tf.nn.convolution_27/convolution", "6590"], "attr": {"T": {"type": "DT_FLOAT"}}}, {"name": "PartitionedCall/model/tf.nn.relu_27/Relu", "op": "Relu", "input": ["PartitionedCall/model/tf.math.add_33/Add"], "attr": {"T": {"type": "DT_FLOAT"}}}, {"name": "PartitionedCall/model/tf.strided_slice_8/StridedSlice", "op": "StridedSlice", "input": ["PartitionedCall/model/tf.nn.relu_27/Relu", "6604", "6606", "PartitionedCall/model/tf.strided_slice_8/ones_like"], "attr": {"new_axis_mask": {"i": "0"}, "T": {"type": "DT_FLOAT"}, "Index": {"type": "DT_INT64"}, "shrink_axis_mask": {"i": "0"}, "ellipsis_mask": {"i": "0"}, "begin_mask": {"i": "15"}, "end_mask": {"i": "7"}}}, {"name": "PartitionedCall/model/tf.strided_slice_9/StridedSlice", "op": "StridedSlice", "input": ["PartitionedCall/model/tf.nn.relu_27/Relu", "6592", "6594", "PartitionedCall/model/tf.strided_slice_9/ones_like"], "attr": {"Index": {"type": "DT_INT64"}, "ellipsis_mask": {"i": "0"}, "begin_mask": {"i": "7"}, "end_mask": {"i": "7"}, "shrink_axis_mask": {"i": "0"}, "new_axis_mask": {"i": "0"}, "T": {"type": "DT_FLOAT"}}}, {"name": "PartitionedCall/model/tf.nn.convolution_28/convolution", "op": "Conv2D", "input": ["PartitionedCall/model/tf.strided_slice_9/StridedSlice", "6596"], "device": "/device:CPU:0", "attr": {"explicit_paddings": {"list": {}}, "T": {"type": "DT_FLOAT"}, "dilations": {"list": {"i": ["1", "1", "1", "1"]}}, "padding": {"s": "U0FNRQ=="}, "strides": {"list": {"i": ["1", "1", "1", "1"]}}, "data_format": {"s": "TkhXQw=="}, "use_cudnn_on_gpu": {"b": true}}}, {"name": "PartitionedCall/model/tf.math.add_34/Add", "op": "AddV2", "input": ["PartitionedCall/model/tf.nn.convolution_28/convolution", "6598"], "attr": {"T": {"type": "DT_FLOAT"}}}, {"name": "PartitionedCall/model/tf.nn.relu_28/Relu", "op": "Relu", "input": ["PartitionedCall/model/tf.math.add_34/Add"], "attr": {"T": {"type": "DT_FLOAT"}}}, {"name": "PartitionedCall/model/tf.nn.convolution_29/convolution", "op": "Conv2D", "input": ["PartitionedCall/model/tf.nn.relu_28/Relu", "6600"], "device": "/device:CPU:0", "attr": {"use_cudnn_on_gpu": {"b": true}, "dilations": {"list": {"i": ["1", "1", "1", "1"]}}, "strides": {"list": {"i": ["1", "1", "1", "1"]}}, "data_format": {"s": "TkhXQw=="}, "explicit_paddings": {"list": {}}, "padding": {"s": "U0FNRQ=="}, "T": {"type": "DT_FLOAT"}}}, {"name": "PartitionedCall/model/tf.math.add_35/Add", "op": "AddV2", "input": ["PartitionedCall/model/tf.nn.convolution_29/convolution", "6602"], "attr": {"T": {"type": "DT_FLOAT"}}}, {"name": "PartitionedCall/model/tf.nn.relu_29/Relu", "op": "Relu", "input": ["PartitionedCall/model/tf.math.add_35/Add"], "attr": {"T": {"type": "DT_FLOAT"}}}, {"name": "PartitionedCall/model/tf.concat_6/concat", "op": "ConcatV2", "input": ["PartitionedCall/model/tf.strided_slice_8/StridedSlice", "PartitionedCall/model/tf.strided_slice_9/StridedSlice", "PartitionedCall/model/tf.nn.relu_29/Relu", "PartitionedCall/model/tf.concat_6/concat/axis"], "attr": {"Tidx": {"type": "DT_INT32"}, "T": {"type": "DT_FLOAT"}, "N": {"i": "3"}}}, {"name": "PartitionedCall/model/tf.nn.convolution_30/convolution", "op": "Conv2D", "input": ["PartitionedCall/model/tf.concat_6/concat", "6608"], "device": "/device:CPU:0", "attr": {"data_format": {"s": "TkhXQw=="}, "use_cudnn_on_gpu": {"b": true}, "explicit_paddings": {"list": {}}, "dilations": {"list": {"i": ["1", "1", "1", "1"]}}, "strides": {"list": {"i": ["1", "1", "1", "1"]}}, "T": {"type": "DT_FLOAT"}, "padding": {"s": "U0FNRQ=="}}}, {"name": "PartitionedCall/model/tf.math.add_36/Add", "op": "AddV2", "input": ["PartitionedCall/model/tf.nn.convolution_30/convolution", "6610"], "attr": {"T": {"type": "DT_FLOAT"}}}, {"name": "PartitionedCall/model/tf.nn.relu_30/Relu", "op": "Relu", "input": ["PartitionedCall/model/tf.math.add_36/Add"], "attr": {"T": {"type": "DT_FLOAT"}}}, {"name": "PartitionedCall/model/lambda_1//model.13/Resize", "op": "ResizeNearestNeighbor", "input": ["PartitionedCall/model/tf.nn.relu_30/Relu", "PartitionedCall/model/lambda_1//model.13/Resize/size"], "attr": {"align_corners": {"b": false}, "T": {"type": "DT_FLOAT"}, "half_pixel_centers": {"b": false}}}, {"name": "PartitionedCall/model/tf.concat_7/concat", "op": "ConcatV2", "input": ["PartitionedCall/model/lambda_1//model.13/Resize", "PartitionedCall/model/tf.nn.relu_12/Relu", "PartitionedCall/model/tf.concat_7/concat/axis"], "attr": {"Tidx": {"type": "DT_INT32"}, "N": {"i": "2"}, "T": {"type": "DT_FLOAT"}}}, {"name": "PartitionedCall/model/tf.nn.convolution_31/convolution", "op": "Conv2D", "input": ["PartitionedCall/model/tf.concat_7/concat", "6612"], "device": "/device:CPU:0", "attr": {"dilations": {"list": {"i": ["1", "1", "1", "1"]}}, "explicit_paddings": {"list": {}}, "strides": {"list": {"i": ["1", "1", "1", "1"]}}, "padding": {"s": "U0FNRQ=="}, "data_format": {"s": "TkhXQw=="}, "use_cudnn_on_gpu": {"b": true}, "T": {"type": "DT_FLOAT"}}}, {"name": "PartitionedCall/model/tf.math.add_37/Add", "op": "AddV2", "input": ["PartitionedCall/model/tf.nn.convolution_31/convolution", "6614"], "attr": {"T": {"type": "DT_FLOAT"}}}, {"name": "PartitionedCall/model/tf.nn.relu_31/Relu", "op": "Relu", "input": ["PartitionedCall/model/tf.math.add_37/Add"], "attr": {"T": {"type": "DT_FLOAT"}}}, {"name": "PartitionedCall/model/tf.strided_slice_10/StridedSlice", "op": "StridedSlice", "input": ["PartitionedCall/model/tf.nn.relu_31/Relu", "6628", "6630", "PartitionedCall/model/tf.strided_slice_10/ones_like"], "attr": {"begin_mask": {"i": "15"}, "end_mask": {"i": "7"}, "Index": {"type": "DT_INT64"}, "ellipsis_mask": {"i": "0"}, "new_axis_mask": {"i": "0"}, "shrink_axis_mask": {"i": "0"}, "T": {"type": "DT_FLOAT"}}}, {"name": "PartitionedCall/model/tf.strided_slice_11/StridedSlice", "op": "StridedSlice", "input": ["PartitionedCall/model/tf.nn.relu_31/Relu", "6616", "6618", "PartitionedCall/model/tf.strided_slice_11/ones_like"], "attr": {"new_axis_mask": {"i": "0"}, "shrink_axis_mask": {"i": "0"}, "end_mask": {"i": "7"}, "Index": {"type": "DT_INT64"}, "begin_mask": {"i": "7"}, "T": {"type": "DT_FLOAT"}, "ellipsis_mask": {"i": "0"}}}, {"name": "PartitionedCall/model/tf.nn.convolution_32/convolution", "op": "Conv2D", "input": ["PartitionedCall/model/tf.strided_slice_11/StridedSlice", "6620"], "device": "/device:CPU:0", "attr": {"explicit_paddings": {"list": {}}, "strides": {"list": {"i": ["1", "1", "1", "1"]}}, "use_cudnn_on_gpu": {"b": true}, "data_format": {"s": "TkhXQw=="}, "dilations": {"list": {"i": ["1", "1", "1", "1"]}}, "T": {"type": "DT_FLOAT"}, "padding": {"s": "U0FNRQ=="}}}, {"name": "PartitionedCall/model/tf.math.add_38/Add", "op": "AddV2", "input": ["PartitionedCall/model/tf.nn.convolution_32/convolution", "6622"], "attr": {"T": {"type": "DT_FLOAT"}}}, {"name": "PartitionedCall/model/tf.nn.relu_32/Relu", "op": "Relu", "input": ["PartitionedCall/model/tf.math.add_38/Add"], "attr": {"T": {"type": "DT_FLOAT"}}}, {"name": "PartitionedCall/model/tf.nn.convolution_33/convolution", "op": "Conv2D", "input": ["PartitionedCall/model/tf.nn.relu_32/Relu", "6624"], "device": "/device:CPU:0", "attr": {"explicit_paddings": {"list": {}}, "T": {"type": "DT_FLOAT"}, "data_format": {"s": "TkhXQw=="}, "padding": {"s": "U0FNRQ=="}, "use_cudnn_on_gpu": {"b": true}, "strides": {"list": {"i": ["1", "1", "1", "1"]}}, "dilations": {"list": {"i": ["1", "1", "1", "1"]}}}}, {"name": "PartitionedCall/model/tf.math.add_39/Add", "op": "AddV2", "input": ["PartitionedCall/model/tf.nn.convolution_33/convolution", "6626"], "attr": {"T": {"type": "DT_FLOAT"}}}, {"name": "PartitionedCall/model/tf.nn.relu_33/Relu", "op": "Relu", "input": ["PartitionedCall/model/tf.math.add_39/Add"], "attr": {"T": {"type": "DT_FLOAT"}}}, {"name": "PartitionedCall/model/tf.concat_8/concat", "op": "ConcatV2", "input": ["PartitionedCall/model/tf.strided_slice_10/StridedSlice", "PartitionedCall/model/tf.strided_slice_11/StridedSlice", "PartitionedCall/model/tf.nn.relu_33/Relu", "PartitionedCall/model/tf.concat_8/concat/axis"], "attr": {"T": {"type": "DT_FLOAT"}, "N": {"i": "3"}, "Tidx": {"type": "DT_INT32"}}}, {"name": "PartitionedCall/model/tf.nn.convolution_34/convolution", "op": "Conv2D", "input": ["PartitionedCall/model/tf.concat_8/concat", "6632"], "device": "/device:CPU:0", "attr": {"explicit_paddings": {"list": {}}, "use_cudnn_on_gpu": {"b": true}, "strides": {"list": {"i": ["1", "1", "1", "1"]}}, "data_format": {"s": "TkhXQw=="}, "dilations": {"list": {"i": ["1", "1", "1", "1"]}}, "T": {"type": "DT_FLOAT"}, "padding": {"s": "U0FNRQ=="}}}, {"name": "PartitionedCall/model/tf.math.add_40/Add", "op": "AddV2", "input": ["PartitionedCall/model/tf.nn.convolution_34/convolution", "6634"], "attr": {"T": {"type": "DT_FLOAT"}}}, {"name": "PartitionedCall/model/tf.nn.relu_34/Relu", "op": "Relu", "input": ["PartitionedCall/model/tf.math.add_40/Add"], "attr": {"T": {"type": "DT_FLOAT"}}}, {"name": "PartitionedCall/model/tf.nn.convolution_36/convolution", "op": "Conv2D", "input": ["PartitionedCall/model/tf.nn.relu_34/Relu", "6706"], "device": "/device:CPU:0", "attr": {"data_format": {"s": "TkhXQw=="}, "use_cudnn_on_gpu": {"b": true}, "T": {"type": "DT_FLOAT"}, "padding": {"s": "U0FNRQ=="}, "strides": {"list": {"i": ["1", "1", "1", "1"]}}, "dilations": {"list": {"i": ["1", "1", "1", "1"]}}, "explicit_paddings": {"list": {}}}}, {"name": "PartitionedCall/model/tf.nn.convolution_37/convolution", "op": "Conv2D", "input": ["PartitionedCall/model/tf.nn.relu_34/Relu", "6704"], "device": "/device:CPU:0", "attr": {"T": {"type": "DT_FLOAT"}, "data_format": {"s": "TkhXQw=="}, "explicit_paddings": {"list": {}}, "dilations": {"list": {"i": ["1", "1", "1", "1"]}}, "strides": {"list": {"i": ["1", "1", "1", "1"]}}, "use_cudnn_on_gpu": {"b": true}, "padding": {"s": "U0FNRQ=="}}}, {"name": "PartitionedCall/model/tf.compat.v1.pad_5/Pad", "op": "Pad", "input": ["PartitionedCall/model/tf.nn.relu_34/Relu", "6636"], "attr": {"Tpaddings": {"type": "DT_INT32"}, "T": {"type": "DT_FLOAT"}}}, {"name": "PartitionedCall/model/tf.math.add_42/Add", "op": "AddV2", "input": ["PartitionedCall/model/tf.nn.convolution_36/convolution", "6718"], "attr": {"T": {"type": "DT_FLOAT"}}}, {"name": "PartitionedCall/model/tf.math.add_43/Add", "op": "AddV2", "input": ["PartitionedCall/model/tf.nn.convolution_37/convolution", "6716"], "attr": {"T": {"type": "DT_FLOAT"}}}, {"name": "PartitionedCall/model/tf.nn.convolution_35/convolution", "op": "Conv2D", "input": ["PartitionedCall/model/tf.compat.v1.pad_5/Pad", "6638"], "device": "/device:CPU:0", "attr": {"use_cudnn_on_gpu": {"b": true}, "padding": {"s": "VkFMSUQ="}, "T": {"type": "DT_FLOAT"}, "dilations": {"list": {"i": ["1", "1", "1", "1"]}}, "explicit_paddings": {"list": {}}, "strides": {"list": {"i": ["1", "2", "2", "1"]}}, "data_format": {"s": "TkhXQw=="}}}, {"name": "PartitionedCall/model/tf.nn.relu_36/Relu", "op": "Relu", "input": ["PartitionedCall/model/tf.math.add_42/Add"], "attr": {"T": {"type": "DT_FLOAT"}}}, {"name": "PartitionedCall/model/tf.nn.relu_37/Relu", "op": "Relu", "input": ["PartitionedCall/model/tf.math.add_43/Add"], "attr": {"T": {"type": "DT_FLOAT"}}}, {"name": "PartitionedCall/model/tf.math.add_41/Add", "op": "AddV2", "input": ["PartitionedCall/model/tf.nn.convolution_35/convolution", "6640"], "attr": {"T": {"type": "DT_FLOAT"}}}, {"name": "PartitionedCall/model/tf.nn.convolution_38/convolution", "op": "Conv2D", "input": ["PartitionedCall/model/tf.nn.relu_36/Relu", "6730"], "device": "/device:CPU:0", "attr": {"explicit_paddings": {"list": {}}, "padding": {"s": "U0FNRQ=="}, "data_format": {"s": "TkhXQw=="}, "dilations": {"list": {"i": ["1", "1", "1", "1"]}}, "use_cudnn_on_gpu": {"b": true}, "T": {"type": "DT_FLOAT"}, "strides": {"list": {"i": ["1", "1", "1", "1"]}}}}, {"name": "PartitionedCall/model/tf.nn.convolution_39/convolution", "op": "Conv2D", "input": ["PartitionedCall/model/tf.nn.relu_37/Relu", "6728"], "device": "/device:CPU:0", "attr": {"padding": {"s": "U0FNRQ=="}, "dilations": {"list": {"i": ["1", "1", "1", "1"]}}, "T": {"type": "DT_FLOAT"}, "explicit_paddings": {"list": {}}, "use_cudnn_on_gpu": {"b": true}, "data_format": {"s": "TkhXQw=="}, "strides": {"list": {"i": ["1", "1", "1", "1"]}}}}, {"name": "PartitionedCall/model/tf.nn.relu_35/Relu", "op": "Relu", "input": ["PartitionedCall/model/tf.math.add_41/Add"], "attr": {"T": {"type": "DT_FLOAT"}}}, {"name": "PartitionedCall/model/tf.math.add_44/Add", "op": "AddV2", "input": ["PartitionedCall/model/tf.nn.convolution_38/convolution", "6742"], "attr": {"T": {"type": "DT_FLOAT"}}}, {"name": "PartitionedCall/model/tf.math.add_45/Add", "op": "AddV2", "input": ["PartitionedCall/model/tf.nn.convolution_39/convolution", "6740"], "attr": {"T": {"type": "DT_FLOAT"}}}, {"name": "PartitionedCall/model/tf.concat_9/concat", "op": "ConcatV2", "input": ["PartitionedCall/model/tf.nn.relu_35/Relu", "PartitionedCall/model/tf.nn.relu_30/Relu", "PartitionedCall/model/tf.concat_9/concat/axis"], "attr": {"T": {"type": "DT_FLOAT"}, "N": {"i": "2"}, "Tidx": {"type": "DT_INT32"}}}, {"name": "PartitionedCall/model/tf.nn.relu_38/Relu", "op": "Relu", "input": ["PartitionedCall/model/tf.math.add_44/Add"], "attr": {"T": {"type": "DT_FLOAT"}}}, {"name": "PartitionedCall/model/tf.nn.relu_39/Relu", "op": "Relu", "input": ["PartitionedCall/model/tf.math.add_45/Add"], "attr": {"T": {"type": "DT_FLOAT"}}}, {"name": "PartitionedCall/model/tf.nn.convolution_40/convolution", "op": "Conv2D", "input": ["PartitionedCall/model/tf.concat_9/concat", "6642"], "device": "/device:CPU:0", "attr": {"dilations": {"list": {"i": ["1", "1", "1", "1"]}}, "T": {"type": "DT_FLOAT"}, "data_format": {"s": "TkhXQw=="}, "padding": {"s": "U0FNRQ=="}, "use_cudnn_on_gpu": {"b": true}, "strides": {"list": {"i": ["1", "1", "1", "1"]}}, "explicit_paddings": {"list": {}}}}, {"name": "PartitionedCall/model/tf.nn.convolution_41/convolution", "op": "Conv2D", "input": ["PartitionedCall/model/tf.nn.relu_38/Relu", "6754"], "device": "/device:CPU:0", "attr": {"T": {"type": "DT_FLOAT"}, "padding": {"s": "U0FNRQ=="}, "data_format": {"s": "TkhXQw=="}, "strides": {"list": {"i": ["1", "1", "1", "1"]}}, "explicit_paddings": {"list": {}}, "use_cudnn_on_gpu": {"b": true}, "dilations": {"list": {"i": ["1", "1", "1", "1"]}}}}, {"name": "PartitionedCall/model/tf.nn.convolution_42/convolution", "op": "Conv2D", "input": ["PartitionedCall/model/tf.nn.relu_39/Relu", "6752"], "device": "/device:CPU:0", "attr": {"use_cudnn_on_gpu": {"b": true}, "padding": {"s": "U0FNRQ=="}, "strides": {"list": {"i": ["1", "1", "1", "1"]}}, "explicit_paddings": {"list": {}}, "dilations": {"list": {"i": ["1", "1", "1", "1"]}}, "T": {"type": "DT_FLOAT"}, "data_format": {"s": "TkhXQw=="}}}, {"name": "PartitionedCall/model/tf.math.add_46/Add", "op": "AddV2", "input": ["PartitionedCall/model/tf.nn.convolution_40/convolution", "6644"], "attr": {"T": {"type": "DT_FLOAT"}}}, {"name": "PartitionedCall/model/tf.math.add_47/Add", "op": "AddV2", "input": ["PartitionedCall/model/tf.nn.convolution_41/convolution", "6764"], "attr": {"T": {"type": "DT_FLOAT"}}}, {"name": "PartitionedCall/model/tf.math.add_48/Add", "op": "AddV2", "input": ["PartitionedCall/model/tf.nn.convolution_42/convolution", "6766"], "attr": {"T": {"type": "DT_FLOAT"}}}, {"name": "PartitionedCall/model/tf.nn.relu_40/Relu", "op": "Relu", "input": ["PartitionedCall/model/tf.math.add_46/Add"], "attr": {"T": {"type": "DT_FLOAT"}}}, {"name": "PartitionedCall/model/tf.concat_10/concat", "op": "ConcatV2", "input": ["PartitionedCall/model/tf.math.add_47/Add", "PartitionedCall/model/tf.math.add_48/Add", "PartitionedCall/model/tf.concat_10/concat/axis"], "attr": {"N": {"i": "2"}, "Tidx": {"type": "DT_INT32"}, "T": {"type": "DT_FLOAT"}}}, {"name": "PartitionedCall/model/tf.strided_slice_12/StridedSlice", "op": "StridedSlice", "input": ["PartitionedCall/model/tf.nn.relu_40/Relu", "6658", "6660", "PartitionedCall/model/tf.strided_slice_12/ones_like"], "attr": {"shrink_axis_mask": {"i": "0"}, "begin_mask": {"i": "15"}, "new_axis_mask": {"i": "0"}, "Index": {"type": "DT_INT64"}, "T": {"type": "DT_FLOAT"}, "ellipsis_mask": {"i": "0"}, "end_mask": {"i": "7"}}}, {"name": "PartitionedCall/model/tf.strided_slice_13/StridedSlice", "op": "StridedSlice", "input": ["PartitionedCall/model/tf.nn.relu_40/Relu", "6646", "6648", "PartitionedCall/model/tf.strided_slice_13/ones_like"], "attr": {"end_mask": {"i": "7"}, "new_axis_mask": {"i": "0"}, "Index": {"type": "DT_INT64"}, "begin_mask": {"i": "7"}, "shrink_axis_mask": {"i": "0"}, "T": {"type": "DT_FLOAT"}, "ellipsis_mask": {"i": "0"}}}, {"name": "PartitionedCall/model/tf.compat.v1.transpose/transpose", "op": "Transpose", "input": ["PartitionedCall/model/tf.concat_10/concat", "PartitionedCall/model/tf.compat.v1.transpose/transpose/perm"], "attr": {"Tperm": {"type": "DT_INT32"}, "T": {"type": "DT_FLOAT"}}}, {"name": "PartitionedCall/model/tf.nn.convolution_43/convolution", "op": "Conv2D", "input": ["PartitionedCall/model/tf.strided_slice_13/StridedSlice", "6650"], "device": "/device:CPU:0", "attr": {"strides": {"list": {"i": ["1", "1", "1", "1"]}}, "explicit_paddings": {"list": {}}, "data_format": {"s": "TkhXQw=="}, "T": {"type": "DT_FLOAT"}, "dilations": {"list": {"i": ["1", "1", "1", "1"]}}, "padding": {"s": "U0FNRQ=="}, "use_cudnn_on_gpu": {"b": true}}}, {"name": "PartitionedCall/model/tf.reshape/Reshape", "op": "Reshape", "input": ["PartitionedCall/model/tf.compat.v1.transpose/transpose", "PartitionedCall/model/tf.reshape/Reshape/shape"], "attr": {"Tshape": {"type": "DT_INT32"}, "T": {"type": "DT_FLOAT"}}}, {"name": "PartitionedCall/model/tf.math.add_49/Add", "op": "AddV2", "input": ["PartitionedCall/model/tf.nn.convolution_43/convolution", "6652"], "attr": {"T": {"type": "DT_FLOAT"}}}, {"name": "PartitionedCall/model/tf.nn.relu_41/Relu", "op": "Relu", "input": ["PartitionedCall/model/tf.math.add_49/Add"], "attr": {"T": {"type": "DT_FLOAT"}}}, {"name": "PartitionedCall/model/tf.nn.convolution_44/convolution", "op": "Conv2D", "input": ["PartitionedCall/model/tf.nn.relu_41/Relu", "6654"], "device": "/device:CPU:0", "attr": {"data_format": {"s": "TkhXQw=="}, "dilations": {"list": {"i": ["1", "1", "1", "1"]}}, "T": {"type": "DT_FLOAT"}, "use_cudnn_on_gpu": {"b": true}, "padding": {"s": "U0FNRQ=="}, "strides": {"list": {"i": ["1", "1", "1", "1"]}}, "explicit_paddings": {"list": {}}}}, {"name": "PartitionedCall/model/tf.math.add_50/Add", "op": "AddV2", "input": ["PartitionedCall/model/tf.nn.convolution_44/convolution", "6656"], "attr": {"T": {"type": "DT_FLOAT"}}}, {"name": "PartitionedCall/model/tf.nn.relu_42/Relu", "op": "Relu", "input": ["PartitionedCall/model/tf.math.add_50/Add"], "attr": {"T": {"type": "DT_FLOAT"}}}, {"name": "PartitionedCall/model/tf.concat_11/concat", "op": "ConcatV2", "input": ["PartitionedCall/model/tf.strided_slice_12/StridedSlice", "PartitionedCall/model/tf.strided_slice_13/StridedSlice", "PartitionedCall/model/tf.nn.relu_42/Relu", "PartitionedCall/model/tf.concat_11/concat/axis"], "attr": {"N": {"i": "3"}, "T": {"type": "DT_FLOAT"}, "Tidx": {"type": "DT_INT32"}}}, {"name": "PartitionedCall/model/tf.nn.convolution_45/convolution", "op": "Conv2D", "input": ["PartitionedCall/model/tf.concat_11/concat", "6662"], "device": "/device:CPU:0", "attr": {"data_format": {"s": "TkhXQw=="}, "dilations": {"list": {"i": ["1", "1", "1", "1"]}}, "use_cudnn_on_gpu": {"b": true}, "strides": {"list": {"i": ["1", "1", "1", "1"]}}, "T": {"type": "DT_FLOAT"}, "padding": {"s": "U0FNRQ=="}, "explicit_paddings": {"list": {}}}}, {"name": "PartitionedCall/model/tf.math.add_51/Add", "op": "AddV2", "input": ["PartitionedCall/model/tf.nn.convolution_45/convolution", "6664"], "attr": {"T": {"type": "DT_FLOAT"}}}, {"name": "PartitionedCall/model/tf.nn.relu_43/Relu", "op": "Relu", "input": ["PartitionedCall/model/tf.math.add_51/Add"], "attr": {"T": {"type": "DT_FLOAT"}}}, {"name": "PartitionedCall/model/tf.nn.convolution_47/convolution", "op": "Conv2D", "input": ["PartitionedCall/model/tf.nn.relu_43/Relu", "6702"], "device": "/device:CPU:0", "attr": {"explicit_paddings": {"list": {}}, "T": {"type": "DT_FLOAT"}, "strides": {"list": {"i": ["1", "1", "1", "1"]}}, "dilations": {"list": {"i": ["1", "1", "1", "1"]}}, "padding": {"s": "U0FNRQ=="}, "use_cudnn_on_gpu": {"b": true}, "data_format": {"s": "TkhXQw=="}}}, {"name": "PartitionedCall/model/tf.nn.convolution_48/convolution", "op": "Conv2D", "input": ["PartitionedCall/model/tf.nn.relu_43/Relu", "6700"], "device": "/device:CPU:0", "attr": {"padding": {"s": "U0FNRQ=="}, "dilations": {"list": {"i": ["1", "1", "1", "1"]}}, "use_cudnn_on_gpu": {"b": true}, "explicit_paddings": {"list": {}}, "data_format": {"s": "TkhXQw=="}, "T": {"type": "DT_FLOAT"}, "strides": {"list": {"i": ["1", "1", "1", "1"]}}}}, {"name": "PartitionedCall/model/tf.compat.v1.pad_6/Pad", "op": "Pad", "input": ["PartitionedCall/model/tf.nn.relu_43/Relu", "6666"], "attr": {"T": {"type": "DT_FLOAT"}, "Tpaddings": {"type": "DT_INT32"}}}, {"name": "PartitionedCall/model/tf.math.add_53/Add", "op": "AddV2", "input": ["PartitionedCall/model/tf.nn.convolution_47/convolution", "6714"], "attr": {"T": {"type": "DT_FLOAT"}}}, {"name": "PartitionedCall/model/tf.math.add_54/Add", "op": "AddV2", "input": ["PartitionedCall/model/tf.nn.convolution_48/convolution", "6712"], "attr": {"T": {"type": "DT_FLOAT"}}}, {"name": "PartitionedCall/model/tf.nn.convolution_46/convolution", "op": "Conv2D", "input": ["PartitionedCall/model/tf.compat.v1.pad_6/Pad", "6668"], "device": "/device:CPU:0", "attr": {"explicit_paddings": {"list": {}}, "T": {"type": "DT_FLOAT"}, "padding": {"s": "VkFMSUQ="}, "use_cudnn_on_gpu": {"b": true}, "strides": {"list": {"i": ["1", "2", "2", "1"]}}, "dilations": {"list": {"i": ["1", "1", "1", "1"]}}, "data_format": {"s": "TkhXQw=="}}}, {"name": "PartitionedCall/model/tf.nn.relu_45/Relu", "op": "Relu", "input": ["PartitionedCall/model/tf.math.add_53/Add"], "attr": {"T": {"type": "DT_FLOAT"}}}, {"name": "PartitionedCall/model/tf.nn.relu_46/Relu", "op": "Relu", "input": ["PartitionedCall/model/tf.math.add_54/Add"], "attr": {"T": {"type": "DT_FLOAT"}}}, {"name": "PartitionedCall/model/tf.math.add_52/Add", "op": "AddV2", "input": ["PartitionedCall/model/tf.nn.convolution_46/convolution", "6670"], "attr": {"T": {"type": "DT_FLOAT"}}}, {"name": "PartitionedCall/model/tf.nn.convolution_49/convolution", "op": "Conv2D", "input": ["PartitionedCall/model/tf.nn.relu_45/Relu", "6726"], "device": "/device:CPU:0", "attr": {"T": {"type": "DT_FLOAT"}, "strides": {"list": {"i": ["1", "1", "1", "1"]}}, "data_format": {"s": "TkhXQw=="}, "use_cudnn_on_gpu": {"b": true}, "dilations": {"list": {"i": ["1", "1", "1", "1"]}}, "explicit_paddings": {"list": {}}, "padding": {"s": "U0FNRQ=="}}}, {"name": "PartitionedCall/model/tf.nn.convolution_50/convolution", "op": "Conv2D", "input": ["PartitionedCall/model/tf.nn.relu_46/Relu", "6724"], "device": "/device:CPU:0", "attr": {"padding": {"s": "U0FNRQ=="}, "data_format": {"s": "TkhXQw=="}, "strides": {"list": {"i": ["1", "1", "1", "1"]}}, "T": {"type": "DT_FLOAT"}, "dilations": {"list": {"i": ["1", "1", "1", "1"]}}, "use_cudnn_on_gpu": {"b": true}, "explicit_paddings": {"list": {}}}}, {"name": "PartitionedCall/model/tf.nn.relu_44/Relu", "op": "Relu", "input": ["PartitionedCall/model/tf.math.add_52/Add"], "attr": {"T": {"type": "DT_FLOAT"}}}, {"name": "PartitionedCall/model/tf.math.add_55/Add", "op": "AddV2", "input": ["PartitionedCall/model/tf.nn.convolution_49/convolution", "6738"], "attr": {"T": {"type": "DT_FLOAT"}}}, {"name": "PartitionedCall/model/tf.math.add_56/Add", "op": "AddV2", "input": ["PartitionedCall/model/tf.nn.convolution_50/convolution", "6736"], "attr": {"T": {"type": "DT_FLOAT"}}}, {"name": "PartitionedCall/model/tf.concat_12/concat", "op": "ConcatV2", "input": ["PartitionedCall/model/tf.nn.relu_44/Relu", "PartitionedCall/model/tf.nn.relu_26/Relu", "PartitionedCall/model/tf.concat_12/concat/axis"], "attr": {"Tidx": {"type": "DT_INT32"}, "T": {"type": "DT_FLOAT"}, "N": {"i": "2"}}}, {"name": "PartitionedCall/model/tf.nn.relu_47/Relu", "op": "Relu", "input": ["PartitionedCall/model/tf.math.add_55/Add"], "attr": {"T": {"type": "DT_FLOAT"}}}, {"name": "PartitionedCall/model/tf.nn.relu_48/Relu", "op": "Relu", "input": ["PartitionedCall/model/tf.math.add_56/Add"], "attr": {"T": {"type": "DT_FLOAT"}}}, {"name": "PartitionedCall/model/tf.nn.convolution_51/convolution", "op": "Conv2D", "input": ["PartitionedCall/model/tf.concat_12/concat", "6672"], "device": "/device:CPU:0", "attr": {"strides": {"list": {"i": ["1", "1", "1", "1"]}}, "T": {"type": "DT_FLOAT"}, "use_cudnn_on_gpu": {"b": true}, "data_format": {"s": "TkhXQw=="}, "dilations": {"list": {"i": ["1", "1", "1", "1"]}}, "explicit_paddings": {"list": {}}, "padding": {"s": "U0FNRQ=="}}}, {"name": "PartitionedCall/model/tf.nn.convolution_52/convolution", "op": "Conv2D", "input": ["PartitionedCall/model/tf.nn.relu_47/Relu", "6750"], "device": "/device:CPU:0", "attr": {"padding": {"s": "U0FNRQ=="}, "dilations": {"list": {"i": ["1", "1", "1", "1"]}}, "strides": {"list": {"i": ["1", "1", "1", "1"]}}, "data_format": {"s": "TkhXQw=="}, "use_cudnn_on_gpu": {"b": true}, "T": {"type": "DT_FLOAT"}, "explicit_paddings": {"list": {}}}}, {"name": "PartitionedCall/model/tf.nn.convolution_53/convolution", "op": "Conv2D", "input": ["PartitionedCall/model/tf.nn.relu_48/Relu", "6748"], "device": "/device:CPU:0", "attr": {"use_cudnn_on_gpu": {"b": true}, "T": {"type": "DT_FLOAT"}, "data_format": {"s": "TkhXQw=="}, "dilations": {"list": {"i": ["1", "1", "1", "1"]}}, "strides": {"list": {"i": ["1", "1", "1", "1"]}}, "explicit_paddings": {"list": {}}, "padding": {"s": "U0FNRQ=="}}}, {"name": "PartitionedCall/model/tf.math.add_57/Add", "op": "AddV2", "input": ["PartitionedCall/model/tf.nn.convolution_51/convolution", "6674"], "attr": {"T": {"type": "DT_FLOAT"}}}, {"name": "PartitionedCall/model/tf.math.add_58/Add", "op": "AddV2", "input": ["PartitionedCall/model/tf.nn.convolution_52/convolution", "6760"], "attr": {"T": {"type": "DT_FLOAT"}}}, {"name": "PartitionedCall/model/tf.math.add_59/Add", "op": "AddV2", "input": ["PartitionedCall/model/tf.nn.convolution_53/convolution", "6762"], "attr": {"T": {"type": "DT_FLOAT"}}}, {"name": "PartitionedCall/model/tf.nn.relu_49/Relu", "op": "Relu", "input": ["PartitionedCall/model/tf.math.add_57/Add"], "attr": {"T": {"type": "DT_FLOAT"}}}, {"name": "PartitionedCall/model/tf.concat_13/concat", "op": "ConcatV2", "input": ["PartitionedCall/model/tf.math.add_58/Add", "PartitionedCall/model/tf.math.add_59/Add", "PartitionedCall/model/tf.concat_13/concat/axis"], "attr": {"N": {"i": "2"}, "Tidx": {"type": "DT_INT32"}, "T": {"type": "DT_FLOAT"}}}, {"name": "PartitionedCall/model/tf.strided_slice_14/StridedSlice", "op": "StridedSlice", "input": ["PartitionedCall/model/tf.nn.relu_49/Relu", "6688", "6690", "PartitionedCall/model/tf.strided_slice_14/ones_like"], "attr": {"new_axis_mask": {"i": "0"}, "begin_mask": {"i": "15"}, "end_mask": {"i": "7"}, "shrink_axis_mask": {"i": "0"}, "Index": {"type": "DT_INT64"}, "ellipsis_mask": {"i": "0"}, "T": {"type": "DT_FLOAT"}}}, {"name": "PartitionedCall/model/tf.strided_slice_15/StridedSlice", "op": "StridedSlice", "input": ["PartitionedCall/model/tf.nn.relu_49/Relu", "6676", "6678", "PartitionedCall/model/tf.strided_slice_15/ones_like"], "attr": {"shrink_axis_mask": {"i": "0"}, "T": {"type": "DT_FLOAT"}, "Index": {"type": "DT_INT64"}, "end_mask": {"i": "7"}, "begin_mask": {"i": "7"}, "new_axis_mask": {"i": "0"}, "ellipsis_mask": {"i": "0"}}}, {"name": "PartitionedCall/model/tf.compat.v1.transpose_1/transpose", "op": "Transpose", "input": ["PartitionedCall/model/tf.concat_13/concat", "PartitionedCall/model/tf.compat.v1.transpose_1/transpose/perm"], "attr": {"T": {"type": "DT_FLOAT"}, "Tperm": {"type": "DT_INT32"}}}, {"name": "PartitionedCall/model/tf.nn.convolution_54/convolution", "op": "Conv2D", "input": ["PartitionedCall/model/tf.strided_slice_15/StridedSlice", "6680"], "device": "/device:CPU:0", "attr": {"data_format": {"s": "TkhXQw=="}, "padding": {"s": "U0FNRQ=="}, "T": {"type": "DT_FLOAT"}, "use_cudnn_on_gpu": {"b": true}, "explicit_paddings": {"list": {}}, "strides": {"list": {"i": ["1", "1", "1", "1"]}}, "dilations": {"list": {"i": ["1", "1", "1", "1"]}}}}, {"name": "PartitionedCall/model/tf.reshape_1/Reshape", "op": "Reshape", "input": ["PartitionedCall/model/tf.compat.v1.transpose_1/transpose", "PartitionedCall/model/tf.reshape_1/Reshape/shape"], "attr": {"Tshape": {"type": "DT_INT32"}, "T": {"type": "DT_FLOAT"}}}, {"name": "PartitionedCall/model/tf.math.add_60/Add", "op": "AddV2", "input": ["PartitionedCall/model/tf.nn.convolution_54/convolution", "6682"], "attr": {"T": {"type": "DT_FLOAT"}}}, {"name": "PartitionedCall/model/tf.nn.relu_50/Relu", "op": "Relu", "input": ["PartitionedCall/model/tf.math.add_60/Add"], "attr": {"T": {"type": "DT_FLOAT"}}}, {"name": "PartitionedCall/model/tf.nn.convolution_55/convolution", "op": "Conv2D", "input": ["PartitionedCall/model/tf.nn.relu_50/Relu", "6684"], "device": "/device:CPU:0", "attr": {"strides": {"list": {"i": ["1", "1", "1", "1"]}}, "dilations": {"list": {"i": ["1", "1", "1", "1"]}}, "data_format": {"s": "TkhXQw=="}, "padding": {"s": "U0FNRQ=="}, "explicit_paddings": {"list": {}}, "use_cudnn_on_gpu": {"b": true}, "T": {"type": "DT_FLOAT"}}}, {"name": "PartitionedCall/model/tf.math.add_61/Add", "op": "AddV2", "input": ["PartitionedCall/model/tf.nn.convolution_55/convolution", "6686"], "attr": {"T": {"type": "DT_FLOAT"}}}, {"name": "PartitionedCall/model/tf.nn.relu_51/Relu", "op": "Relu", "input": ["PartitionedCall/model/tf.math.add_61/Add"], "attr": {"T": {"type": "DT_FLOAT"}}}, {"name": "PartitionedCall/model/tf.concat_14/concat", "op": "ConcatV2", "input": ["PartitionedCall/model/tf.strided_slice_14/StridedSlice", "PartitionedCall/model/tf.strided_slice_15/StridedSlice", "PartitionedCall/model/tf.nn.relu_51/Relu", "PartitionedCall/model/tf.concat_14/concat/axis"], "attr": {"Tidx": {"type": "DT_INT32"}, "T": {"type": "DT_FLOAT"}, "N": {"i": "3"}}}, {"name": "PartitionedCall/model/tf.nn.convolution_56/convolution", "op": "Conv2D", "input": ["PartitionedCall/model/tf.concat_14/concat", "6692"], "device": "/device:CPU:0", "attr": {"strides": {"list": {"i": ["1", "1", "1", "1"]}}, "data_format": {"s": "TkhXQw=="}, "use_cudnn_on_gpu": {"b": true}, "dilations": {"list": {"i": ["1", "1", "1", "1"]}}, "padding": {"s": "U0FNRQ=="}, "T": {"type": "DT_FLOAT"}, "explicit_paddings": {"list": {}}}}, {"name": "PartitionedCall/model/tf.math.add_62/Add", "op": "AddV2", "input": ["PartitionedCall/model/tf.nn.convolution_56/convolution", "6694"], "attr": {"T": {"type": "DT_FLOAT"}}}, {"name": "PartitionedCall/model/tf.nn.relu_52/Relu", "op": "Relu", "input": ["PartitionedCall/model/tf.math.add_62/Add"], "attr": {"T": {"type": "DT_FLOAT"}}}, {"name": "PartitionedCall/model/tf.nn.convolution_57/convolution", "op": "Conv2D", "input": ["PartitionedCall/model/tf.nn.relu_52/Relu", "6698"], "device": "/device:CPU:0", "attr": {"T": {"type": "DT_FLOAT"}, "dilations": {"list": {"i": ["1", "1", "1", "1"]}}, "padding": {"s": "U0FNRQ=="}, "strides": {"list": {"i": ["1", "1", "1", "1"]}}, "explicit_paddings": {"list": {}}, "data_format": {"s": "TkhXQw=="}, "use_cudnn_on_gpu": {"b": true}}}, {"name": "PartitionedCall/model/tf.nn.convolution_58/convolution", "op": "Conv2D", "input": ["PartitionedCall/model/tf.nn.relu_52/Relu", "6696"], "device": "/device:CPU:0", "attr": {"use_cudnn_on_gpu": {"b": true}, "explicit_paddings": {"list": {}}, "strides": {"list": {"i": ["1", "1", "1", "1"]}}, "padding": {"s": "U0FNRQ=="}, "data_format": {"s": "TkhXQw=="}, "T": {"type": "DT_FLOAT"}, "dilations": {"list": {"i": ["1", "1", "1", "1"]}}}}, {"name": "PartitionedCall/model/tf.math.add_63/Add", "op": "AddV2", "input": ["PartitionedCall/model/tf.nn.convolution_57/convolution", "6710"], "attr": {"T": {"type": "DT_FLOAT"}}}, {"name": "PartitionedCall/model/tf.math.add_64/Add", "op": "AddV2", "input": ["PartitionedCall/model/tf.nn.convolution_58/convolution", "6708"], "attr": {"T": {"type": "DT_FLOAT"}}}, {"name": "PartitionedCall/model/tf.nn.relu_53/Relu", "op": "Relu", "input": ["PartitionedCall/model/tf.math.add_63/Add"], "attr": {"T": {"type": "DT_FLOAT"}}}, {"name": "PartitionedCall/model/tf.nn.relu_54/Relu", "op": "Relu", "input": ["PartitionedCall/model/tf.math.add_64/Add"], "attr": {"T": {"type": "DT_FLOAT"}}}, {"name": "PartitionedCall/model/tf.nn.convolution_59/convolution", "op": "Conv2D", "input": ["PartitionedCall/model/tf.nn.relu_53/Relu", "6722"], "device": "/device:CPU:0", "attr": {"data_format": {"s": "TkhXQw=="}, "T": {"type": "DT_FLOAT"}, "dilations": {"list": {"i": ["1", "1", "1", "1"]}}, "padding": {"s": "U0FNRQ=="}, "use_cudnn_on_gpu": {"b": true}, "explicit_paddings": {"list": {}}, "strides": {"list": {"i": ["1", "1", "1", "1"]}}}}, {"name": "PartitionedCall/model/tf.nn.convolution_60/convolution", "op": "Conv2D", "input": ["PartitionedCall/model/tf.nn.relu_54/Relu", "6720"], "device": "/device:CPU:0", "attr": {"data_format": {"s": "TkhXQw=="}, "padding": {"s": "U0FNRQ=="}, "dilations": {"list": {"i": ["1", "1", "1", "1"]}}, "T": {"type": "DT_FLOAT"}, "explicit_paddings": {"list": {}}, "strides": {"list": {"i": ["1", "1", "1", "1"]}}, "use_cudnn_on_gpu": {"b": true}}}, {"name": "PartitionedCall/model/tf.math.add_65/Add", "op": "AddV2", "input": ["PartitionedCall/model/tf.nn.convolution_59/convolution", "6734"], "attr": {"T": {"type": "DT_FLOAT"}}}, {"name": "PartitionedCall/model/tf.math.add_66/Add", "op": "AddV2", "input": ["PartitionedCall/model/tf.nn.convolution_60/convolution", "6732"], "attr": {"T": {"type": "DT_FLOAT"}}}, {"name": "PartitionedCall/model/tf.nn.relu_55/Relu", "op": "Relu", "input": ["PartitionedCall/model/tf.math.add_65/Add"], "attr": {"T": {"type": "DT_FLOAT"}}}, {"name": "PartitionedCall/model/tf.nn.relu_56/Relu", "op": "Relu", "input": ["PartitionedCall/model/tf.math.add_66/Add"], "attr": {"T": {"type": "DT_FLOAT"}}}, {"name": "PartitionedCall/model/tf.nn.convolution_61/convolution", "op": "Conv2D", "input": ["PartitionedCall/model/tf.nn.relu_55/Relu", "6746"], "device": "/device:CPU:0", "attr": {"data_format": {"s": "TkhXQw=="}, "dilations": {"list": {"i": ["1", "1", "1", "1"]}}, "strides": {"list": {"i": ["1", "1", "1", "1"]}}, "T": {"type": "DT_FLOAT"}, "explicit_paddings": {"list": {}}, "padding": {"s": "U0FNRQ=="}, "use_cudnn_on_gpu": {"b": true}}}, {"name": "PartitionedCall/model/tf.nn.convolution_62/convolution", "op": "Conv2D", "input": ["PartitionedCall/model/tf.nn.relu_56/Relu", "6744"], "device": "/device:CPU:0", "attr": {"use_cudnn_on_gpu": {"b": true}, "data_format": {"s": "TkhXQw=="}, "dilations": {"list": {"i": ["1", "1", "1", "1"]}}, "T": {"type": "DT_FLOAT"}, "explicit_paddings": {"list": {}}, "padding": {"s": "U0FNRQ=="}, "strides": {"list": {"i": ["1", "1", "1", "1"]}}}}, {"name": "PartitionedCall/model/tf.math.add_67/Add", "op": "AddV2", "input": ["PartitionedCall/model/tf.nn.convolution_61/convolution", "6756"], "attr": {"T": {"type": "DT_FLOAT"}}}, {"name": "PartitionedCall/model/tf.math.add_68/Add", "op": "AddV2", "input": ["PartitionedCall/model/tf.nn.convolution_62/convolution", "6758"], "attr": {"T": {"type": "DT_FLOAT"}}}, {"name": "PartitionedCall/model/tf.concat_15/concat", "op": "ConcatV2", "input": ["PartitionedCall/model/tf.math.add_67/Add", "PartitionedCall/model/tf.math.add_68/Add", "PartitionedCall/model/tf.concat_15/concat/axis"], "attr": {"Tidx": {"type": "DT_INT32"}, "T": {"type": "DT_FLOAT"}, "N": {"i": "2"}}}, {"name": "PartitionedCall/model/tf.compat.v1.transpose_2/transpose", "op": "Transpose", "input": ["PartitionedCall/model/tf.concat_15/concat", "PartitionedCall/model/tf.compat.v1.transpose_2/transpose/perm"], "attr": {"Tperm": {"type": "DT_INT32"}, "T": {"type": "DT_FLOAT"}}}, {"name": "PartitionedCall/model/tf.reshape_2/Reshape", "op": "Reshape", "input": ["PartitionedCall/model/tf.compat.v1.transpose_2/transpose", "PartitionedCall/model/tf.reshape_2/Reshape/shape"], "attr": {"T": {"type": "DT_FLOAT"}, "Tshape": {"type": "DT_INT32"}}}, {"name": "PartitionedCall/model/tf.concat_16/concat", "op": "ConcatV2", "input": ["PartitionedCall/model/tf.reshape/Reshape", "PartitionedCall/model/tf.reshape_1/Reshape", "PartitionedCall/model/tf.reshape_2/Reshape", "PartitionedCall/model/tf.concat_16/concat/axis"], "attr": {"Tidx": {"type": "DT_INT32"}, "T": {"type": "DT_FLOAT"}, "N": {"i": "3"}}}, {"name": "PartitionedCall/model/tf.strided_slice_16/StridedSlice", "op": "StridedSlice", "input": ["PartitionedCall/model/tf.concat_16/concat", "6768", "6770", "PartitionedCall/model/tf.strided_slice_16/StridedSlice/strides"], "attr": {"T": {"type": "DT_FLOAT"}, "new_axis_mask": {"i": "0"}, "Index": {"type": "DT_INT64"}, "ellipsis_mask": {"i": "0"}, "shrink_axis_mask": {"i": "0"}, "end_mask": {"i": "5"}, "begin_mask": {"i": "7"}}}, {"name": "PartitionedCall/model/tf.strided_slice_17/StridedSlice", "op": "StridedSlice", "input": ["PartitionedCall/model/tf.concat_16/concat", "6788", "6790", "PartitionedCall/model/tf.strided_slice_17/StridedSlice/strides"], "attr": {"T": {"type": "DT_FLOAT"}, "ellipsis_mask": {"i": "0"}, "new_axis_mask": {"i": "0"}, "end_mask": {"i": "5"}, "shrink_axis_mask": {"i": "0"}, "begin_mask": {"i": "5"}, "Index": {"type": "DT_INT64"}}}, {"name": "PartitionedCall/model/tf.reshape_3/Reshape", "op": "Reshape", "input": ["PartitionedCall/model/tf.strided_slice_16/StridedSlice", "PartitionedCall/model/tf.reshape_3/Reshape/shape"], "attr": {"Tshape": {"type": "DT_INT32"}, "T": {"type": "DT_FLOAT"}}}, {"name": "PartitionedCall/model/tf.math.sigmoid/Sigmoid", "op": "Sigmoid", "input": ["PartitionedCall/model/tf.strided_slice_17/StridedSlice"], "attr": {"T": {"type": "DT_FLOAT"}}}, {"name": "PartitionedCall/model/tf.compat.v1.transpose_4/transpose", "op": "Transpose", "input": ["PartitionedCall/model/tf.reshape_3/Reshape", "PartitionedCall/model/tf.compat.v1.transpose_4/transpose/perm"], "attr": {"Tperm": {"type": "DT_INT32"}, "T": {"type": "DT_FLOAT"}}}, {"name": "PartitionedCall/model/tf.compat.v1.transpose_5/transpose", "op": "Transpose", "input": ["PartitionedCall/model/tf.compat.v1.transpose_4/transpose", "PartitionedCall/model/tf.compat.v1.transpose_5/transpose/perm"], "attr": {"Tperm": {"type": "DT_INT32"}, "T": {"type": "DT_FLOAT"}}}, {"name": "PartitionedCall/model/tf.nn.softmax//model.22/dfl/Softmax", "op": "Softmax", "input": ["PartitionedCall/model/tf.compat.v1.transpose_5/transpose"], "attr": {"T": {"type": "DT_FLOAT"}}}, {"name": "PartitionedCall/model/tf.nn.convolution_63/convolution", "op": "Conv2D", "input": ["PartitionedCall/model/tf.nn.softmax//model.22/dfl/Softmax", "6772"], "device": "/device:CPU:0", "attr": {"dilations": {"list": {"i": ["1", "1", "1", "1"]}}, "explicit_paddings": {"list": {}}, "data_format": {"s": "TkhXQw=="}, "strides": {"list": {"i": ["1", "1", "1", "1"]}}, "use_cudnn_on_gpu": {"b": true}, "T": {"type": "DT_FLOAT"}, "padding": {"s": "U0FNRQ=="}}}, {"name": "PartitionedCall/model/tf.compat.v1.transpose_8/transpose", "op": "Transpose", "input": ["PartitionedCall/model/tf.nn.convolution_63/convolution", "PartitionedCall/model/tf.compat.v1.transpose_8/transpose/perm"], "attr": {"Tperm": {"type": "DT_INT32"}, "T": {"type": "DT_FLOAT"}}}, {"name": "PartitionedCall/model/tf.reshape_4/Reshape", "op": "Reshape", "input": ["PartitionedCall/model/tf.compat.v1.transpose_8/transpose", "PartitionedCall/model/tf.reshape_4/Reshape/shape"], "attr": {"Tshape": {"type": "DT_INT32"}, "T": {"type": "DT_FLOAT"}}}, {"name": "PartitionedCall/model/tf.strided_slice_19/StridedSlice", "op": "StridedSlice", "input": ["PartitionedCall/model/tf.reshape_4/Reshape", "6774", "6776", "PartitionedCall/model/tf.strided_slice_19/ones_like"], "attr": {"Index": {"type": "DT_INT64"}, "end_mask": {"i": "5"}, "T": {"type": "DT_FLOAT"}, "new_axis_mask": {"i": "0"}, "begin_mask": {"i": "5"}, "ellipsis_mask": {"i": "0"}, "shrink_axis_mask": {"i": "0"}}}, {"name": "PartitionedCall/model/tf.strided_slice_18/StridedSlice", "op": "StridedSlice", "input": ["PartitionedCall/model/tf.reshape_4/Reshape", "6778", "6780", "PartitionedCall/model/tf.strided_slice_18/ones_like"], "attr": {"new_axis_mask": {"i": "0"}, "T": {"type": "DT_FLOAT"}, "end_mask": {"i": "5"}, "begin_mask": {"i": "7"}, "Index": {"type": "DT_INT64"}, "ellipsis_mask": {"i": "0"}, "shrink_axis_mask": {"i": "0"}}}, {"name": "PartitionedCall/model/tf.math.add_69/Add", "op": "AddV2", "input": ["6782", "PartitionedCall/model/tf.strided_slice_19/StridedSlice"], "attr": {"T": {"type": "DT_FLOAT"}}}, {"name": "PartitionedCall/model/tf.math.subtract/Sub", "op": "Sub", "input": ["6784", "PartitionedCall/model/tf.strided_slice_18/StridedSlice"], "attr": {"T": {"type": "DT_FLOAT"}}}, {"name": "PartitionedCall/model/tf.math.add_70/Add", "op": "AddV2", "input": ["PartitionedCall/model/tf.math.subtract/Sub", "PartitionedCall/model/tf.math.add_69/Add"], "attr": {"T": {"type": "DT_FLOAT"}}}, {"name": "PartitionedCall/model/tf.math.subtract_1/Sub", "op": "Sub", "input": ["PartitionedCall/model/tf.math.add_69/Add", "PartitionedCall/model/tf.math.subtract/Sub"], "attr": {"T": {"type": "DT_FLOAT"}}}, {"name": "PartitionedCall/model/tf.math.divide/truediv", "op": "Mul", "input": ["PartitionedCall/model/tf.math.add_70/Add", "ConstantFolding/PartitionedCall/model/tf.math.divide/truediv_recip"], "attr": {"T": {"type": "DT_FLOAT"}}}, {"name": "PartitionedCall/model/tf.concat_17/concat", "op": "ConcatV2", "input": ["PartitionedCall/model/tf.math.divide/truediv", "PartitionedCall/model/tf.math.subtract_1/Sub", "PartitionedCall/model/tf.concat_17/concat/axis"], "attr": {"N": {"i": "2"}, "T": {"type": "DT_FLOAT"}, "Tidx": {"type": "DT_INT32"}}}, {"name": "PartitionedCall/model/tf.math.multiply_24/Mul", "op": "Mul", "input": ["PartitionedCall/model/tf.concat_17/concat", "PartitionedCall/model/tf.math.multiply_24/Mul/y"], "attr": {"T": {"type": "DT_FLOAT"}}}, {"name": "PartitionedCall/model/output0/concat", "op": "ConcatV2", "input": ["PartitionedCall/model/tf.math.multiply_24/Mul", "PartitionedCall/model/tf.math.sigmoid/Sigmoid", "PartitionedCall/model/output0/concat/axis"], "attr": {"Tidx": {"type": "DT_INT32"}, "N": {"i": "2"}, "T": {"type": "DT_FLOAT"}}}, {"name": "Identity", "op": "Identity", "input": ["PartitionedCall/model/output0/concat"], "attr": {"T": {"type": "DT_FLOAT"}}}], "library": {}, "versions": {"producer": 1482}}, "weightsManifest": [{"paths": ["group1-shard1of3.bin", "group1-shard2of3.bin", "group1-shard3of3.bin"], "weights": [{"name": "ConstantFolding/PartitionedCall/model/tf.math.divide/truediv_recip", "shape": [1, 1, 1], "dtype": "float32"}, {"name": "6782", "shape": [1, 2, 3024], "dtype": "float32"}, {"name": "6774", "shape": [3], "dtype": "int32"}, {"name": "6776", "shape": [3], "dtype": "int32"}, {"name": "PartitionedCall/model/tf.strided_slice_19/ones_like", "shape": [3], "dtype": "int32"}, {"name": "6784", "shape": [1, 2, 3024], "dtype": "float32"}, {"name": "6768", "shape": [3], "dtype": "int32"}, {"name": "6770", "shape": [3], "dtype": "int32"}, {"name": "PartitionedCall/model/tf.strided_slice_16/StridedSlice/strides", "shape": [3], "dtype": "int32"}, {"name": "PartitionedCall/model/tf.reshape_3/Reshape/shape", "shape": [4], "dtype": "int32"}, {"name": "PartitionedCall/model/tf.compat.v1.transpose_4/transpose/perm", "shape": [4], "dtype": "int32"}, {"name": "PartitionedCall/model/tf.compat.v1.transpose_5/transpose/perm", "shape": [4], "dtype": "int32"}, {"name": "6772", "shape": [1, 1, 16, 1], "dtype": "float32"}, {"name": "PartitionedCall/model/tf.compat.v1.transpose_8/transpose/perm", "shape": [4], "dtype": "int32"}, {"name": "PartitionedCall/model/tf.reshape_4/Reshape/shape", "shape": [3], "dtype": "int32"}, {"name": "6778", "shape": [3], "dtype": "int32"}, {"name": "6780", "shape": [3], "dtype": "int32"}, {"name": "PartitionedCall/model/tf.strided_slice_18/ones_like", "shape": [3], "dtype": "int32"}, {"name": "PartitionedCall/model/tf.concat_17/concat/axis", "shape": [], "dtype": "int32"}, {"name": "PartitionedCall/model/tf.math.multiply_24/Mul/y", "shape": [1, 1, 3024], "dtype": "float32"}, {"name": "6706", "shape": [3, 3, 64, 64], "dtype": "float32"}, {"name": "6718", "shape": [64], "dtype": "float32"}, {"name": "6730", "shape": [3, 3, 64, 64], "dtype": "float32"}, {"name": "6742", "shape": [64], "dtype": "float32"}, {"name": "6754", "shape": [1, 1, 64, 64], "dtype": "float32"}, {"name": "6764", "shape": [64], "dtype": "float32"}, {"name": "6704", "shape": [3, 3, 64, 64], "dtype": "float32"}, {"name": "6716", "shape": [64], "dtype": "float32"}, {"name": "6728", "shape": [3, 3, 64, 64], "dtype": "float32"}, {"name": "6740", "shape": [64], "dtype": "float32"}, {"name": "6752", "shape": [1, 1, 64, 2], "dtype": "float32"}, {"name": "6766", "shape": [2], "dtype": "float32"}, {"name": "PartitionedCall/model/tf.concat_10/concat/axis", "shape": [], "dtype": "int32"}, {"name": "PartitionedCall/model/tf.compat.v1.transpose/transpose/perm", "shape": [4], "dtype": "int32"}, {"name": "PartitionedCall/model/tf.reshape/Reshape/shape", "shape": [3], "dtype": "int32"}, {"name": "6702", "shape": [3, 3, 128, 64], "dtype": "float32"}, {"name": "6714", "shape": [64], "dtype": "float32"}, {"name": "6726", "shape": [3, 3, 64, 64], "dtype": "float32"}, {"name": "6738", "shape": [64], "dtype": "float32"}, {"name": "6750", "shape": [1, 1, 64, 64], "dtype": "float32"}, {"name": "6760", "shape": [64], "dtype": "float32"}, {"name": "6700", "shape": [3, 3, 128, 64], "dtype": "float32"}, {"name": "6712", "shape": [64], "dtype": "float32"}, {"name": "6724", "shape": [3, 3, 64, 64], "dtype": "float32"}, {"name": "6736", "shape": [64], "dtype": "float32"}, {"name": "6748", "shape": [1, 1, 64, 2], "dtype": "float32"}, {"name": "6762", "shape": [2], "dtype": "float32"}, {"name": "PartitionedCall/model/tf.concat_13/concat/axis", "shape": [], "dtype": "int32"}, {"name": "PartitionedCall/model/tf.compat.v1.transpose_1/transpose/perm", "shape": [4], "dtype": "int32"}, {"name": "PartitionedCall/model/tf.reshape_1/Reshape/shape", "shape": [3], "dtype": "int32"}, {"name": "6698", "shape": [3, 3, 256, 64], "dtype": "float32"}, {"name": "6710", "shape": [64], "dtype": "float32"}, {"name": "6722", "shape": [3, 3, 64, 64], "dtype": "float32"}, {"name": "6734", "shape": [64], "dtype": "float32"}, {"name": "6746", "shape": [1, 1, 64, 64], "dtype": "float32"}, {"name": "6756", "shape": [64], "dtype": "float32"}, {"name": "6688", "shape": [4], "dtype": "int32"}, {"name": "6690", "shape": [4], "dtype": "int32"}, {"name": "PartitionedCall/model/tf.strided_slice_14/ones_like", "shape": [4], "dtype": "int32"}, {"name": "6658", "shape": [4], "dtype": "int32"}, {"name": "6660", "shape": [4], "dtype": "int32"}, {"name": "PartitionedCall/model/tf.strided_slice_12/ones_like", "shape": [4], "dtype": "int32"}, {"name": "6628", "shape": [4], "dtype": "int32"}, {"name": "6630", "shape": [4], "dtype": "int32"}, {"name": "PartitionedCall/model/tf.strided_slice_10/ones_like", "shape": [4], "dtype": "int32"}, {"name": "PartitionedCall/model/lambda_1//model.13/Resize/size", "shape": [2], "dtype": "int32"}, {"name": "PartitionedCall/model/tf.concat_7/concat/axis", "shape": [], "dtype": "int32"}, {"name": "6612", "shape": [1, 1, 192, 64], "dtype": "float32"}, {"name": "6614", "shape": [64], "dtype": "float32"}, {"name": "6616", "shape": [4], "dtype": "int32"}, {"name": "6618", "shape": [4], "dtype": "int32"}, {"name": "PartitionedCall/model/tf.strided_slice_11/ones_like", "shape": [4], "dtype": "int32"}, {"name": "6620", "shape": [3, 3, 32, 32], "dtype": "float32"}, {"name": "6622", "shape": [32], "dtype": "float32"}, {"name": "6624", "shape": [3, 3, 32, 32], "dtype": "float32"}, {"name": "6626", "shape": [32], "dtype": "float32"}, {"name": "PartitionedCall/model/tf.concat_8/concat/axis", "shape": [], "dtype": "int32"}, {"name": "6632", "shape": [1, 1, 96, 64], "dtype": "float32"}, {"name": "6634", "shape": [64], "dtype": "float32"}, {"name": "6636", "shape": [4, 2], "dtype": "int32"}, {"name": "6638", "shape": [3, 3, 64, 64], "dtype": "float32"}, {"name": "6640", "shape": [64], "dtype": "float32"}, {"name": "6604", "shape": [4], "dtype": "int32"}, {"name": "6606", "shape": [4], "dtype": "int32"}, {"name": "PartitionedCall/model/tf.strided_slice_8/ones_like", "shape": [4], "dtype": "int32"}, {"name": "PartitionedCall/model/lambda//model.10/Resize/size", "shape": [2], "dtype": "int32"}, {"name": "PartitionedCall/model/tf.concat_5/concat/axis", "shape": [], "dtype": "int32"}, {"name": "6588", "shape": [1, 1, 384, 128], "dtype": "float32"}, {"name": "6590", "shape": [128], "dtype": "float32"}, {"name": "6592", "shape": [4], "dtype": "int32"}, {"name": "6594", "shape": [4], "dtype": "int32"}, {"name": "PartitionedCall/model/tf.strided_slice_9/ones_like", "shape": [4], "dtype": "int32"}, {"name": "6596", "shape": [3, 3, 64, 64], "dtype": "float32"}, {"name": "6598", "shape": [64], "dtype": "float32"}, {"name": "6600", "shape": [3, 3, 64, 64], "dtype": "float32"}, {"name": "6602", "shape": [64], "dtype": "float32"}, {"name": "PartitionedCall/model/tf.concat_6/concat/axis", "shape": [], "dtype": "int32"}, {"name": "6608", "shape": [1, 1, 192, 128], "dtype": "float32"}, {"name": "6610", "shape": [128], "dtype": "float32"}, {"name": "PartitionedCall/model/tf.concat_9/concat/axis", "shape": [], "dtype": "int32"}, {"name": "6642", "shape": [1, 1, 192, 128], "dtype": "float32"}, {"name": "6644", "shape": [128], "dtype": "float32"}, {"name": "6646", "shape": [4], "dtype": "int32"}, {"name": "6648", "shape": [4], "dtype": "int32"}, {"name": "PartitionedCall/model/tf.strided_slice_13/ones_like", "shape": [4], "dtype": "int32"}, {"name": "6650", "shape": [3, 3, 64, 64], "dtype": "float32"}, {"name": "6652", "shape": [64], "dtype": "float32"}, {"name": "6654", "shape": [3, 3, 64, 64], "dtype": "float32"}, {"name": "6656", "shape": [64], "dtype": "float32"}, {"name": "PartitionedCall/model/tf.concat_11/concat/axis", "shape": [], "dtype": "int32"}, {"name": "6662", "shape": [1, 1, 192, 128], "dtype": "float32"}, {"name": "6664", "shape": [128], "dtype": "float32"}, {"name": "6666", "shape": [4, 2], "dtype": "int32"}, {"name": "6668", "shape": [3, 3, 128, 128], "dtype": "float32"}, {"name": "6670", "shape": [128], "dtype": "float32"}, {"name": "6572", "shape": [4], "dtype": "int32"}, {"name": "6574", "shape": [4], "dtype": "int32"}, {"name": "PartitionedCall/model/tf.strided_slice_6/ones_like", "shape": [4], "dtype": "int32"}, {"name": "6542", "shape": [4], "dtype": "int32"}, {"name": "6544", "shape": [4], "dtype": "int32"}, {"name": "PartitionedCall/model/tf.strided_slice_4/ones_like", "shape": [4], "dtype": "int32"}, {"name": "6504", "shape": [4], "dtype": "int32"}, {"name": "6506", "shape": [4], "dtype": "int32"}, {"name": "PartitionedCall/model/tf.strided_slice_2/ones_like", "shape": [4], "dtype": "int32"}, {"name": "6466", "shape": [4], "dtype": "int32"}, {"name": "6468", "shape": [4], "dtype": "int32"}, {"name": "PartitionedCall/model/tf.strided_slice/ones_like", "shape": [4], "dtype": "int32"}, {"name": "6438", "shape": [4, 2], "dtype": "int32"}, {"name": "6440", "shape": [3, 3, 3, 16], "dtype": "float32"}, {"name": "6442", "shape": [16], "dtype": "float32"}, {"name": "6444", "shape": [4, 2], "dtype": "int32"}, {"name": "6446", "shape": [3, 3, 16, 32], "dtype": "float32"}, {"name": "6448", "shape": [32], "dtype": "float32"}, {"name": "6450", "shape": [1, 1, 32, 32], "dtype": "float32"}, {"name": "6452", "shape": [32], "dtype": "float32"}, {"name": "6454", "shape": [4], "dtype": "int32"}, {"name": "6456", "shape": [4], "dtype": "int32"}, {"name": "PartitionedCall/model/tf.strided_slice_1/ones_like", "shape": [4], "dtype": "int32"}, {"name": "6458", "shape": [3, 3, 16, 16], "dtype": "float32"}, {"name": "6460", "shape": [16], "dtype": "float32"}, {"name": "6462", "shape": [3, 3, 16, 16], "dtype": "float32"}, {"name": "6464", "shape": [16], "dtype": "float32"}, {"name": "PartitionedCall/model/tf.concat/concat/axis", "shape": [], "dtype": "int32"}, {"name": "6470", "shape": [1, 1, 48, 32], "dtype": "float32"}, {"name": "6472", "shape": [32], "dtype": "float32"}, {"name": "6474", "shape": [4, 2], "dtype": "int32"}, {"name": "6476", "shape": [3, 3, 32, 64], "dtype": "float32"}, {"name": "6478", "shape": [64], "dtype": "float32"}, {"name": "6480", "shape": [1, 1, 64, 64], "dtype": "float32"}, {"name": "6482", "shape": [64], "dtype": "float32"}, {"name": "6484", "shape": [4], "dtype": "int32"}, {"name": "6486", "shape": [4], "dtype": "int32"}, {"name": "PartitionedCall/model/tf.strided_slice_3/ones_like", "shape": [4], "dtype": "int32"}, {"name": "6488", "shape": [3, 3, 32, 32], "dtype": "float32"}, {"name": "6490", "shape": [32], "dtype": "float32"}, {"name": "6492", "shape": [3, 3, 32, 32], "dtype": "float32"}, {"name": "6494", "shape": [32], "dtype": "float32"}, {"name": "6496", "shape": [3, 3, 32, 32], "dtype": "float32"}, {"name": "6498", "shape": [32], "dtype": "float32"}, {"name": "6500", "shape": [3, 3, 32, 32], "dtype": "float32"}, {"name": "6502", "shape": [32], "dtype": "float32"}, {"name": "PartitionedCall/model/tf.concat_1/concat/axis", "shape": [], "dtype": "int32"}, {"name": "6508", "shape": [1, 1, 128, 64], "dtype": "float32"}, {"name": "6510", "shape": [64], "dtype": "float32"}, {"name": "6512", "shape": [4, 2], "dtype": "int32"}, {"name": "6514", "shape": [3, 3, 64, 128], "dtype": "float32"}, {"name": "6516", "shape": [128], "dtype": "float32"}, {"name": "6518", "shape": [1, 1, 128, 128], "dtype": "float32"}, {"name": "6520", "shape": [128], "dtype": "float32"}, {"name": "6522", "shape": [4], "dtype": "int32"}, {"name": "6524", "shape": [4], "dtype": "int32"}, {"name": "PartitionedCall/model/tf.strided_slice_5/ones_like", "shape": [4], "dtype": "int32"}, {"name": "6526", "shape": [3, 3, 64, 64], "dtype": "float32"}, {"name": "6528", "shape": [64], "dtype": "float32"}, {"name": "6530", "shape": [3, 3, 64, 64], "dtype": "float32"}, {"name": "6532", "shape": [64], "dtype": "float32"}, {"name": "6534", "shape": [3, 3, 64, 64], "dtype": "float32"}, {"name": "6536", "shape": [64], "dtype": "float32"}, {"name": "6538", "shape": [3, 3, 64, 64], "dtype": "float32"}, {"name": "6540", "shape": [64], "dtype": "float32"}, {"name": "PartitionedCall/model/tf.concat_2/concat/axis", "shape": [], "dtype": "int32"}, {"name": "6546", "shape": [1, 1, 256, 128], "dtype": "float32"}, {"name": "6548", "shape": [128], "dtype": "float32"}, {"name": "6550", "shape": [4, 2], "dtype": "int32"}, {"name": "6552", "shape": [3, 3, 128, 256], "dtype": "float32"}, {"name": "6554", "shape": [256], "dtype": "float32"}, {"name": "6556", "shape": [1, 1, 256, 256], "dtype": "float32"}, {"name": "6558", "shape": [256], "dtype": "float32"}, {"name": "6560", "shape": [4], "dtype": "int32"}, {"name": "6562", "shape": [4], "dtype": "int32"}, {"name": "PartitionedCall/model/tf.strided_slice_7/ones_like", "shape": [4], "dtype": "int32"}, {"name": "6564", "shape": [3, 3, 128, 128], "dtype": "float32"}, {"name": "6566", "shape": [128], "dtype": "float32"}, {"name": "6568", "shape": [3, 3, 128, 128], "dtype": "float32"}, {"name": "6570", "shape": [128], "dtype": "float32"}, {"name": "PartitionedCall/model/tf.concat_3/concat/axis", "shape": [], "dtype": "int32"}, {"name": "6576", "shape": [1, 1, 384, 256], "dtype": "float32"}, {"name": "6578", "shape": [256], "dtype": "float32"}, {"name": "6580", "shape": [1, 1, 256, 128], "dtype": "float32"}, {"name": "6582", "shape": [128], "dtype": "float32"}, {"name": "PartitionedCall/model/tf.concat_4/concat/axis", "shape": [], "dtype": "int32"}, {"name": "6584", "shape": [1, 1, 512, 256], "dtype": "float32"}, {"name": "6586", "shape": [256], "dtype": "float32"}, {"name": "PartitionedCall/model/tf.concat_12/concat/axis", "shape": [], "dtype": "int32"}, {"name": "6672", "shape": [1, 1, 384, 256], "dtype": "float32"}, {"name": "6674", "shape": [256], "dtype": "float32"}, {"name": "6676", "shape": [4], "dtype": "int32"}, {"name": "6678", "shape": [4], "dtype": "int32"}, {"name": "PartitionedCall/model/tf.strided_slice_15/ones_like", "shape": [4], "dtype": "int32"}, {"name": "6680", "shape": [3, 3, 128, 128], "dtype": "float32"}, {"name": "6682", "shape": [128], "dtype": "float32"}, {"name": "6684", "shape": [3, 3, 128, 128], "dtype": "float32"}, {"name": "6686", "shape": [128], "dtype": "float32"}, {"name": "PartitionedCall/model/tf.concat_14/concat/axis", "shape": [], "dtype": "int32"}, {"name": "6692", "shape": [1, 1, 384, 256], "dtype": "float32"}, {"name": "6694", "shape": [256], "dtype": "float32"}, {"name": "6696", "shape": [3, 3, 256, 64], "dtype": "float32"}, {"name": "6708", "shape": [64], "dtype": "float32"}, {"name": "6720", "shape": [3, 3, 64, 64], "dtype": "float32"}, {"name": "6732", "shape": [64], "dtype": "float32"}, {"name": "6744", "shape": [1, 1, 64, 2], "dtype": "float32"}, {"name": "6758", "shape": [2], "dtype": "float32"}, {"name": "PartitionedCall/model/tf.concat_15/concat/axis", "shape": [], "dtype": "int32"}, {"name": "PartitionedCall/model/tf.compat.v1.transpose_2/transpose/perm", "shape": [4], "dtype": "int32"}, {"name": "PartitionedCall/model/tf.reshape_2/Reshape/shape", "shape": [3], "dtype": "int32"}, {"name": "PartitionedCall/model/tf.concat_16/concat/axis", "shape": [], "dtype": "int32"}, {"name": "6788", "shape": [3], "dtype": "int32"}, {"name": "6790", "shape": [3], "dtype": "int32"}, {"name": "PartitionedCall/model/tf.strided_slice_17/StridedSlice/strides", "shape": [3], "dtype": "int32"}, {"name": "PartitionedCall/model/output0/concat/axis", "shape": [], "dtype": "int32"}]}]}